carv/controller_models/Unicycle_NL_two-input/unicycle_nl_4layer/natural_none_expanded_old.pth (torch, 7311 bytes, 8 tensors)

fc1.weight f4 [40, 3]
000000 eb 56 d2 be 98 95 78 3e bc bd cb 3d f9 20 17 bc
       -0.41081938 0.24275815 0.09948298 -0.00922417
000010 02 f0 92 3e 9a 3f d5 3d ba 4d 52 be 2c 89 0d bf
       0.28698736 0.10412522 -0.20537463 -0.5528743
000020 14 80 9e bf 36 a7 ec be bd a7 ff be ea e3 65 bc
       -1.2382836 -0.46221322 -0.49932662 -0.01403139
000030 ed 64 7a 3e 03 05 aa 3e a1 31 c1 bd bc b4 c2 3e
       0.24452563 0.3320695 -0.09433294 0.38028514
000040 e1 7d 70 3e a9 97 14 3f 53 69 b7 be 50 dc 9f be
       0.23485519 0.58043915 -0.35822544 -0.31222773
000050 5b 57 61 bf da 8f cf 3e 2b 35 ae be 33 69 19 3f
       -0.8802392 0.40539438 -0.3402494 0.59926146
000060 09 9d e4 bd f3 ed d2 3e e5 62 a2 3f 16 ec 42 bc
       -0.111627646 0.41197166 1.268643 -0.011897108
000070 f9 d3 83 be 36 1b a9 3e 0b 61 45 3c fd bc 06 bf
       -0.2574766 0.33028573 0.012047063 -0.52632123
000080 01 cf ab 3e 47 e8 bc bc 0a 1e 47 bf fb 1d 31 bf
       0.3355637 -0.023059977 -0.7778021 -0.6918637
000090 19 5d 30 3f 0f 32 15 bd 7b a4 22 bf 21 c4 2a 3f
       0.68892056 -0.036424693 -0.6353223 0.6670552
0000a0 21 e0 be 3c 30 e0 09 bf 8c 3f 28 be c9 ca cf be
       0.023300232 -0.5385771 -0.16430491 -0.405844
0000b0 51 19 9b be 03 08 a5 bd 79 c7 b1 be ca 22 1c bf
       -0.30292752 -0.08058169 -0.34722498 -0.60990584
0000c0 4d c7 fd 3e 56 af 5a bb ef 13 a0 be 43 ae b0 3e
       0.49566117 -0.0033368669 -0.31265208 0.3450795
0000d0 ed 6c 1f be 0c e8 9c be 59 dc 67 3e 8d eb 9c be
       -0.15568896 -0.30645788 0.2264265 -0.3064846
0000e0 e2 26 de 3e 6b ab 26 be ad 06 00 3f 43 6b 8b 3c
       0.4338904 -0.16276328 0.50010186 0.01701892
0000f0 79 8c 6b be b7 c0 7c 3e 85 a2 6a 3e 3e f5 2f 3f
       -0.23002805 0.2468289 0.22913559 0.68733585
000100 3b 9a 3b 3e b1 4d 0c 3f c6 e5 bb 3e 86 bd 3e 3e
       0.18320553 0.5480605 0.3669874 0.18626985
000110 ae a1 08 be a0 53 a5 be fe 3b 1d 3f 0d 8c 7c be
       -0.13342926 -0.32290363 0.61419666 -0.246628
000120 27 81 a6 be a0 16 17 3e 7d 7f be be c9 78 08 bf
       -0.3252041 0.14754725 -0.3720664 -0.53309304
000130 34 e4 0a 3f d8 70 6a 3e 27 a9 2e 3f 09 b5 a2 bc
       0.5425446 0.22894609 0.68226856 -0.019861715
000140 45 2b 24 bf 49 7a c0 3e 8c bc 14 bf e0 6d 3c bf
       -0.64128524 0.37593296 -0.581002 -0.73605156
000150 0e d2 7a 3e ff 04 ee be 94 38 f3 be 29 6c 4e 3e
       0.24494192 -0.46488187 -0.47504103 0.20158447
000160 06 a0 10 3f f9 92 19 bf 75 1d 37 be 48 b2 cc be
       0.56494176 -0.5998989 -0.1788233 -0.39979768
000170 98 7b 37 3f 17 99 03 bf 15 5b f5 be 54 68 d9 3d
       0.71672964 -0.5140547 -0.47921053 0.10615602
000180 53 19 c8 be e0 13 e6 3e d3 7c 7b ba 61 04 57 bd
       -0.3908182 0.44937038 -0.00095934904 -0.05249441
000190 c7 a8 f8 3d b0 e3 45 bf 33 c9 fd bd a8 96 8e be
       0.12141567 -0.7730055 -0.12391891 -0.27849317
0001a0 39 dd 50 bf da c9 f5 3e 06 27 63 be 35 1b 16 3e
       -0.8158756 0.48005563 -0.22182855 0.14658816
0001b0 b6 b3 48 3f 07 48 40 3e 00 75 b2 be 66 eb 0b be
       0.7839922 0.18777476 -0.3485489 -0.13664016
0001c0 db d2 b7 3d a9 39 4f 3f ff 55 d3 3e 90 30 60 3e
       0.08975764 0.8094736 0.41276547 0.21893525
0001d0 c5 18 8a bd d1 73 13 3f ef c9 6e be 7d 6e a3 be
       -0.06743006 0.57598597 -0.23319219 -0.31920233

fc1.bias f4 [40]
000000 e2 ae 02 bf 12 c1 62 3f fd 92 3b 3e 31 93 08 3e
       -0.510481 0.8857585 0.1831779 0.13337399
000010 c8 dc 8a be b0 28 42 3d 03 22 75 be 3a c6 c9 3e
       -0.27121568 0.047402084 -0.23938756 0.39409047
000020 36 5c 18 bf b6 d8 75 3f c2 18 d2 be 17 71 83 3e
       -0.595157 0.960338 -0.41034514 0.25672218
000030 30 a8 14 3e ae c5 c2 3e 90 6e 13 bf 2a 98 50 3f
       0.14517283 0.38041443 -0.5759058 0.81482184
000040 46 02 30 3f 12 18 a6 3e e0 fe 26 3e 09 3e 1c 3f
       0.6875347 0.3244024 0.16308165 0.6103216
000050 b3 e7 33 3f b5 e0 3f 3f 54 de fe be 5f 83 91 3d
       0.7027542 0.7495225 -0.49778998 0.07105135
000060 24 2d d7 bb 45 53 05 bc 62 b5 18 3e 01 ee cd 3e
       -0.0065666605 -0.008137529 0.14912942 0.40220645
000070 89 3d 5b 3f fe 27 01 bf a4 8c 8c be 11 f6 62 be
       0.8564077 -0.5045165 -0.2745105 -0.2216418
000080 ac 39 86 be ba 1a 0e 3d a0 c1 12 bf 14 9e 0b bf
       -0.26215875 0.034693457 -0.573267 -0.54538083
000090 87 d5 ca 3e 25 a2 82 3c 9f ad ec 3e 3e 1f e9 3e
       0.39616033 0.015946457 0.46226212 0.45531648

fc2.weight f4 [20, 40]
000000 b9 db b0 bd 2b 7a a5 3d 4b db 3c 3d 3e d3 2b bd
       -0.08635659 0.08079942 0.04610757 -0.041949503
000010 e0 2c d1 bd 9e c0 83 bd 61 77 1f 3e 72 97 bb bd
       -0.10213637 -0.06433223 0.15572883 -0.09159745
000020 c3 24 f0 bd 4e 81 d4 bd a7 a2 05 3e 3e 70 6b 3d
       -0.11725762 -0.103762254 0.13050328 0.05748009
000030 40 4f c5 bd 9e 9b 21 3e 89 69 fa bd d6 87 1d be
       -0.09634256 0.1578202 -0.122271605 -0.15383849
000040 76 e7 e5 bd 99 99 b6 3d 4b b5 71 bd 54 9a 82 bd
       -0.11225788 0.08916015 -0.059010785 -0.06377092
000050 26 9e 4a bd c3 7e c0 bd 5e 2c 1b 3e 75 ad dc ba
       -0.04946723 -0.09399178 0.15153643 -0.0016836362
000060 e3 21 33 bd c8 c3 17 3e 33 47 16 be c2 b7 7d bd
       -0.04373349 0.14820778 -0.14675598 -0.061942823
000070 97 96 1d 3e 2e 42 f0 bd 39 5d 74 3d e5 d0 d9 bd
       0.15389477 -0.11731373 0.059659217 -0.106355466
000080 06 ca 04 be 21 0e 71 bd 06 db f4 bd 3b 39 40 bd
       -0.12967691 -0.058851365 -0.11955838 -0.04692958
000090 17 cc ad bd 2b 6a 8b bd 38 c3 3f bd 14 b1 8c bd
       -0.08486193 -0.06807359 -0.046817034 -0.068697125
0000a0 37 c2 d1 bd e3 00 32 3e 5e 9b 2c bd 4d 3d a4 bd
       -0.10242122 0.17383151 -0.042140357 -0.08019505
0000b0 2c ca a5 bd dd 50 45 be cd b8 28 be 23 19 b9 3c
       -0.08095202 -0.19269128 -0.16476746 0.022594994
0000c0 3d 25 ff bb ae 24 30 3e 50 f9 81 be 68 93 22 be
       -0.0077864216 0.17201492 -0.25385523 -0.15876544
0000d0 0a f8 e8 bd ef 50 9f bd d4 a2 1d 3e 14 4d da 3d
       -0.11375435 -0.07779109 0.15394145 0.10659233
0000e0 11 c6 00 be 75 5d ac be 66 ee 44 bc 01 1f bb 3d
       -0.12575556 -0.33665052 -0.012019729 0.09136773
0000f0 6d d0 47 3e 76 9a 74 be a1 47 e2 bd c1 6f 07 3e
       0.19513102 -0.23887047 -0.110488184 0.13226224
000100 7c 4e ea bc 4a f7 1b 3d b3 ec 1e be 80 66 ff be
       -0.028601877 0.03807763 -0.15519981 -0.4988289
000110 1a 57 db be 54 d2 2c 3c 3e a7 49 3e 50 5c 65 be
       -0.4283989 0.010548193 0.19692704 -0.22398496
000120 de ab 35 3d dd d9 43 3c 8c 56 e2 be 82 95 0a be
       0.04435336 0.011953798 -0.44206655 -0.13533595
000130 0b 1d 87 39 c4 f3 45 be 53 0a ba be 74 0e ef be
       0.00025770845 -0.1933127 -0.36336002 -0.46690714
000140 fb 67 04 be cf 16 2e 3d d4 b1 70 bd d0 e2 84 3d
       -0.1293029 0.04250222 -0.05876334 0.064885736
000150 fd 72 3b 3d ab 44 12 3e 40 bc 37 bd 65 c7 4d bd
       0.04576396 0.14284007 -0.044857264 -0.050238986
000160 72 e5 13 be 30 52 a2 bc e5 34 20 3e 1e 95 d2 bd
       -0.14442995 -0.01981458 0.15645178 -0.10282348
000170 f4 da ea bd e2 97 c2 3d 57 c3 81 3d 34 4f f6 3d
       -0.11467543 0.095016256 0.06336086 0.120268255
000180 73 f7 dd bd c8 b0 56 bd 36 a5 16 3e 46 41 cb bd
       -0.10838213 -0.052414685 0.1471146 -0.09924559
000190 83 28 e2 bd a4 5a 6b bd 0b 83 17 be 42 87 5d bd
       -0.11042883 -0.05745949 -0.14796083 -0.05408407
0001a0 ee 24 1c 3c 90 6b 35 3d 73 54 bf 3d 18 72 7a bd
       0.009530289 0.044292033 0.09342279 -0.061143965
0001b0 0e 9a a8 bd 12 f4 f8 bd a8 80 a6 bb cc c4 08 bd
       -0.082325086 -0.12155928 -0.005081255 -0.033390805
0001c0 da f7 07 be 91 32 b4 3d b2 53 5a 3d 61 0e ae bd
       -0.13278142 0.08798707 0.053302474 -0.08498836
0001d0 c8 6c f8 bd 4d 63 c7 bd 49 a6 a9 bd 19 68 d9 bd
       -0.121301234 -0.09735737 -0.082836695 -0.10615558
0001e0 6a 3c b8 bd 73 d7 78 3e 41 45 d3 bc f9 52 e2 3d
       -0.08995898 0.24300937 -0.025789859 0.11050982
0001f0 8d bd e8 bd fe a3 f0 be a8 15 0e ba 5f 9f 85 be
       -0.11364279 -0.47000116 -0.0005420097 -0.26098153
000200 92 0b d6 bd 25 bc 14 3e 15 53 f5 3d e5 3c 68 3d
       -0.104514256 0.14524896 0.11978737 0.0566987
000210 85 e4 38 3e de 77 6e 3e 11 f9 99 be c0 5a 08 3e
       0.18055923 0.23287913 -0.30072835 0.13315868
000220 79 c8 a9 bd 98 e6 80 be af 41 b9 be 7c 8e 6b 3e
       -0.0829019 -0.2517593 -0.36182925 0.23003572
000230 55 2e cb 3d 1b 0b 5f be b2 c0 c8 bd 35 c5 5d 3c
       0.099209465 -0.2178158 -0.09802379 0.013535787
000240 42 85 43 bd 73 c8 ac bd b4 db f4 3d b8 91 37 be
       -0.047734506 -0.0843667 0.119559675 -0.17926681
000250 ea f9 9d 3d 63 d4 a3 3d c0 78 79 be b5 0e 0c 3e
       0.07713683 0.07999494 -0.24362469 0.13677485
000260 a6 1c 02 3e ad 04 f4 bb 5f b0 93 be b3 04 bd bb
       0.12706241 -0.0074468465 -0.28845498 -0.0057683825
000270 23 79 9a 3d 50 be 41 be d2 ae 96 be bf a5 9a be
       0.07542636 -0.18920255 -0.29430252 -0.3020458
000280 2d 27 82 bd ab 85 ce 3d 55 45 62 3e 19 16 87 bd
       -0.063551284 0.10084089 0.2209676 -0.06596012
000290 b3 57 05 3e 3c 6c 94 be 21 b2 a7 3c f4 60 50 be
       0.13021736 -0.28988826 0.02047068 -0.20349485
0002a0 28 95 d1 3c 4c 43 e2 3e bb 93 1b be df b7 26 3e
       0.025583819 0.44191968 -0.15193073 0.16281079
0002b0 f6 88 1d be 1f c0 96 bd d9 c8 7b be 7c 8b 55 3e
       -0.15384278 -0.07360863 -0.24588336 0.2085399
0002c0 6e 04 ab be bc dc 3e be a5 c0 25 be 4a 33 0e 3d
       -0.33401817 -0.18638891 -0.1618677 0.03471688
0002d0 38 5c 5a bd f0 35 b4 be e0 cf f6 bd 89 87 51 bd
       -0.053310603 -0.351974 -0.12051368 -0.051154647
0002e0 20 22 f1 3d 1d 27 13 3e 8a 03 c6 3d 78 21 92 be
       0.11774087 0.1437039 0.09668644 -0.2854116
0002f0 4a 4d 3b bd af aa e3 bd 70 03 35 be da 7d fb 3c
       -0.045728005 -0.1111654 -0.17677093 0.03069966
000300 f2 f8 d2 bd df 04 6d 3e 51 70 9e bd 0e 12 26 3c
       -0.10301389 0.2314639 -0.077362664 0.0101361405
000310 88 d8 6e 3d ee 0c 6d be 01 84 db be 19 38 a8 be
       0.05831197 -0.23149464 -0.42874148 -0.328553
000320 c5 d5 04 be c8 02 b5 3d 18 ef 40 bc ee c1 e8 3c
       -0.12972172 0.08838421 -0.011775754 0.028412785
000330 21 91 f8 bd d9 a1 14 3e 1f 8c e7 bc 59 bb a6 3d
       -0.12137056 0.14514865 -0.028265057 0.081412025
000340 39 dc 35 3e 58 a9 91 3e a5 f2 bf be 62 13 ad 3e
       0.1775979 0.28449512 -0.3748981 0.3380385
000350 72 02 03 bf bb 65 b7 be 72 76 14 bf 37 f8 7f 3e
       -0.51175606 -0.35819802 -0.57993233 0.2499703
000360 95 10 01 be 54 c7 86 be 4b 62 84 3e 9f 74 33 3e
       -0.12603982 -0.2632395 0.25856242 0.17524956
000370 44 7b 19 bc 95 ea 1e be 85 a3 e0 3c ba 8b b9 3d
       -0.009367768 -0.15519173 0.027421722 0.09059854
000380 55 c8 b7 bd 48 31 a1 3d c0 35 da be 7a 0d 1b be
       -0.08973757 0.07870728 -0.42619133 -0.1514186
000390 46 6d 63 3e ea 4a 89 3e fc ca 54 3e 27 f7 64 bd
       0.22209653 0.26814967 0.20780557 -0.055899765
0003a0 c1 6c 9b 3d 98 49 fa 3d e7 9c 02 bf 61 74 05 bd
       0.075891025 0.12221068 -0.51020664 -0.03258169
0003b0 59 cf 0b bf 6f 52 20 be 13 9d 03 be d5 b7 74 be
       -0.5461326 -0.15656446 -0.12852888 -0.23898251
0003c0 3e 82 af 3d e9 8f 1d bd 0e a4 ac be 08 8a d0 bb
       0.085697636 -0.03846732 -0.33718914 -0.006364111
0003d0 d2 f6 a8 3d 0f 84 10 3d 84 13 09 bd c5 99 52 3e
       0.08250202 0.03528219 -0.033465877 0.20566471
0003e0 32 b9 60 3e ca 04 73 bf 3d 2f 60 3e c8 30 d8 3c
       0.21945646 -0.9492918 0.2189302 0.026390448
0003f0 b6 cd a2 bd bf 38 b0 bd c6 ee a3 bd 3b 1d 84 be
       -0.079493925 -0.086045735 -0.08004527 -0.2580355

fc2.bias f4 [20]
000000 db ab 1e be 87 47 a4 3e 3d f7 09 be fe 94 52 3e
       -0.15495245 0.3208582 -0.1347322 0.20564649
000010 76 88 c2 3e 8b 37 c5 3d 72 b7 bb 3d b0 4b 1c be
       0.37994736 0.096297346 0.09165849 -0.15263247
000020 0d 15 c0 3c ed 34 b1 3d 1c c4 64 3e f4 82 60 3e
       0.023447538 0.08652673 0.22340435 0.21924955
000030 f7 e2 f4 3e 09 33 f9 3c f1 7d 52 3e 90 9c 9a 3b
       0.4782941 0.030419843 0.20555855 0.0047183707
000040 0e c1 38 3e a5 ff c0 bd ed 60 d8 3d 14 4c ac 3e
       0.18042395 -0.0942376 0.10565362 0.33651793

fc3.weight f4 [10, 20]
000000 d7 46 18 3e 9b 43 fa bd 79 7b 92 3d 9f 63 20 bd
       0.14870773 -0.12219926 0.07152457 -0.039157506
000010 e6 12 1f 3d 0f be 90 3e dc 02 3e be ac 62 36 be
       0.038836382 0.28270003 -0.18555778 -0.17811078
000020 57 74 7b 3e 97 67 01 bc 60 f3 75 3e 72 89 ba be
       0.24556099 -0.007898233 0.24018621 -0.36432987
000030 ca a5 9d bd bb 2d c1 3d 79 25 8d 3c d6 8b c5 3e
       -0.076976374 0.094325505 0.017229782 0.3858325
000040 8c 08 04 3e d2 d3 89 3d 9a b3 7e 3d cb e3 1c 3e
       0.12893885 0.06729855 0.062183 0.15321271
000050 ec 38 c0 bc 37 1d 26 3e 59 50 e6 bd 0f 3c 66 3e
       -0.023464642 0.16222082 -0.11245794 0.22483848
000060 4d b8 89 3e bc 45 0a 3e 40 6f 4b 3e a4 4f 39 3e
       0.26898423 0.13503164 0.19866657 0.18096787
000070 09 94 f1 3d e0 d7 61 3e e9 74 cf bb 74 e7 89 be
       0.117958136 0.22055006 -0.0063310754 -0.26934397
000080 74 26 07 3f 1e 0f a5 bd 33 d6 cc 3d 3e 17 e3 bd
       0.5279305 -0.08059524 0.10001793 -0.110884175
000090 b9 8c 75 3e fe de cc bc 3e 67 a3 bb bb 42 b6 3c
       0.23979463 -0.025008675 -0.0049866727 0.022248616
0000a0 55 b1 60 3e 88 e8 2f bf 05 b0 7c 3d a1 2c 9d 3d
       0.21942647 -0.6871419 0.061691303 0.07674528
0000b0 34 85 22 3e 58 fa cd be bc 54 e6 3d 50 b3 5a bd
       0.15871125 -0.4023006 0.112466305 -0.053393662
0000c0 9c a3 63 3d 04 71 31 3e 47 c6 29 3e c8 f5 b3 3e
       0.055575952 0.17328268 0.16579543 0.35148454
0000d0 db 4c 28 bf b6 55 27 be ca c5 54 bc 7b 0d 9a 3d
       -0.6574227 -0.1634129 -0.01298661 0.075221024
0000e0 ac 6b 11 be 0e f6 f5 bd 46 e2 60 3e a8 ca cc 3d
       -0.1420123 -0.12009822 0.21961316 0.09999591
0000f0 bb 9f aa bd 69 51 46 be fe ff d0 bd 17 58 d6 3d
       -0.083312474 -0.19366993 -0.10205077 0.104660206
000100 5e f2 47 3e dc 5e 3b 3e 99 c1 86 bf db c3 05 be
       0.1952605 0.18297905 -1.0527831 -0.13062994
000110 9c 5a 75 3d e8 81 c7 3d 8d 27 84 be 8b 6e 7d 3d
       0.059900865 0.097415745 -0.25811425 0.061873
000120 e8 b6 1d bf fc fc 38 be b3 8c ca 3d 65 63 fc 3e
       -0.6160722 -0.18065256 0.098901175 0.49294582
000130 77 6b 87 3c 0d a8 bb 3c ff 3b 59 be 4c c5 aa be
       0.016530735 0.022907281 -0.21214293 -0.3335365
000140 6f 2e 2d be cb a2 47 be 8f 91 0d be 78 e9 d4 bd
       -0.16912244 -0.19495694 -0.13825057 -0.10396093
000150 13 dc 22 be 14 46 42 be 47 e4 0c bd 86 ea 82 3c
       -0.15904264 -0.18972045 -0.03439739 0.01598097
000160 32 58 4d 3d ac 79 66 3c 9b 16 33 be f8 fe 2d 3e
       0.050132938 0.014067095 -0.17489092 0.16991794
000170 1b b2 3c be 2e 71 bb bd d8 9e 0a 3d e4 5c 2e be
       -0.18427317 -0.09152447 0.03384289 -0.17027622
000180 c9 78 7a bd 85 eb 58 bd bb 92 31 bd 86 51 61 be
       -0.061150346 -0.052958984 -0.043352824 -0.22003755
000190 1e a8 f8 3d a1 1d 52 3e 1a c9 31 3e 55 51 dd bd
       0.12141441 0.20519115 0.1736187 -0.108065285
0001a0 d9 f0 2c 3d ff 16 74 bd ca 8c d1 bb b1 0a 89 3d
       0.042221878 -0.059592243 -0.006394957 0.06691492
0001b0 ee bb b6 bd 3f eb 05 be b3 c9 69 bd 28 35 f0 3d
       -0.089225635 -0.1307802 -0.05707712 0.11728889
0001c0 c3 10 41 3e f2 66 98 3d 80 89 78 be e1 c6 a2 bc
       0.1885405 0.0744151 -0.24271202 -0.019870223
0001d0 f4 83 e0 bd 7a 39 01 3d 70 c4 4a be ed 02 e1 3d
       -0.10962668 0.031548955 -0.19801497 0.10986886
0001e0 b5 39 a1 bd 93 ec d4 bd c5 1f 5c be 69 d5 21 be
       -0.07872335 -0.103966855 -0.21496494 -0.15804066
0001f0 b5 35 6a be 4e 46 c3 3d 09 5e bd bd 5d 24 f5 3b
       -0.2287205 0.09534894 -0.092464514 0.0074811415
000200 b0 b3 21 be b5 2f 1b 3d 79 0f 5c bd a2 41 13 be
       -0.15791202 0.037887294 -0.053725693 -0.14380506
000210 2f e5 21 be 1e bd e7 3b 5e 81 23 3e 28 3b e1 bd
       -0.15810083 0.007072105 0.15967318 -0.10997611
000220 ce 64 b6 bd ae 5f 2f 3e 76 a2 8f 3d 47 f1 04 be
       -0.08905946 0.17126343 0.07013409 -0.12982665
000230 b6 d2 d1 3c 0b 84 16 be 33 da cf 3d 62 43 8f 3e
       0.02561317 -0.14698808 0.1014904 0.27981097
000240 88 1a c1 3e e4 d1 1c bc f7 83 9c be d3 32 dc 3c
       0.37715554 -0.009571526 -0.3056943 0.026879704
000250 d5 eb 2f be aa 19 6c 3d 78 b4 73 3e ef 83 13 bf
       -0.17179807 0.057641663 0.23799312 -0.5762319
000260 c4 ab 23 3e 15 6c 97 3a 36 47 5f 3a 8e e8 fb 3d
       0.15983492 0.0011552597 0.0008517386 0.12300216
000270 16 85 1a 3e cc bd ed 3d b2 99 02 3e 49 c3 36 be
       0.15089831 0.116084665 0.12753943 -0.17847933
000280 25 c8 d0 bd fe 91 4c be ea 8f ac 3d 38 ed ed bb
       -0.101944245 -0.19977567 0.08425887 -0.0072609447
000290 35 d1 a6 3e 51 ad 89 bb 3e d1 8d bf 32 d9 c8 3d
       0.32581487 -0.004201569 -1.1079481 0.09807052
0002a0 d6 b7 98 bc 2e 4c 82 3e 2c 56 34 be 92 fc 17 be
       -0.018642347 0.25448745 -0.17610997 -0.14842442
0002b0 61 d3 7c bf e8 a5 ff bb da 2f 86 3e 63 44 cd 3d
       -0.9876004 -0.00780176 0.26208383 0.10022809
0002c0 a4 aa 38 3e 28 44 19 3e 56 93 e8 3d 65 76 8d 3d
       0.18033844 0.14967406 0.11356227 0.069073476
0002d0 81 b3 4c 3e 1b c5 8f 3e a8 87 23 3e 55 28 72 3e
       0.1999035 0.28080067 0.15969718 0.23648198
0002e0 77 d0 54 3e b1 19 11 be f3 23 e3 3e 18 3a d4 3d
       0.20782648 -0.14169957 0.44363365 0.10362643
0002f0 c4 05 8e 3d 4b c8 12 be 15 ad 19 3d 1d 6a 00 be
       0.069346935 -0.14334218 0.03751858 -0.12540479
000300 8e 58 87 3f b7 88 ab 3d ee 8b 6f 3e 10 01 97 be
       1.05739 0.08375686 0.23393223 -0.29492998
000310 59 b1 d2 3b ae 06 45 be b1 2d 70 3d 79 fe 0d 3e
       0.006429833 -0.1924083 0.058637325 0.13866605

fc3.bias f4 [10]
000000 a1 fc 92 ba eb 5f a9 3d 3c 11 4b bd 54 72 60 3b
       -0.0011214205 0.08270248 -0.049576983 0.0034247832
000010 6a 8d 41 be 4f 5c d9 3d 42 09 2c bd 48 b4 64 3e
       -0.18901601 0.106133096 -0.042001016 0.22334397
000020 38 10 9d be 41 0b cd 3e
       -0.30676436 0.4004765

fc4.weight f4 [2, 10]
000000 80 2a 9f 3e aa 71 82 3e 5c 4c 3a 3d 28 11 7b 3d
       0.31087112 0.25477344 0.04548298 0.06129566
000010 4b 1f 52 bd 6b 0a 70 be 2f 6f ad 3d 93 36 06 3f
       -0.051299375 -0.23441474 0.08468472 0.52427024
000020 e8 d8 81 be a8 7f 11 3e ac 62 4c 3e 93 98 83 bd
       -0.253608 0.14208853 0.19959515 -0.064255856
000030 9b 38 56 bf a2 0d 4b 3f c1 99 1c 3e 50 7d ed bd
       -0.83680123 0.7931768 0.15293027 -0.11596167
000040 13 94 87 3e 87 7a 29 3e 78 07 18 3f 50 bb fc be
       0.2648016 0.16550647 0.59386396 -0.49361658

fc4.bias f4 [2]
000000 50 9f 18 be e5 df ba bd
       -0.14904523 -0.09124736
