nfl_robustness_training/src/controller_models/Unicycle_NL_two-input/unicycle_nl_4layer/natural_none_default.pth (torch, 6351 bytes, 8 tensors)

fc1.weight f4 [30, 3]
000000 38 7a f3 be 3a 20 84 3e 9c 3f ce be b3 19 10 bd
       -0.47554183 0.25805837 -0.40282905 -0.03518076
000010 33 3d b4 3e 69 24 5b 3f 28 1a a3 be 7d 4e 2c bf
       0.3520294 0.8560243 -0.31855893 -0.67307264
000020 87 d9 7c bf 42 e2 01 bf 11 6d 11 bf 04 e3 89 be
       -0.9876942 -0.5073587 -0.5680705 -0.26931012
000030 ed 64 7a 3e 03 05 aa 3e a1 31 c1 bd b8 51 ed 3e
       0.24452563 0.3320695 -0.09433294 0.4635141
000040 9a e1 12 3f 32 a7 97 3e b8 2e ad be 5d bc 8e be
       0.5737549 0.29619747 -0.33824706 -0.27878085
000050 b3 cb 39 bf 3f 28 6d 3e 9a 6a b3 3e 75 b5 bc 3e
       -0.72576445 0.23159884 0.35042268 0.3685719
000060 b1 ea e8 bc 4d 92 f4 3e 2a 6b 95 3f f1 46 4c bc
       -0.028432222 0.4776787 1.1673329 -0.012468086
000070 70 33 98 be 99 e2 6c 3e 38 72 0d be 8d 7b ae be
       -0.29726744 0.23133315 -0.13813102 -0.34078637
000080 15 32 c9 be c9 ad e9 3e 5c cc 8c bf 9d 7c 4e bf
       -0.39296022 0.456404 -1.0999866 -0.80658895
000090 e4 f6 66 3f 6a 41 ce bd 39 64 15 bf c3 92 46 3f
       0.90220475 -0.100710705 -0.5835605 0.7756769
0000a0 28 0a a9 be 78 a1 60 bf 6e 4c 26 3f 5c 49 3e bf
       -0.3301556 -0.8774638 0.6496037 -0.7433069
0000b0 11 44 2d bf 54 d6 1d be 99 83 f2 be f5 4c 43 bf
       -0.67681986 -0.15413791 -0.47366026 -0.762893
0000c0 40 58 b0 3f 87 f7 4e bf cc 45 15 bf ba 07 38 3f
       1.3776932 -0.80846447 -0.58309627 0.7188679
0000d0 dc 0f fc be 03 22 e5 be a1 a4 67 3e 9e 2a 6a 3c
       -0.4923085 -0.4475251 0.22621395 0.014292387
0000e0 32 76 8b be b1 c7 80 bd 3f 16 09 3f f0 30 7a 3f
       -0.27238613 -0.06288088 0.5354957 0.9773092
0000f0 2e 56 25 be bc 16 7e 3e 6b c6 68 3f a9 ef 47 3f
       -0.16146156 0.2481336 0.9092776 0.7810007
000100 24 60 49 3e 28 d8 eb 3d a4 14 3d 3f e1 ea 7c be
       0.19665581 0.11515838 0.7385962 -0.24698974
000110 52 09 d0 be aa 9e 6f be 26 f4 11 3f e0 e2 53 3f
       -0.4063211 -0.2340037 0.57013166 0.8276806
000120 72 53 d6 be 08 5b c6 3d 3c 2c 33 bf 0f 5b 0b bf
       -0.4186054 0.096853316 -0.6998937 -0.5443582
000130 c0 85 d8 3e 89 e6 9c bc 1a 25 e5 3d e7 5a 9a 3d
       0.42289543 -0.019152896 0.11188717 0.075368695
000140 bb 16 9d bf 7c a6 32 3e 65 58 12 bf de 97 4b 3e
       -1.2272562 0.17446321 -0.5716613 0.19882151
000150 2e 0d 30 3f 60 9b c6 be c1 81 15 bf b1 ba 98 3f
       0.6877011 -0.38790417 -0.58401114 1.1931974
000160 a2 92 ec be 7d 9d 51 bf
       -0.46205622 -0.81880933

fc1.bias f4 [30]
000000 dc 6a cd be 04 af ef 3c a9 86 a9 3e 2c f6 36 bf
       -0.4012059 0.029258259 0.3311055 -0.7146938
000010 7b 61 be be 5e 2f 6b be d0 b8 1f bf a0 0a 4c 3f
       -0.37183747 -0.22967288 -0.62391376 0.7970371
000020 3a 47 95 be 36 bc f6 bd 0b 06 48 3d e6 a6 50 bd
       -0.29155904 -0.12047617 0.048833888 -0.050940417
000030 68 12 48 3e c8 1d 1c 3e 55 70 05 be c9 f5 ec 3e
       0.19538271 0.15245736 -0.13031133 0.4628127
000040 3d f4 df 3d 35 8c 6e 3e 83 9f 1f 3f c7 14 94 3e
       0.10935257 0.23295672 0.6235277 0.28922102
000050 05 09 ae be 64 a0 a3 3e 0f f6 6a 3e 63 77 d6 3e
       -0.33991256 0.31958306 0.22945426 0.4188796
000060 1a e4 ac 3e 20 75 b8 3e 15 3d 28 3e c8 ff 96 3f
       0.33767778 0.3602686 0.16429551 1.1796808
000070 22 b9 39 3e a8 e7 f0 3c
       0.18137029 0.029407337

fc2.weight f4 [20, 30]
000000 83 0b 16 bf f1 f6 35 bf b6 cd 47 3e 2e f0 5b bf
       -0.58611315 -0.7107993 0.19512066 -0.8591336
000010 0c a6 af bd b9 34 c7 bd 9d 88 ee be d8 21 ad 3e
       -0.08576593 -0.09726853 -0.46588603 0.33814883
000020 91 a7 36 be 64 4d 15 3e ed 11 7b bd dc a5 54 be
       -0.17837359 0.14580303 -0.061296392 -0.20766395
000030 22 1e 89 bd 3c 9d 92 3c 13 41 79 be 36 a5 a5 3e
       -0.066952005 0.01789724 -0.2434123 0.32352608
000040 53 96 d1 3d 51 c5 f9 3d a3 0a 31 3e 20 22 9d 3e
       0.1023375 0.12195838 0.17289214 0.30690098
000050 0f 16 6f 3c ef 27 0b 3f d0 cb 47 bd db 56 17 3e
       0.0145926615 0.5435781 -0.048778355 0.14779226
000060 d5 05 a0 3d 16 00 ac 3d 48 58 86 ba 5a b9 a5 3e
       0.07813612 0.08398454 -0.0010249699 0.32367975
000070 49 01 6d 3e da c3 9b be 07 92 1c be f2 a2 5d bb
       0.23145021 -0.3042286 -0.1529008 -0.0033819047
000080 a5 a1 d6 bd bf 66 6d bc 00 20 07 be 8c 9a 30 be
       -0.1048005 -0.014489829 -0.13195801 -0.17246455
000090 4b 20 c6 3c a4 e6 5f bd 3b 90 68 3d 0a 73 c7 3d
       0.02418532 -0.054663315 0.056778174 0.09738739
0000a0 e7 37 cc bd 9e 13 bf 3d a5 12 5a 3d 18 68 46 bd
       -0.099716 0.093299136 0.053240437 -0.048439115
0000b0 e9 88 f1 bd 73 22 98 bd c7 22 38 3e b3 9c d8 bd
       -0.11793692 -0.07428446 0.17982017 -0.10576763
0000c0 a0 a5 0a be 37 61 f5 bd 0f 4f 1a 3e 32 ee 87 3d
       -0.13539743 -0.11981433 0.15069221 0.06637229
0000d0 5d d5 e3 bd d4 9b 3a 3e 59 93 10 be 93 e6 35 be
       -0.1112468 0.18223506 -0.14118709 -0.17763738
0000e0 37 bc 04 be 2b d9 d2 3d df 8c 8b bd a2 ce 96 bd
       -0.12962423 0.10295328 -0.068139784 -0.07363631
0000f0 fb 98 f8 bc bd 22 65 be 6b 7b 06 3f f7 20 88 3e
       -0.030346384 -0.22376533 0.5253207 0.2658765
000100 21 d8 4e bd 2d 3e 2f 3e 67 11 64 3d 47 e3 11 bf
       -0.050499085 0.17113562 0.05568066 -0.5698742
000110 66 dd f9 3d 9c b6 0a be a0 97 81 3f 73 7e c2 be
       0.122004315 -0.13546222 1.0124397 -0.37987098
000120 eb 1f eb be ae 4a af be 70 1f 5b be 1d 49 ee 3e
       -0.4592279 -0.34236664 -0.21398711 0.46540156
000130 bd 81 d0 be 07 46 b8 be 68 a9 a5 3e 73 80 2d be
       -0.40723982 -0.35990927 0.3235581 -0.1694353
000140 39 04 b6 bd da 42 de be e1 43 9a be 25 b1 a0 bd
       -0.08887524 -0.4341038 -0.30129912 -0.07846288
000150 de 41 70 bd a5 c8 18 3e 94 29 99 3f af 93 00 3f
       -0.058656566 0.1492029 1.1965814 0.5022535
000160 7b c2 6c be 9d 6b 86 be ef aa 23 be f4 ac 10 3d
       -0.23121063 -0.26253977 -0.15983175 0.03532119
000170 11 f7 1b be ef 32 ee 3d 60 21 ac ba 78 f3 24 be
       -0.15230967 0.116308086 -0.0013132505 -0.16108501
000180 39 fc 34 3e 51 f2 f9 3c 2f e5 81 3d ac 8b 1c bc
       0.1767434 0.030511053 0.063425414 -0.009554785
000190 11 21 22 3e 71 a8 b6 bd 88 a4 02 be 61 96 d5 3d
       0.15832926 -0.089188464 -0.12758076 0.10429073
0001a0 06 b3 fd bc c2 de f1 3c e1 49 12 be 0e 66 9a 3d
       -0.030969154 0.029525165 -0.14285995 0.07538997
0001b0 fd 09 37 be 7d 45 6e bc 5d b4 99 bd 14 30 29 be
       -0.17874904 -0.0145429345 -0.07505105 -0.16522247
0001c0 ba 7d 51 3d 70 ec 35 bd c9 a8 04 3d e6 05 20 be
       0.051145293 -0.044414937 0.03238753 -0.1562725
0001d0 2d ce 1a 3e 79 c4 37 be 37 5d d3 bd 08 94 e8 bd
       0.15117712 -0.17946042 -0.10320514 -0.1135636
0001e0 c9 40 9f bd 65 9c dc bd b2 1e b1 3e e7 0c 56 3e
       -0.07776029 -0.107720174 0.3459373 0.2090336
0001f0 9a 72 58 3d 61 e5 28 3e 47 b8 25 3e cb be 18 bf
       0.052843668 0.16493751 0.16183577 -0.59666127
000200 22 72 7b be a4 6e bb bc a2 08 54 3f e3 79 33 be
       -0.24555257 -0.022879906 0.8282567 -0.17526965
000210 ae 3e 8c be 2e 4e 05 3d ee 28 46 3e 18 0c 76 3f
       -0.2739157 0.03254526 0.19351551 0.96112204
000220 d6 4d 56 be c2 92 57 be 02 a3 10 3f d0 9d 2f be
       -0.2092813 -0.21052077 0.5649873 -0.17150044
000230 ee 1f 3a be 85 71 0c bf 37 18 b6 be 0b a0 5b bd
       -0.18176243 -0.5486072 -0.3556535 -0.053619426
000240 6f 68 d9 3d 9d de e0 3d 0f f8 71 3d e5 6d bc 3d
       0.10615622 0.1097996 0.059074458 0.09200648
000250 47 48 39 be 6a 24 14 be b7 42 c0 bb 4c ed 1d bd
       -0.18093978 -0.14467016 -0.005867328 -0.038556382
000260 a5 00 1d be fd 12 d0 3d 2c 1a 7c 3d 96 fb c8 bd
       -0.15332277 0.10159872 0.061548397 -0.09813611
000270 9f 6d 0f be ba 3b e6 bd f9 e4 c3 bd 20 0a fb bd
       -0.14006661 -0.11241861 -0.095651574 -0.122577906
000280 15 02 f5 bd c6 70 01 3e a3 da 12 be af 06 9e 3d
       -0.11963288 0.12640676 -0.14341216 0.077161185
000290 6c 5f 06 be 06 57 99 bd 0b d7 81 bd 61 b5 2e bc
       -0.13122338 -0.074873015 -0.06339844 -0.010663361
0002a0 10 d2 18 bd 88 ab 99 3d a1 9d 1b 3e d3 d8 e4 3d
       -0.037309706 0.0750342 0.1519685 0.111741684
0002b0 97 80 a9 3d 02 63 e4 3d aa 11 f7 bd e9 a4 de bd
       0.0827648 0.11151697 -0.12063916 -0.10871298
0002c0 e6 d3 1c 3e 30 50 35 be 9d d4 2e be ff b2 29 3e
       0.15315208 -0.1770637 -0.17073293 0.16572188
0002d0 49 0c c6 3c 0c 25 6d 3e 03 a3 c9 bd 7a 7a 4d 3e
       0.02417578 0.23158664 -0.09845545 0.20066252
0002e0 98 db c3 bd eb 89 0b be 4d ae e4 3c 41 de 23 3f
       -0.095633686 -0.1362683 0.027915144 0.6401101
0002f0 a7 b5 ed 3d ea 66 e8 3d 6d 06 e3 3d 89 09 1e be
       0.11606913 0.11347754 0.1108521 -0.15433325
000300 39 4d dc be 26 50 22 bf c1 26 65 be 28 b4 e9 bd
       -0.43027666 -0.63403547 -0.22378065 -0.11411315
000310 11 52 d4 be 18 ca 2c bf 51 63 88 3d d4 25 ae bd
       -0.41468862 -0.6749587 0.06659568 -0.08503309
000320 de 31 a1 3d 41 7e 2c bf 58 ff 10 bf d8 f0 fe bd
       0.078708395 -0.6738015 -0.56639624 -0.12448281
000330 94 63 0e 3e c7 db e9 3d 18 4b 62 3f 4d 2a c2 3e
       0.13905174 0.11418872 0.88395834 0.37922898
000340 43 45 e4 be 6f c1 31 3e 55 d1 86 be 32 db c4 bf
       -0.44584092 0.17358945 -0.26331583 -1.5379393
000350 9c 2c d9 3d 3a a8 21 bd 57 f4 39 3e 1c 2e de bc
       0.10604212 -0.039467074 0.18159615 -0.027121596
000360 39 6a 53 3e d6 df 25 3d b6 34 3b bf f2 ee ed bc
       0.2064599 0.04049667 -0.73127306 -0.029044602
000370 72 7c 4a 3e ce b5 32 bf a2 83 b3 be 92 4a 44 be
       0.19774035 -0.6980866 -0.35061365 -0.19169071
000380 f7 af ba be 05 98 17 3f d1 7d 08 bf 41 56 80 be
       -0.36462376 0.5921634 -0.5331698 -0.25065807
000390 34 7c 04 3f 82 43 0c bf 62 c2 9f be 74 12 35 be
       0.5175202 -0.5479051 -0.3120299 -0.1768282
0003a0 70 b6 8e be 0b 37 f7 bd 01 6d 5d 3d 62 ff fa bd
       -0.27873564 -0.120710455 0.054059032 -0.12255742
0003b0 e5 1d 38 3f ae 25 16 be 18 be 4e bd 45 aa e2 be
       0.71920615 -0.14662811 -0.050474256 -0.4427053
0003c0 bb c8 39 be 16 f1 82 3d 44 78 01 be ec ed 27 3c
       -0.18142979 0.0639364 -0.12643534 0.010249596
0003d0 9b 82 0f be c8 48 aa bc 99 3e d6 bd 78 87 d7 bd
       -0.14014666 -0.020786658 -0.10461158 -0.105238855
0003e0 28 85 69 3d 3d 26 3f bd 74 88 49 bd f0 a4 99 3d
       0.057011753 -0.046667326 -0.049202397 0.075021625
0003f0 a7 95 1b be e1 cd f1 bd 00 8b df 3d f2 28 31 3e
       -0.15193807 -0.118068464 0.10915184 0.17300776

fc2.bias f4 [20]
000000 bc 8f 7c 3e 1f 95 99 bd 70 31 55 be e1 1b 23 3e
       0.24664205 -0.07499146 -0.2081964 0.15928604
000010 4a e3 3e 3e 74 6f ae ba e2 b7 1d be 48 98 6f 3e
       0.18641391 -0.0013308362 -0.15402177 0.23397934
000020 23 f0 75 bd 49 62 4e be 67 e7 96 3e 00 5a 4a 3d
       -0.060043465 -0.2015468 0.2947342 0.049402237
000030 bb 1b 64 3e 3a 56 39 3e 06 86 8a bd 2f 68 5f 3d
       0.22276203 0.18099299 -0.06763844 0.054542717
000040 7a fb 8b 3b 44 d6 93 3e 9e 07 eb 3c 73 37 f7 be
       0.0042719217 0.2887441 0.028690156 -0.48284492

fc3.weight f4 [10, 20]
000000 11 c5 06 3e 45 e6 d4 3d 36 03 f3 3c a4 99 53 3b
       0.13161112 0.10395483 0.029664617 0.0032287622
000010 47 d5 46 be 06 16 91 3d f4 4b db bd d9 9f a7 bc
       -0.19417296 0.07084279 -0.10707846 -0.020461963
000020 de 45 4c 3e a0 5a c3 bc 78 21 a0 3d 7f 29 3d 3e
       0.19948527 -0.023846924 0.07818884 0.18472861
000030 1f e5 b2 bc cc 56 26 be 23 93 67 3d 1c 14 16 3e
       -0.02183777 -0.16244048 0.056536805 0.14656109
000040 4e d6 64 be 5d 76 c2 3d 53 43 cf 3d ab 31 4e be
       -0.22347376 0.09495232 0.10120263 -0.20136134
000050 85 37 01 3d d1 0b 20 be 16 6b 1f 3f ff 00 2d 3e
       0.03154709 -0.15629508 0.62272775 0.16894911
000060 87 95 01 3e ba da 97 bd e9 9a 79 3e 67 7c 69 bd
       0.12654696 -0.07414766 0.243755 -0.057003405
000070 38 e2 a0 bd 7f c7 ee bd 5e 95 30 bd 6c a3 61 3e
       -0.07855648 -0.116591446 -0.043111198 0.22034997
000080 b3 41 f4 3d ec a6 dd be 4a ba 87 3e a6 29 4b be
       0.11926594 -0.43291414 0.26509315 -0.19840106
000090 08 e4 02 be cb 9a cf bf a6 72 66 3e 6d 5b fb 3e
       -0.127823 -1.6219114 0.22504672 0.4909319
0000a0 82 73 82 bd b2 d6 59 3e 92 7e 86 bd 42 08 90 3c
       -0.063696876 0.21273306 -0.0656711 0.017582063
0000b0 b0 0e 6a be 9b 0f cb bd f8 d6 19 3e a1 76 9c 3c
       -0.22857165 -0.09915086 0.1502341 0.019099535
0000c0 d8 9e 98 3d 8d 1f 61 3e 1c 0f 19 3e 7d 4b e2 bd
       0.07452172 0.21984692 0.1494717 -0.110495545
0000d0 8e 2b 8e bd 43 1c e0 3d d3 38 44 be f0 47 1f be
       -0.06941901 0.109428905 -0.19162302 -0.15554786
0000e0 d3 dc 82 bc bc 22 95 3c 25 e6 d4 bc 9d 19 c5 3d
       -0.015974438 0.01820504 -0.025988648 0.09624026
0000f0 fb a1 0a 3d de 41 ed 3a d6 1c f9 be d2 f0 b4 bc
       0.033845883 0.0018101295 -0.48654813 -0.022087488
000100 43 9e 24 bd 7f fe a3 bd 0f 0c c8 be 2f 97 65 be
       -0.040189993 -0.08007526 -0.390717 -0.22420953
000110 88 a9 5b bc ba cb e3 3d 99 e6 5f 3e 5e 84 bf 3d
       -0.013407119 0.11122842 0.2186531 0.09351419
000120 22 ac 69 be 2b a7 9f 3e f0 7d 92 bd 46 6e 24 3e
       -0.2281957 0.31182227 -0.07152927 0.16057691
000130 67 12 eb bc 7f 37 19 3e c8 bb 48 be a1 e1 d2 bd
       -0.028695298 0.14962576 -0.19602883 -0.102969415
000140 65 bf 45 3e f9 6c b4 bd d7 6f 73 3f e2 fd 8c 3d
       0.19311292 -0.088098474 0.9509253 0.06884362
000150 74 67 25 3f 1b 4e 07 be 85 88 26 be fa dd bd 3e
       0.6461098 -0.13213389 -0.16263016 0.37083417
000160 33 0e 46 3e ac 2a 09 3e 94 e8 ab be f0 28 1f 3f
       0.19341354 0.13395184 -0.3357588 0.6217184
000170 86 42 5f be 93 2f 81 bd 45 d9 16 3f 2f 3e 33 3e
       -0.2180272 -0.06307902 0.58925277 0.1750419
000180 3a 91 1a 3e d5 84 b1 bf ad c9 5d 3f 51 dc 58 3f
       0.15094462 -1.3868662 0.8663586 0.84711176
000190 99 c5 91 3d df 45 20 be af 38 46 bd 91 ae 21 3d
       0.07117767 -0.15651654 -0.0483939 0.03947312
0001a0 16 6c 09 bd b5 33 e3 3b ed 73 4d bd 22 57 58 be
       -0.033550344 0.006933654 -0.050159384 -0.21126989
0001b0 3d 06 1b bd f1 2e 2e bd 13 ce 37 3e fd 1f be 3d
       -0.037847746 -0.042525236 0.17949705 0.09283445
0001c0 87 30 78 bd 3c ca 03 be 36 f2 a3 3c 24 a1 f7 bd
       -0.060593154 -0.12870115 0.020012956 -0.12091282
0001d0 c8 01 b4 bd bd 33 57 3d 13 56 5a be 61 8c eb bd
       -0.08789402 0.052539576 -0.21321897 -0.115013845
0001e0 d9 f9 71 3e f4 b7 6a 3d 1d 1a ea 3e a4 0e 56 3e
       0.23630466 0.057304338 0.45723048 0.20904022
0001f0 72 91 d7 3e 80 bf 40 be 73 ef ab bc 7d d1 99 3e
       0.42103153 -0.18823051 -0.020988202 0.3004264
000200 24 11 ff 3d 4f 8d ab 3d bd 70 3b bf 44 75 45 3f
       0.12454441 0.08376562 -0.732189 0.7713206
000210 cd 96 d4 bd 53 ae 9c be a0 2e 81 3e 38 9b 9f 3d
       -0.103803255 -0.3060175 0.25230885 0.077932775
000220 da 5f 47 be b4 88 96 bf 97 92 de 3e f5 9f 3f bc
       -0.19470158 -1.1760468 0.43471214 -0.011695852
000230 bf ee 16 3e b5 e5 78 bd 9d 86 05 3f 1b f5 49 be
       0.14739512 -0.06076594 0.5215853 -0.19722407
000240 5c e2 19 3f cf 34 5b bc f6 49 1c be 02 a3 d0 3e
       0.6011102 -0.01337929 -0.15262589 0.40749365
000250 73 17 99 3c a9 f9 40 3d 19 31 cf be b5 dd a5 3e
       0.01868794 0.047113094 -0.40467146 0.32395712
000260 2c 49 c4 3b db 57 36 be fb 31 d5 3e f7 db 5c 3e
       0.005990168 -0.17806952 0.41639695 0.21568285
000270 6c 90 0e 3e 95 bd 7f bf 4e 9a 6d 3e 8a 22 99 bd
       0.1392228 -0.99898654 0.23203394 -0.07477291
000280 92 48 df be 85 27 08 be 1e 0a 42 3f fe 8d 4c 3e
       -0.43610054 -0.13296326 0.7579669 0.1997604
000290 12 25 c4 3e c7 97 13 be 8b 62 8e 3e 30 99 41 bf
       0.38309532 -0.14413367 0.27809557 -0.7562437
0002a0 21 7a f4 bd 7c 9d 52 bd d9 b1 12 3f 93 f5 a7 be
       -0.11937357 -0.05141972 0.57302624 -0.32804546
0002b0 d6 08 96 3c 66 96 21 3d 95 a4 06 3f 99 c2 0e 3e
       0.01831476 0.03945007 0.5259488 0.1394142
0002c0 dd b9 ff bd fc 98 43 bf 43 bf be bd a8 fb 29 3f
       -0.124866225 -0.7640531 -0.09313824 0.6639962
0002d0 9d 43 87 3e 31 59 c6 bd 51 31 cc 3d 6b 15 5d 3e
       0.26418772 -0.09684981 0.09970344 0.21590202
0002e0 bc a5 29 3f 53 4a 1b bd 84 3e df bd b8 4f 5e 3f
       0.66268516 -0.037912678 -0.10900596 0.8684039
0002f0 f3 0d 0a bd 25 83 fe 3d b2 4f 6a bf bf 92 56 3f
       -0.03370471 0.124273576 -0.91527855 0.83817667
000300 42 82 3c be 5e 57 77 be d7 8b 61 3e c1 75 b4 3e
       -0.18409064 -0.24154422 0.22026001 0.3524609
000310 6a 61 78 3d b9 43 7a bf ce 01 d0 3e f5 4d 5a be
       0.060639776 -0.97759587 0.40626377 -0.21318801

fc3.bias f4 [10]
000000 1b 9f 49 be de b9 90 be 61 dd 3b be bd 19 23 3e
       -0.196896 -0.28266805 -0.18346168 0.15927787
000010 82 f8 f6 be 2b f5 db bc b3 aa 08 3e 13 c6 a4 3e
       -0.4823647 -0.026850304 0.13346367 0.3218237
000020 61 86 d8 bb c2 21 56 3e
       -0.006607816 0.20911315

fc4.weight f4 [2, 10]
000000 36 d8 47 be 68 44 6f 3f 5d fd 65 3e b1 d9 b6 be
       -0.19516072 0.93463755 0.22459932 -0.3571296
000010 72 83 d0 bf 15 16 df 3d d0 03 1c 3f ae 99 8b 3f
       -1.6290114 0.10892884 0.6094332 1.0906274
000020 d8 3f 1b 3f bc 06 12 3f 37 e6 a4 be 80 43 a8 be
       0.6064429 0.57041526 -0.3220689 -0.32863998
000030 51 0a 67 be b4 e7 39 be 6d e8 35 3e 57 03 ae 3d
       -0.22562529 -0.18154794 0.17764445 0.08496731
000040 f1 e0 16 3e 93 a5 fd 3d 0a 85 12 bf 2f d1 bd 3e
       0.14734246 0.123850964 -0.5723425 0.37073657

fc4.bias f4 [2]
000000 b9 0b ab bd 1f 92 e3 3d
       -0.08351845 0.11111855
