carv/controller_models/double_integrator/daggers/di_4layer/constraint_dagger_8.pth (torch, 3727 bytes, 7 tensors)

fc1.weight f4 [15, 2]
0.03892489 -0.33544844 0.2768637 0.7863089 0.7700913 -0.7246299 0.39837706 1.0346354
0.8121682 0.67375046 -0.51461756 0.3719176 0.28700832 0.8309538 -0.475581 -0.4660698
0.9337595 0.17747201 -0.44554892 0.38081893 0.39622003 -0.6341842 -0.5808501 -0.02104796
-0.4623882 -0.32428938 0.67543083 0.9704595 0.06302254 -0.7902869
00000000: b56f 1f3d e6bf abbe 14c1 8d3e 8a4b 493f
00000010: b424 453f 5881 39bf 14f8 cb3e ef6e 843f
00000020: 41ea 4f3f e97a 2c3f fabd 03bf fc6b be3e
00000030: c1f2 923e 63b9 543f 5a7f f3be b3a0 eebe
00000040: dd0a 6f3f 39bb 353e fd1e e4be b3fa c23e
00000050: 5add ca3e e559 22bf 98b2 14bf c56c acbc
00000060: 25be ecbe 4209 a6be 09e9 2c3f 0970 783f
00000070: f611 813d 3e50 4abf

fc1.bias f4 [15]
-0.538078 0.6581314 0.44209296 -0.25887635 -0.19927734 -0.2561307 0.5178018 -0.6836694
0.2558197 -0.539723 0.34594813 0.93018913 -0.53095007 0.33844382 -0.03653216
00000000: 7bbf 09bf 4d7b 283f 025a e23e 718b 84be
00000010: 5c0f 4cbe 9023 83be a98e 043f f504 2fbf
00000020: cdfa 823e 492b 0abf 1d20 b13e e020 6e3f
00000030: 58ec 07bf 8248 ad3e bfa2 15bd

fc2.weight f4 [10, 15]
-0.046437867 -0.23204195 0.47246483 -0.39331478 -0.19401354 -0.09198743 -0.6300297 -0.0055203713
0.3673397 0.13053839 0.3065897 0.1890323 0.055114448 0.032528136 0.7623033 0.25374654
-0.056297902 -0.18087164 0.14164351 0.1651591 -0.07919477 -0.26363564 0.22306296 0.2560151
0.18352097 0.18247248 0.96293914 -0.056250867 -0.014147364 0.14184444 -0.25154802 -0.026152607
0.11053869 -0.02839407 0.06594552 0.2503215 -0.14387463 -0.09789735 0.010117943 -0.034247626
-0.09502949 -0.05902737 -0.07591787 -0.19898108 -0.099428 0.21224931 -0.19922802 -0.15953302
-0.18763761 -0.20223458 -0.15596221 -0.05950913 0.172518 0.010076999 0.08356062 -0.19849563
0.08511331 -0.25086173 0.13526964 0.070725925 0.052280378 0.44046304 -0.21913014 0.022306183
-0.14733051 -0.22188304 0.59131575 0.1502588 0.15125771 0.0842768 0.14959338 -1.3224851
0.0440742 0.2610336 -0.5221444 -0.07226355 -0.063426055 0.0036663415 -0.19341795 0.07784074
-0.20496812 -0.14679143 0.19593789 -0.23293881 -0.16402493 -0.02795371 -0.14945042 0.0907688
-0.14228258 0.12846479 -0.08170698 0.6174967 -0.1700672 0.06029638 0.04340266 0.024170134
0.91654986 0.014700911 0.23919736 0.1156638 -0.2910497 -1.2580681 0.0074845473 0.40492317
-0.3726402 -0.11007518 -0.08764651 0.019639395 -0.17164712 0.49896374 -0.22653891 -0.27015233
0.12295209 0.13969313 -0.24453436 -0.19727263 0.86010987 0.17653464 -0.12675206 0.18324429
-0.16333352 -0.20433606 -0.20949961 0.07173401 0.00829707 -0.056822415 -0.19279476 0.1458797
-0.11869015 0.02897654 0.24314961 0.10963482 -0.11147994 0.17038818 0.22903848 -0.12583135
-0.24111913 -0.20228747 0.21497369 -0.012303941 -0.118366286 -0.24488176 0.21793522 -0.098870605
-0.096103474 -0.22593233 -0.17158382 0.19259603 -0.013301727 0.115508266
00000000: a235 3ebd 689c 6dbe e9e6 f13e 8e60 c9be
00000010: 7cab 46be e863 bcbd a049 21bf 3be4 b4bb
00000020: f313 bc3e dbab 053e 53f9 9c3e af91 413e
00000030: b0bf 613d 393c 053d 4f26 433f 11eb 813e
00000040: a198 66bd 6a36 39be ff0a 113e 781f 293e
00000050: de30 a2bd 40fb 86be 9e6a 643e 6914 833e
00000060: ecec 3b3e 11da 3a3e 2e83 763f 4f67 66bd
00000070: 58ca 67bc ab3f 113e e7ca 80be fe3d d6bc
00000080: 1c62 e23d ae9a e8bc 720e 873d 242a 803e
00000090: df53 13be 687e c8bd bbc5 253c 3d47 0cbd
000000a0: d29e c2bd afc6 71bd d47a 9bbd b2c1 4bbe
000000b0: e8a0 cbbd e257 593e 6e02 4cbe a05c 23be
000000c0: 1324 40be 9516 4fbe 8fb4 1fbe d8bf 73bd
000000d0: 8fa8 303e ff19 253c d521 ab3d 7042 4bbe
000000e0: e34f ae3d f370 80be 2084 0a3e c1d8 903d
000000f0: f323 563d 5f84 e13e a763 60be 75bb b63c
00000100: cfdd 16be 4f35 63be 7860 173f 71dd 193e
00000110: 4de3 1a3e 5199 ac3d 022f 193e 3147 a9bf
00000120: 2687 343d 32a6 853e 41ab 05bf e9fe 93bd
00000130: 85e5 81bd 0147 703b 5b0f 46be f76a 9f3d
00000140: 2ae3 51be 7e50 16be f1a3 483e 8387 6ebe
00000150: 27f6 27be 2eff e4bc 8809 19be fee4 b93d
00000160: 86b2 11be 468c 033e fd55 a7bd 4414 1e3f
00000170: 1926 2ebe 56f9 763d fdc6 313d 7200 c63c
00000180: 03a3 6a3f 17dc 703c 27f0 743e 24e1 ec3d
00000190: 7704 95be 6008 a1bf ef40 f53b 1752 cf3e
000001a0: b2ca bebe 196f e1bd 0380 b3bd cce2 a03c
000001b0: 43c4 2fbe 2d78 ff3e d1f9 67be 6851 8abe
000001c0: 4ece fb3d b70b 0f3e 3767 7abe d601 4abe
000001d0: 2930 5c3f 7fc5 343e 4bcb 01be 64a4 3b3e
000001e0: e740 27be 793d 51be 1187 56be 48e9 923d
000001f0: 6ff0 073c 9fbe 68bd fd6b 45be 7d61 153e
00000200: d213 f3bd 3560 ed3c 36fc 783e 3888 e03d
00000210: 984f e4bd 3d7a 2e3e 1089 6a3e efd9 00be
00000220: efe7 76be 7224 4fbe 1022 5c3e 7896 49bc
00000230: 066a f2bd 49c2 7abe 692a 5f3e ac7c cabd
00000240: e6d1 c4bd ce5a 67be abb3 2fbe e537 453e
00000250: 7def 59bc 998f ec3d

fc2.bias f4 [10]
0.054483205 -0.5430578 -0.07803297 0.1467887 0.5212951 0.08485438 0.3739736 -0.25207365
-0.063097104 -0.074051045
00000000: c829 5f3d d605 0bbf c0cf 9fbd c74f 163e
00000010: 9873 053f 22c8 ad3d 7879 bf3e cc0f 81be
00000020: 0e39 81bd 13a8 97bd

fc3.weight f4 [5, 10]
0.15292 1.0027725 -0.1227317 -0.17044868 -0.56457 -0.14393315 -0.5233178 0.46078473
-0.18830454 0.23889506 0.64222836 1.6875385 -0.046673823 -0.24031436 -0.77228034 -0.17441069
-1.001406 0.9863358 0.15111963 0.30860233 0.017062424 1.101491 -0.075699575 0.16526617
-0.9818518 0.099070475 -0.56288004 0.31634772 -0.12462874 0.2811743 -0.0798522 0.30695137
-0.30797365 0.15128528 -0.07181785 -0.27816126 -0.27893743 -0.034541156 0.20320123 0.08200988
-0.0753943 -0.19878756 0.27175167 0.107932895 -0.3455029 -0.28477216 -0.12847382 -0.09533458
-0.12653282 -0.23012905
00000000: 0f97 1c3e d95a 803f c25a fbbd 198a 2ebe
00000010: a987 10bf 3663 13be 28f8 05bf faeb eb3e
00000020: e8d2 40be e8a0 743e 1469 243f 4301 d83f
00000030: 0d2d 3fbd f814 76be 2ab4 45bf b798 32be
00000040: 122e 80bf 8180 7c3f 1bbf 1a3e 2001 9e3e
00000050: 7fc6 8b3c a8fd 8c3f 6108 9bbd 893b 293e
00000060: a45a 7bbf 76e5 ca3d e818 10bf 54f8 a13e
00000070: 5a3d ffbd 14f6 8f3e 8d89 a3bd bb28 9d3e
00000080: b9ae 9dbe 87ea 1a3e 3d15 93bd 276b 8ebe
00000090: e3d0 8ebe 077b 0dbd fc13 503e ccf4 a73d
000000a0: 5468 9abd f78e 4bbe 0923 8b3e ec0b dd3d
000000b0: c2e5 b0be a8cd 91be a48e 03be c73e c3bd
000000c0: d291 01be f3a6 6bbe

fc3.bias f4 [5]
-0.45885882 0.1502533 0.014185059 -0.12697935 0.090272345
00000000: 8bef eabe 00dc 193e 7368 683c e006 02be
00000010: b5e0 b83d

fc4.weight f4 [1, 5]
0.8308119 0.84346133 0.5600607 0.044373244 -0.21816188
00000000: 17b0 543f 15ed 573f 2360 0f3f b8c0 353d
00000010: d465 5fbe
