carv/controller_models/double_integrator/daggers/di_4layer/constraint_dagger_6.pth (torch, 3727 bytes, 7 tensors)

fc1.weight f4 [15, 2]
00000000: 5944 3f3f 9b24 303f 6e23 2dbf 3865 c3bd
00000010: cb6b 1abf 9c3b 25bf c528 82be cad5 c6bb
00000020: a972 de3e f559 0e3f 61b2 163f b04c 33bf
00000030: c951 0a3f 4d13 d4bc 1959 323f d8f5 903d
00000040: cbf1 253f 3c31 3c3f b463 cabd c3a8 4d3e
00000050: 68a3 d3bd d16d e4be 90a6 e73e f3bf 373f
00000060: 53cd a43c 938d bbbd fa0e 963e c99b a43e
00000070: e09b 2fbf 25ae 573e
0.74713665 0.68805856 -0.67632186 -0.0954079 -0.6032073 -0.6454408 -0.2542173 -0.006067966
0.43446854 0.55606014 0.58865935 -0.7003889 0.54031044 -0.02588811 0.696672 0.07078141
0.6482207 0.73512626 -0.09882298 0.20083909 -0.10333902 -0.44615033 0.45244265 0.71777266
0.020117437 -0.091578625 0.293083 0.32150105 -0.6859722 0.21062525

fc1.bias f4 [15]
00000000: 6292 333f 8d16 d0be 8c57 74be 237c f9bd
00000010: 5c4f 383e 38de 4a3e 4353 63bf ae80 f23e
00000020: bde1 7c3d 2007 c0bc 3609 26bf 6ebc f53e
00000030: b3b3 843d 1298 f03c e743 5bbe
0.7014524 -0.40642205 -0.23861521 -0.1218188 0.17999023 0.19811332 -0.8879892 0.473638
0.06173872 -0.023440897 -0.64857805 0.47995323 0.064795874 0.029369388 -0.21412621

fc2.weight f4 [10, 15]
00000000: 1085 adbc 944e 2cbe 07a5 423e bd6b 773d
00000010: dde6 773e bc18 40be a5e2 37bf db0e 80bd
00000020: 2197 253c f9fe 48bd ca50 32be adb8 f43e
00000030: 916b a53b f4ab 083e 2e5f 223d 8d41 59be
00000040: 9fb9 423e 11bd 723e 2acb 693e 33f6 ab3c
00000050: 3ea9 29be 1e9f 35be ea9b 91bc 7f18 573d
00000060: 845c f63d cab9 01be 4eac 27be 04f0 733e
00000070: 72ad 92bd b898 47be cebf bfbc f405 b8bd
00000080: a6c4 0abd 7008 08be 35a7 2fbd 9b45 cd3c
00000090: 201b c63e 5774 713e 0650 2bbe 92cd 523d
000000a0: 208c 8bbd b0d5 a9be 3c91 9e3d dd35 7dbd
000000b0: 43cf 46be 7356 3b3e 6151 623e 8429 0dbd
000000c0: 63c5 94bd f013 ce3e 1d08 8abe 7ca8 28bf
000000d0: 26a7 5f3d ec4a 6e3e 21ed 933c f88a 4e3d
000000e0: 90ba 583e 2b83 3abe 16ea ea3e 7e57 67be
000000f0: d74e 203d dad6 92bd d4dd 17be e70d 0abe
00000100: 9fea 5c3e 98fe c83d 1935 1cbf 94c1 a13d
00000110: 8fd5 a63e f3af f3ba 8a8f 713d e70b a73e
00000120: f9a3 aabc 320b b03d 613e 76be cfe1 0c3e
00000130: 712f 34be adb5 c43d 955d 54bc f874 973d
00000140: b4ec 1fbe 048c 2b3d 9d7b 69be d7cf 6c3e
00000150: 678c f43d 807a 61be 4d1b 41be dc46 033e
00000160: 7149 2b3e c6b8 483d d353 853d 5d59 79be
00000170: a076 fa3d 4389 91bd efef 393e bba7 223e
00000180: 986e 4abf f9aa 8d3e 0355 80bc 67f4 dbbc
00000190: 91d1 83be d45b 413e 9569 33bd 5347 273e
000001a0: 9315 74be e05d 3dbc 8de2 f23d f6c1 e4bd
000001b0: bef2 033d 8b1f e93d a694 02be 2983 22be
000001c0: 37f1 1abe f556 59bd 641c 623e 42aa 523e
000001d0: 0b53 d0bd cc32 47bd 0bea 543c 1d24 83be
000001e0: 0251 423e 8231 023d 2904 5c3e d022 ecbb
000001f0: 78e1 d4be ec67 5a3e a771 173f d4d5 893e
00000200: 23c6 ddbe a986 82be 64bf b5bd d009 bd3d
00000210: aed8 ecbd e5be 0ebf 5023 d8bd a693 083e
00000220: fc3d 5b3c f2d0 6cbe fe27 e03c 1866 713e
00000230: 27fa 71be 4cd0 e3be ee45 203d 3741 cd3e
00000240: 4fa6 863d 92b8 363e aba2 bd3e a9ee 373e
00000250: 3e29 743e a154 363e
-0.021181613 -0.1682685 0.19008265 0.06040548 0.24209161 -0.18759435 -0.7183021 -0.062528335
0.010106833 -0.049071286 -0.17413631 0.47797146 0.0050482233 0.13346845 0.03964155 -0.21216412
0.19016121 0.23704936 0.22831407 0.02099142 -0.16568467 -0.1773648 -0.01777454 0.052513596
0.12029365 -0.12668529 -0.16374323 0.23822027 -0.07161988 -0.19491851 -0.02340689 -0.089855105
-0.033878945 -0.13284469 -0.04288407 0.025057605 0.3869257 0.23579536 -0.16729745 0.05146558
-0.06813836 -0.33170843 0.07742545 -0.061818946 -0.19415002 0.18294697 0.22101356 -0.03446342
-0.07264211 0.40249586 -0.26959315 -0.65882087 0.054602765 0.23270768 0.018057408 0.0504255
0.21164918 -0.18214099 0.45881718 -0.2259197 0.039137688 -0.07169886 -0.14830714 -0.13481866
0.21573876 0.09814185 -0.6101852 0.0789825 0.32584807 -0.0018591866 0.05897478 0.32626268
-0.020830141 0.08595885 -0.24047233 0.13758014 -0.17596222 0.096049644 -0.012961765 0.07395357
-0.15617639 0.041881576 -0.22801061 0.2312616 0.11940842 -0.22019386 -0.1885807 0.1282
0.16727234 0.04900434 0.06510129 -0.24350496 0.12229657 -0.07106259 0.18157934 0.15884297
-0.79075 0.27669504 -0.015665537 -0.026849939 -0.25745824 0.18882686 -0.043801863 0.16335802
-0.23836355 -0.011558026 0.118596174 -0.111698076 0.03221392 0.113829695 -0.12752017 -0.15870346
-0.15131079 -0.053061444 0.22081143 0.2057276 -0.10172089 -0.048632428 0.012995253 -0.2561349
0.18976215 0.031785496 0.21485962 -0.0072062984 -0.4157827 0.21328706 0.59157795 0.2692095
-0.4331523 -0.25493363 -0.088743955 0.09230387 -0.11564766 -0.5576003 -0.1055361 0.13337573
0.013381477 -0.23126581 0.02736282 0.23574102 -0.23630582 -0.44494855 0.03912919 0.40088817
0.065746896 0.17843845 0.37038168 0.17962135 0.23843858 0.17805721

fc2.bias f4 [10]
00000000: 984e bc3e 2da4 18bd 66a9 a43e 3886 d53d
00000010: 3d60 81be fdbc 28be 672c 9abd 0106 d4bd
00000020: 046a ef3e bafc 063e
0.36778712 -0.037265945 0.3216049 0.10425991 -0.25268736 -0.16478343 -0.07528 -0.10352708
0.4676057 0.13182345

fc3.weight f4 [5, 10]
00000000: 2d7f 76bf 22d7 4c3e 2c73 9a3e 1945 23bf
00000010: 922e d3be 909b 87be d325 c8bd 0416 5c3e
00000020: 74b2 073f 12dc babd 7419 a03e 0a0c 1b3e
00000030: e76b 0dbf 4b7b fd3e 7db3 823e 6055 33be
00000040: 26e5 f23e 880f d4bd 7813 63be 1b72 863e
00000050: af22 253f c594 883e ca56 0abf 48a5 a33e
00000060: 8b47 003e 8808 96bd 5d52 803e 1f27 12bc
00000070: 1c02 df3d 0d6b 1b3e 1bb8 fe3d 0a73 dd3d
00000080: cb33 85bf 77bd 073f 27c8 263e 8b2c 203d
00000090: fca9 623e d78c 563e b1e3 51be 7c55 943e
000000a0: ec5b a4bd ed78 3c3c 7fb3 7c3e 58ce df3d
000000b0: d082 13bc 2462 753e 4da0 263e aa20 063e
000000c0: 95a0 93be 553e 2fbe
-0.96287805 0.20003942 0.30165994 -0.6377731 -0.41246468 -0.26485872 -0.097728394 0.21492773
0.5300667 -0.09124006 0.3126942 0.15141311 -0.5524277 0.49508128 0.25527564 -0.17513037
0.4744045 -0.10354525 -0.22175395 0.2625893 0.6450605 0.26676002 -0.5403868 0.31962037
0.12527291 -0.07325846 0.25062838 -0.00892046 0.10889074 0.15177555 0.12437459 0.108129576
-1.0406431 0.53023475 0.1628729 0.03910498 0.22135156 0.20952164 -0.20497014 0.2897147
-0.08025345 0.01150344 0.24677847 0.10928029 -0.009003356 0.23963219 0.16272087 0.13098398
-0.28833452 -0.17113622

fc3.bias f4 [5]
00000000: 59e5 e23e 0926 82be 0214 41be bcce f7be
00000010: b5ca 8b3d
0.44315603 -0.25419644 -0.18855289 -0.48399913 0.06825773

fc4.weight f4 [1, 5]
00000000: f302 383f 409d 69bf 22c9 20bf 84a0 ac3f
00000010: 3dd8 27be
0.718795 -0.9125557 -0.62806904 1.3486485 -0.16391082
