carv/controller_models/double_integrator/daggers/di_4layer/constraint_dagger_4.pth (torch, 3727 bytes, 7 tensors)

fc1.weight f4 [15, 2]
00000000: 90d2 0bbe bd2f 81bc c3ef 273f e3d7 c63e
00000010: f15c 29bf 7ff7 19bf 0d03 c3bd 387d 8fbe
00000020: ae06 a1bd 0c8c 6bbf 26c7 e03e de72 7f3f
00000030: 9b3f f2bd 73e1 ee3e acb6 b03e d005 14bf
00000040: cc68 8c3e 8176 f3be 04a5 173e eafb db3e
00000050: 9c48 c73e 2e76 0e3f 01a0 2a3f e0c1 203e
00000060: c42b 9bbe 3052 ea3e 4689 dfbd dfc5 4fbf
00000070: a0d5 063f 30a1 5f3f
-0.13654542 -0.015769834 0.6560022 0.38836583 -0.6615744 -0.60143274 -0.09522066 -0.28025222
-0.07862602 -0.9201057 0.43901938 0.9978465 -0.11828538 0.4665638 0.34514368 -0.5782137
0.27423704 -0.4755135 0.14809042 0.42965633 0.38922584 0.5564908 0.66650397 0.15698957
-0.30306828 0.4576583 -0.10914855 -0.811613 0.52669716 0.8735533

fc1.bias f4 [15]
00000000: ac87 68be 7b18 05bf ade4 09bf 9960 aa3d
00000010: e376 fa3e 6e1a 6dbe cc35 463f cc5e 90bf
00000020: 1c49 90bf a0ef 853f a146 083f abea 223f
00000030: 822b 68bd 4f51 dd3e 1253 823e
-0.22708005 -0.5199048 -0.53864557 0.08319206 0.48918828 -0.23154613 0.7742584 -1.127893
-1.1272311 1.0463753 0.5323277 0.63639325 -0.056682117 0.43226096 0.25454003

fc2.weight f4 [10, 15]
00000000: c191 1a3e 9012 4dbe 56e6 c63d 514d 7abd
00000010: ed44 7bbe 2bde 26bd ed8e e2bd ddbe 17bd
00000020: 286c 47be ad5a 6a3e 52dc 2cbe 6775 50be
00000030: b66a 79bd ed78 2f3b 02d1 6fbe cde5 ff3d
00000040: 20ee 503e 4355 81be bdab 5a3e d05b 20be
00000050: 9306 913e a8e5 203e 496a b0bd 5df0 383e
00000060: fb9d 973d f338 703d 07d4 203d 81d9 a6bd
00000070: bba0 8e3d 47ac 38be a279 36be 2479 863d
00000080: 26b1 44be a537 833e cff0 0abe 2161 b83d
00000090: 62a1 05be 9960 c83d 1a09 813e 80f6 633c
000000a0: ea62 65bd 15e4 6dbc 0877 aa3d fd66 8abd
000000b0: 0711 2ebe 3392 a83d ed4b 9f3e 1578 f7bd
000000c0: b767 50be 9aef 91be 9e15 bc3e ca27 14bf
000000d0: 0c41 bbbd 1685 003f 7a83 2b3e b8bb 19bd
000000e0: 329d 873d dfdb e6bd 4c1b a7bb 682e 2bbe
000000f0: 17cd 35bd 29ba 89bc 589a a7bd faa9 f43b
00000100: 9001 5cbe 4d65 c9be ed9f d7be 4428 59be
00000110: ecef 81bf 8276 ca3e 38c3 753e 9343 4d3e
00000120: 5b17 733c b1d8 8abe b9fb 873c 1fc3 aabd
00000130: 046b 333c 2b80 34be e725 73be 814d b9be
00000140: 9c62 62bf 1ca6 2ebf 67e5 61be ff7f 7ebf
00000150: 6b39 113f e32d 643e 802a 9abd 9526 793e
00000160: e21e 6dbd 74c2 a23e 58b4 76be 8271 063f
00000170: 1b98 31be bb47 043d 3023 0b3d 03b6 10bf
00000180: 5471 8a3e 3401 0b3f 4259 8b3f 6c33 e83d
00000190: 195c 71bb f4c7 323e eea8 35be 10c6 333c
000001a0: 0eec 4abe f2cd eebc 0492 5cbb 87a6 063e
000001b0: f647 dabc db42 a2bd 8a28 483d 07f4 38bd
000001c0: 7588 233e 6ffd afbd 7000 f0bd 2703 f1bb
000001d0: 98d1 8e3d aa89 413e 94c7 123d 303c 1bbe
000001e0: 7af2 6d3e 2096 633e ccc2 f73d 771b 8b3e
000001f0: 34ba 733e 80fd 6abf 8beb 1b3f 5cde 3e3f
00000200: c448 223f c3fa 86be e68f a3be 2dc0 5b3e
00000210: 4fef 843d 19f3 663e 9515 c7be 1eb5 7cbe
00000220: 1e3d 8f3d 0a8a 5d3e c29d 383d 4569 ffbd
00000230: 29b2 19be 05c1 72be 1b9c 943d bda6 82be
00000240: 2331 a9bd b14c fbbd c724 e33c a795 80be
00000250: 8ad1 09be 85f9 d0bb
0.15094663 -0.20026612 0.09711902 -0.06110889 -0.24538012 -0.04073922 -0.11062417 -0.037047256
-0.19474852 0.22886153 -0.1688092 -0.20357285 -0.060892783 0.0026774958 -0.23419574 0.12495003
0.20403337 -0.25260362 0.21354575 -0.15660024 0.28325328 0.15712607 -0.08614022 0.18060441
0.07403179 0.05864806 0.039264705 -0.08146954 0.06964251 -0.18034469 -0.17819837 0.065660745
-0.19208202 0.2562839 -0.13568424 0.09002901 -0.13049844 0.097840495 0.25202256 0.013913751
-0.056002535 -0.014519711 0.08323485 -0.06757925 -0.16998683 0.0823101 0.31112614 -0.12083451
-0.20352064 -0.28503114 0.36735243 -0.57873213 -0.09143266 0.50203073 0.16749373 -0.03753254
0.066217795 -0.11272406 -0.0050996896 -0.16716921 -0.044385042 -0.0168124 -0.081837356 0.007466552
-0.21484971 -0.393351 -0.421142 -0.21206766 -1.0151343 0.3954354 0.24000251 0.20045309
0.014837111 -0.27118447 0.016599523 -0.08337998 0.0109508075 -0.17627017 -0.23744927 -0.36191943
-0.88431716 -0.6822221 -0.22060166 -0.99414057 0.5672824 0.2228313 -0.075276375 0.24331124
-0.05789078 0.3178898 -0.24092233 0.5251695 -0.1734318 0.03229497 0.033969104 -0.5652773
0.27039587 0.5429871 1.0886614 0.11337933 -0.0036828576 0.17459089 -0.17740223 0.010972515
-0.1981661 -0.029150937 -0.0033656368 0.13149463 -0.026645642 -0.07922908 0.048866786 -0.045154598
0.15970023 -0.085932605 -0.117188334 -0.007355112 0.069735706 0.18900171 0.035834864 -0.15159678
0.23237029 0.22225237 0.120977014 0.27169392 0.238015 -0.9179306 0.60906285 0.74558043
0.6339228 -0.2636319 -0.31945723 0.21460028 0.06490957 0.22553672 -0.38883653 -0.24678466
0.06994079 0.21634689 0.045072325 -0.124712504 -0.15009369 -0.23706444 0.07256337 -0.25517836
-0.08261325 -0.12270487 0.027727498 -0.25114176 -0.13458839 -0.0063774013

fc2.bias f4 [10]
00000000: 4c86 123e 6da8 44be 2539 11be 8d28 84bd
00000010: 493f d53d 8bc6 693e a93c 5b3e 6854 3abe
00000020: 17d2 21be ca7f 3cbe
0.14309043 -0.19204874 -0.14181955 -0.06453047 0.10412461 0.22829644 0.21409859 -0.18196261
-0.15802799 -0.18408123

fc3.weight f4 [5, 10]
00000000: 0698 8a3e 769f ffbd b795 8ebe 28f1 67be
00000010: e1ff 16bf a93a eebe c64e 133f 5283 7bbe
00000020: d5fe 173f 8c57 7dbe cc93 84bd eed9 0c3e
00000030: fb13 04be 993a 8b3e 6913 4ebe f5d0 99bd
00000040: 457e 2dbd 5799 8fbd 74a5 a23d 78a0 383e
00000050: e9a5 95be e4e9 cb3e 997b a0be d563 883d
00000060: 4a7f fb3e 56bc 163f 09aa 1dbe e2d8 c1bc
00000070: 0515 b3be a019 73b9 4495 6f3e fbbb 443e
00000080: 4c45 843e 6dcb 203e ee73 19bf 2941 a1be
00000090: 87a6 043f cda5 9bbd a033 3a3f 88b4 c53d
000000a0: 6ed5 6abc 26f0 8d3e 8836 043d ac03 00bf
000000b0: 3b5b 883e 3e94 2c3f a876 cebc d505 36be
000000c0: 0908 babe 9313 713e
0.2706911 -0.12481587 -0.27848598 -0.22650588 -0.5898419 -0.4652913 0.57542074 -0.24561813
0.5937322 -0.24740428 -0.064735025 0.13755009 -0.12898247 0.27193144 -0.20124592 -0.075105585
-0.042356748 -0.07011669 0.07941714 0.18029964 -0.29228142 0.39826882 -0.31344298 0.066596664
0.4912055 0.5888113 -0.15396895 -0.023662988 -0.34976974 -0.00023183832 0.23396784 0.19212334
0.2583412 0.15702601 -0.5994252 -0.31495026 0.518166 -0.07599983 0.72735023 0.09653574
-0.014333112 0.2772228 0.032278568 -0.500056 0.26632103 0.674137 -0.025203064 -0.17775662
-0.36334255 0.23542623

fc3.bias f4 [5]
00000000: 645a ef3d fb10 0bbe ef1f 833e 2fca 983d
00000010: 58b5 a1bc
0.116871625 -0.13580696 0.256103 0.074604385 -0.019739792

fc4.weight f4 [1, 5]
00000000: 650d 383f d974 0abe 78fb 89be d67e 513f
00000010: 1a62 22bf
0.7189544 -0.13521136 -0.26949668 0.8183416 -0.6343094
