carv/controller_models/double_integrator/daggers/di_4layer/natural_expanded_9.pth (torch, 3727 bytes, 7 tensors)

fc1.weight f4 [15, 2]
0	0xbe975a46	-0.2956106
1	0xbf3a7dcf	-0.7284822
2	0x3f1739a0	0.59072304
3	0x3f274172	0.65334237
4	0x3f25759a	0.6463257
5	0xbed80992	-0.42194802
6	0x3d239923	0.039940964
7	0x3e44aacc	0.19205779
8	0x3c4e1d12	0.012580173
9	0xbf2386e2	-0.6387769
10	0x3ee14bed	0.4400324
11	0x3f0fb0c5	0.56129104
12	0xbe896896	-0.26837605
13	0x3e8bddb6	0.2731759
14	0x3f4d32b2	0.8015548
15	0x3e91ad1e	0.2845239
16	0xbf2bbf2d	-0.67088586
17	0xbda7899b	-0.08180543
18	0xbf0ad22d	-0.5422695
19	0xbeb8c74d	-0.36089554
20	0xbe76e81f	-0.24111985
21	0x3eca5f9a	0.39526063
22	0xbf4cc5f6	-0.79989564
23	0x3e389538	0.18025672
24	0x3f109a53	0.5648548
25	0xbe2cc3b1	-0.16871525
26	0xbeb22a33	-0.3479782
27	0xbef6cbd3	-0.4820238
28	0xbdd283f7	-0.102790765
29	0x3f09c46f	0.5381536

fc1.bias f4 [15]
0	0x3f0eacbd	0.5573233
1	0xbd4d45cb	-0.050115388
2	0x3f5bc7db	0.8585183
3	0xbecb91ba	-0.39759618
4	0xbcf92fd6	-0.030418318
5	0x3dd4f7d9	0.10398836
6	0xbe3afe88	-0.18261158
7	0x3ebd2ff5	0.3695065
8	0xbf1b8392	-0.60747635
9	0xbf2a740d	-0.6658333
10	0xbe109170	-0.1411798
11	0x3f45cdef	0.77267355
12	0xbee9e872	-0.45685154
13	0x3eaff059	0.34363058
14	0x3ee648f3	0.4497753

fc2.weight f4 [10, 15]
0	0xbe5045ab	-0.20339076
1	0x3d577d5b	0.052609783
2	0xbe7eff3b	-0.2490205
3	0xbe4cf35f	-0.20014714
4	0xbcf5e937	-0.030018432
5	0xbd0c2d29	-0.034222756
6	0xbe1ca47b	-0.1529712
7	0xbe725e8a	-0.23668876
8	0xbe0a42f6	-0.13502106
9	0xbccf8311	-0.025331052
10	0x3e685106	0.22687158
11	0xbd028cc8	-0.03187254
12	0xbe10a093	-0.14123754
13	0x3d5e87df	0.054328796
14	0x3e2274e3	0.15864901
15	0xbe7a735e	-0.24458072
16	0xbacd69d1	-0.0015671795
17	0xbe82a42d	-0.2551588
18	0xbce8fff2	-0.028442357
19	0xbe4fc901	-0.2029152
20	0x3cf80065	0.030273626
21	0xbd84c873	-0.06483545
22	0xbe091d21	-0.13390018
23	0xbe38a14b	-0.18030278
24	0xbc29c744	-0.01036245
25	0x3d602d8b	0.054730933
26	0xbdc5e69c	-0.09663126
27	0x3e7d7ee7	0.2475544
28	0xbe3ea9d2	-0.18619469
29	0xbe3ab0d3	-0.18231516
30	0x3d8b09d9	0.06788988
31	0x3d3d1c11	0.046169344
32	0xbdc9ba16	-0.09849946
33	0xbdbb3fac	-0.09143004
34	0xbdac9b6a	-0.084280804
35	0xbe50f9f8	-0.20407856
36	0xbe37178e	-0.17880079
37	0xbd53a019	-0.051666353
38	0xbe38a66e	-0.18032238
39	0xbc9482e2	-0.018128816
40	0xbe098970	-0.13431334
41	0xbe7f22c6	-0.24915609
42	0x3e40ffa2	0.18847516
43	0xbcbb61ce	-0.022873785
44	0x3e652a61	0.22379448
45	0x3e599243	0.212472
46	0x3e632bb5	0.22184642
47	0xbe8b5813	-0.27215633
48	0x3e62360f	0.22090934
49	0x3ed6344f	0.41836783
50	0x3e756895	0.23965676
51	0x3e2879aa	0.16452661
52	0x3e21d77d	0.15804859
53	0xbd587963	-0.05285014
54	0xbdbafb9b	-0.09130021
55	0x3e122f1b	0.14275782
56	0x3d45fbfe	0.04833602
57	0x3d1536ee	0.03642934
58	0xbdd1f0fb	-0.102510415
59	0xbe68e96b	-0.22745292
60	0x3dcc86b5	0.09986631
61	0xbe29999e	-0.16562507
62	0x3dbaa447	0.09113365
63	0x3c416371	0.011803494
64	0x3eb7d2af	0.35902926
65	0xbeaf0125	-0.3418056
66	0x3e7b319a	0.2453064
67	0x3e1a5d54	0.15074664
68	0x3dce3eb8	0.100705564
69	0xbda48667	-0.08033448
70	0xbe73c280	-0.23804665
71	0x3e52f391	0.20600726
72	0xbe26a770	-0.1627481
73	0x3d9ee394	0.07758251
74	0xbdf0482d	-0.117325164
75	0x3e66ee76	0.22551903
76	0xbe0a9ce3	-0.1353641
77	0xbd9c4445	-0.07630209
78	0x3e32e1f0	0.17469001
79	0xbda9ff85	-0.083006896
80	0x3ceea399	0.029130744
81	0xbe35cb59	-0.17753352
82	0xbe39580c	-0.18099993
83	0x3e3561c7	0.1771308
84	0x3d774c34	0.060375407
85	0xbd3c26e0	-0.04593551
86	0x3b189243	0.0023280538
87	0xbe20532a	-0.15656725
88	0xbdda02ff	-0.10645103
89	0xbe1bce9d	-0.15215535
90	0x3da49856	0.08036868
91	0x3e788954	0.24271137
92	0xbd9dee73	-0.07711496
93	0x3b84c2b8	0.0040515326
94	0xbee75ef4	-0.4518963
95	0x3cace855	0.021106878
96	0xbe7e775d	-0.24850221
97	0x3df760bc	0.120789975
98	0x3e45b49b	0.19307177
99	0xbdf0bfd9	-0.11755342
100	0x3e01270c	0.12612551
101	0xbe46f7d2	-0.19430473
102	0xbd5ccad8	-0.053904384
103	0xbe877def	-0.26463267
104	0x3efae51d	0.49002925
105	0xbeafe1ac	-0.3435186
106	0x3dcad9a7	0.09904795
107	0x3e93bd70	0.28855467
108	0x3c70c5a0	0.014695555
109	0xbebebf03	-0.37255105
110	0x3e5860bb	0.2113065
111	0x3e319379	0.17341413
112	0x3e374b64	0.17899853
113	0x3e0b8181	0.1362362
114	0x3df1c256	0.11804645
115	0xbd39497e	-0.045236103
116	0xbe5c0c2b	-0.21489017
117	0x3c69e671	0.014276133
118	0xbd939796	-0.07206647
119	0x3e9cd572	0.30631596
120	0x3e993c2e	0.29928726
121	0xbcc6b821	-0.024257721
122	0x3ee85fce	0.45385593
123	0x3dbb76e5	0.09153537
124	0x3ed3877b	0.413143
125	0x3e4c9e10	0.19982171
126	0xbdb70355	-0.089361824
127	0x3e948e7d	0.2901496
128	0xbd6160a4	-0.055023804
129	0x3e798cef	0.24370168
130	0x3d4617e0	0.048362613
131	0x3e614c29	0.22001709
132	0x3c221ab1	0.009894059
133	0x3ed63e96	0.41844624
134	0xbcd49325	-0.02594907
135	0x3d789ccd	0.060696412
136	0xbe7ccf56	-0.24688467
137	0xbe7e4f76	-0.24835
138	0xbe83472f	-0.25640246
139	0x3d9c8a84	0.07643607
140	0x3c668084	0.014068726
141	0x3e1ee84b	0.155183
142	0x3dc1de27	0.094662
143	0x3dcb1196	0.099154636
144	0x3e2f3f57	0.17114006
145	0xbe54ad32	-0.20769194
146	0x3d4cbf81	0.04998732
147	0x3daa7c32	0.083244696
148	0xbd066dc0	-0.03281951
149	0x3e64087a	0.22268859

fc2.bias f4 [10]
0	0xbda86e64	-0.0822418
1	0x3e699725	0.22811563
2	0xbe5a6cea	-0.2133061
3	0xbe84e3d4	-0.2595507
4	0x3e8aa7da	0.27081186
5	0xbe472126	-0.19446239
6	0x3ed1a88b	0.409489
7	0x3e4c2fa6	0.19940051
8	0x3d74d3d6	0.059772335
9	0xbe5674f7	-0.20943056

fc3.weight f4 [5, 10]
0	0xbe1eda60	-0.15512991
1	0x3e931c53	0.28732547
2	0xbd520a57	-0.051279392
3	0xbe3c3483	-0.18379407
4	0xbee5595d	-0.4479474
5	0x3dcc5c7c	0.099785775
6	0x3eb14158	0.34620166
7	0x3ea6f01d	0.32605067
8	0x3e88e059	0.26733664
9	0x3e47cbd3	0.19511347
10	0x3e3f2f46	0.18670377
11	0x3d7e0b5d	0.062022556
12	0x3e0e07a2	0.13870099
13	0xbe746ad2	-0.23868874
14	0xbe9cf775	-0.30657545
15	0xbe3e071e	-0.18557402
16	0x3d24582b	0.040123146
17	0xbe2ca9e7	-0.16861688
18	0xbe980800	-0.29693604
19	0xbe0b740f	-0.13618492
20	0xbe25bdd5	-0.16185696
21	0x3d11b66d	0.035574365
22	0xbdcab245	-0.098972835
23	0xbe7359bd	-0.23764701
24	0xbe487025	-0.1957403
25	0x3e1c90b6	0.15289578
26	0xbd2e9223	-0.042619836
27	0xbde5b4e3	-0.11216142
28	0x3d4aaa76	0.04947897
29	0x3e8544e0	0.2602911
30	0x3c843ad7	0.016141338
31	0x3e0a0da2	0.13481763
32	0xbe08b9a6	-0.1335207
33	0xbe781905	-0.24228294
34	0x3ecfe3c4	0.4060346
35	0x3c8db3e9	0.017297702
36	0xbe9d4524	-0.30716813
37	0xbe95c9a9	-0.29255417
38	0x3eb57bab	0.35445914
39	0x3dc05019	0.093902774
40	0x3dc16476	0.094429895
41	0x3d3ca8f4	0.046059564
42	0x3dd76a21	0.10518289
43	0x3f9c2182	1.2197726
44	0x3e863fb1	0.26220468
45	0x3e929979	0.28632715
46	0xbead73c1	-0.33877376
47	0xbe15891d	-0.14603086
48	0x3ea23391	0.31679967
49	0x3e8fc77b	0.2808188

fc3.bias f4 [5]
0	0x3ea496a0	0.32146168
1	0xbe8b2a3d	-0.27180663
2	0xbd2f1921	-0.042748574
3	0x3da8ddf9	0.08245463
4	0xbe0c7ea6	-0.13720188

fc4.weight f4 [1, 5]
0	0xbf1f2388	-0.6216359
1	0x3ec20528	0.3789456
2	0x3ebf2c3b	0.37338433
3	0x3ecb6f9c	0.3973359
4	0x3f16eb37	0.5895266
