carv/controller_models/double_integrator/daggers/di_4layer/natural_dagger_4.pth (torch, 3727 bytes, 7 tensors)

fc1.weight f4 [15, 2]
00000000: 90d2 0bbe bd2f 81bc 2b30 3e3f 8f0a b13e
00000010: f15c 29bf 7ff7 19bf 0370 38be f1c2 a5be
00000020: 5229 70be a326 82bf 4816 a53e f570 ef3e
00000030: fa4b 03be e260 d33e 73a5 ee3e d13f 3abf
00000040: 7f68 ed3e e52b 1fbe c4bb 5a3e 6ba5 0a3f
00000050: ff3b 003f be25 1e3f 901b 103f eed5 fa3d
00000060: c42b 9bbe 3052 ea3e bdef 93be 1e88 69bf
00000070: 9721 273f 328c 613f
-0.13654542 -0.015769834 0.7429225 0.34578368 -0.6615744 -0.60143274 -0.18011479 -0.3237529
-0.23453262 -1.0168041 0.32243562 0.46765867 -0.12821952 0.41284853 0.46610603 -0.72753626
0.46368787 -0.15544088 0.2136069 0.5415866 0.50091547 0.6177634 0.5629206 0.12247835
-0.30306828 0.4576583 -0.28893843 -0.91223323 0.6528563 0.88104546

fc1.bias f4 [15]
00000000: ac87 68be be49 c3be ade4 09bf 4705 7a3e
00000010: bdaa 253f 39b3 e1be 1361 0d3f d29d 7dbd
00000020: 6b43 eabe 2cd1 683f 247c b33e 8c41 413f
00000030: 822b 68bd 418f 1b3f 6d3e 4f3e
-0.22708005 -0.38142198 -0.53864557 0.24416076 0.6471365 -0.4408205 0.5522625 -0.061918087
-0.4575456 0.9094417 0.3505565 0.7549064 -0.056682117 0.60765463 0.20238657

fc2.weight f4 [10, 15]
00000000: c191 1a3e 9012 4dbe 56e6 c63d 514d 7abd
00000010: ed44 7bbe 2bde 26bd ed8e e2bd ddbe 17bd
00000020: 286c 47be ad5a 6a3e 52dc 2cbe 6775 50be
00000030: b66a 79bd ed78 2f3b 02d1 6fbe cde5 ff3d
00000040: 337d 3e3e 4355 81be ddc3 803e 3e38 e0bd
00000050: fddc 373e 0549 8e3c 76e5 bdbd d09c 383e
00000060: 3469 1e3d 48cf cb3c 33db d53c 81d9 a6bd
00000070: bd33 ef3d 84b4 67be a279 36be 2479 863d
00000080: 26b1 44be a537 833e cff0 0abe 2161 b83d
00000090: 62a1 05be 9960 c83d 1a09 813e 80f6 633c
000000a0: ea62 65bd 15e4 6dbc 0877 aa3d fd66 8abd
000000b0: 0711 2ebe 3392 a83d 25f8 873e 1578 f7bd
000000c0: 8ad0 5e3e 44e3 febe fb28 7c3f d87f c43e
000000d0: 0cdf 11bf 7387 843e c570 bf3e ab73 083e
000000e0: a083 cd3d dfdb e6bd a999 29be 9f2c df3b
000000f0: 17cd 35bd 9815 b23e 589a a7bd 0aad 94be
00000100: 9f89 bebe c04f ecbe 8c2f 263d 4cfb 2d3e
00000110: b6ca 30be b91a 3c3e 4c38 113e 3842 e23d
00000120: 5b17 733c 737f e0be effd 9d3b 1fc3 aabd
00000130: 3365 c93e 2b80 34be dcce e4be 1beb cabe
00000140: 7717 28bf c5c2 7fbe 02bc 9b3e 74b2 00be
00000150: 31bf 103f b2f2 813e 00ed fabc 9526 793e
00000160: e7e3 dcbd 5339 cf3e 58b4 76be da52 fe3d
00000170: 1b98 31be 9219 123e f07a ba3d c6f9 253e
00000180: cf09 e43d 1321 523e 8fd5 fa3d ecaf 873e
00000190: 4cb8 01bd 61a3 5e3e eea8 35be bc3b 9d3d
000001a0: 295d 3ebe f2cd eebc 16e0 263b 87a6 063e
000001b0: a45e 9cbc fd75 97bd 8a28 483d 07f4 38bd
000001c0: db53 293e f764 a5bd 381a e3bd 7e95 17bb
000001d0: b437 9a3d aa89 413e 32ca 283d f587 15be
000001e0: 7af2 6d3e 06f2 40be ccc2 f73d adfc ca3e
000001f0: 7862 9f3e f2c3 483d be00 9c3e da7e c43e
00000200: d6de 87be 0a29 e6bd 75f9 9abe 75c1 813e
00000210: 4fef 843d abb1 9d3e 31aa edbe 1eb5 7cbe
00000220: 1e3d 8f3d 0a8a 5d3e c29d 383d 4569 ffbd
00000230: 29b2 19be 05c1 72be 1b9c 943d bda6 82be
00000240: 2331 a9bd b14c fbbd c724 e33c a795 80be
00000250: 8ad1 09be 85f9 d0bb
0.15094663 -0.20026612 0.09711902 -0.06110889 -0.24538012 -0.04073922 -0.11062417 -0.037047256
-0.19474852 0.22886153 -0.1688092 -0.20357285 -0.060892783 0.0026774958 -0.23419574 0.12495003
0.18602447 -0.25260362 0.25149432 -0.10948227 0.17955394 0.017368803 -0.09272282 0.18028569
0.03867455 0.024879113 0.026105499 -0.08146954 0.1167979 -0.22627455 -0.17819837 0.065660745
-0.19208202 0.2562839 -0.13568424 0.09002901 -0.13049844 0.097840495 0.25202256 0.013913751
-0.056002535 -0.014519711 0.08323485 -0.06757925 -0.16998683 0.0823101 0.26556507 -0.12083451
0.21759239 -0.49782765 0.9850003 0.38378787 -0.5698097 0.2588459 0.37390724 0.13325374
0.10034871 -0.11272406 -0.16562523 0.006810739 -0.044385042 0.347821 -0.081837356 -0.29038268
-0.37214372 -0.46154594 0.040572688 0.16990393 -0.17264828 0.18369569 0.14181632 0.110477865
0.014837111 -0.43847236 0.004821531 -0.08337998 0.3933502 -0.17627017 -0.4468907 -0.39632496
-0.65660805 -0.24976642 0.30416876 -0.12568074 0.56541735 0.25380474 -0.030630589 0.24331124
-0.107856564 0.40473422 -0.24092233 0.124181464 -0.1734318 0.14267567 0.0910548 0.16208562
0.11134683 0.2052043 0.12247764 0.26501405 -0.0316699 0.21742012 -0.17740223 0.07677409
-0.18590225 -0.029150937 0.0025463155 0.13149463 -0.019088097 -0.07395551 0.048866786 -0.045154598
0.16535895 -0.08075898 -0.11088985 -0.0023129876 0.07530156 0.18900171 0.041208453 -0.14602645
0.23237029 -0.18842325 0.120977014 0.396459 0.31129813 0.049014993 0.30469316 0.3837803
-0.26537198 -0.11238296 -0.30268446 0.25342909 0.06490957 0.30799612 -0.46418908 -0.24678466
0.06994079 0.21634689 0.045072325 -0.124712504 -0.15009369 -0.23706444 0.07256337 -0.25517836
-0.08261325 -0.12270487 0.027727498 -0.25114176 -0.13458839 -0.0063774013

fc2.bias f4 [10]
00000000: 4c86 123e a676 59be 2539 11be c80b e33c
00000010: e821 09be ee6c 333e f7df b63e 582f 35be
00000020: 10a5 15bc ca7f 3cbe
0.14309043 -0.21236667 -0.14181955 0.027715579 -0.1339184 0.17522022 0.35717747 -0.17693841
-0.009133592 -0.18408123

fc3.weight f4 [5, 10]
00000000: 0698 8a3e 1f6d e2bd b795 8ebe ca81 17bf
00000010: 78e4 d7be e7b6 8bbe 2d3c b73e 08cb 81be
00000020: 8887 a13e 8c57 7dbe cc93 84bd eed9 0c3e
00000030: fb13 04be 993a 8b3e 6913 4ebe f5d0 99bd
00000040: 457e 2dbd 5799 8fbd 74a5 a23d 78a0 383e
00000050: e9a5 95be d77b 9d3e 997b a0be 54d2 d93e
00000060: c9ec cd3e 0a85 f53e 5d3e e13d e1cf 8bbc
00000070: 5d70 09be a019 73b9 4495 6f3e 97c3 863e
00000080: 4c45 843e d630 2bbd 3a16 abbe 2723 eebc
00000090: 820f a33e cb0d abbd 0acf ed3e 88b4 c53d
000000a0: 6ed5 6abc 7f78 3d3e 8836 043d 3f7a 4abf
000000b0: a395 da3d b907 013f 1b1a 5d3e 57ca 2dbe
000000c0: d34f 11be 9313 713e
0.2706911 -0.110559694 -0.27848598 -0.5918242 -0.42166495 -0.2728798 0.35788098 -0.25350213
0.31548715 -0.24740428 -0.064735025 0.13755009 -0.12898247 0.27193144 -0.20124592 -0.075105585
-0.042356748 -0.07011669 0.07941714 0.18029964 -0.29228142 0.30758545 -0.31344298 0.4254328
0.40219715 0.47953063 0.10998223 -0.017066898 -0.1342177 -0.00023183832 0.23396784 0.26321098
0.2583412 -0.04179462 -0.33415395 -0.029069496 0.3184777 -0.0835224 0.4644702 0.09653574
-0.014333112 0.18502997 0.032278568 -0.7909278 0.10673072 0.5040241 0.2159199 -0.16971718
-0.14190607 0.23542623

fc3.bias f4 [5]
00000000: 1150 703e fb10 0bbe c0d4 3c3e 1d21 3e3e
00000010: 1b83 acbd
0.23468043 -0.13580696 0.18440533 0.18567319 -0.08423444

fc4.weight f4 [1, 5]
00000000: 89e7 b63e d974 0abe 55f7 2cbe 6bc0 e53e
00000010: 1f59 cdbe
0.35723522 -0.13521136 -0.16891225 0.44873366 -0.40107056
