carv/controller_models/double_integrator/daggers/di_4layer/natural_expanded_6.pth (torch, 3727 bytes, 7 tensors)

fc1.weight f4 [15, 2]
0.75128996 0.665622 -0.67632186 -0.0954079 -0.6032073 -0.6454408 -0.2542173 -0.006067966
0.4048493 0.50977093 0.7228605 -0.63889134 0.39270943 0.32341534 0.7625819 0.07293743
0.60412085 0.6770647 -0.09882298 0.20083909 -0.10333902 -0.44615033 0.42778644 0.681411
0.14280465 -0.115584195 0.23987694 0.32463485 -0.6859722 0.21062525
00000000: 8a54 403f 3466 2a3f 6e23 2dbf 3865 c3bd
00000010: cb6b 1abf 9c3b 25bf c528 82be cad5 c6bb
00000020: 6848 cf3e 5980 023f 630d 393f 628e 23bf
00000030: 3611 c93e b296 a53e 9138 433f 3860 953d
00000040: aaa7 1a3f 1d54 2d3f b463 cabd c3a8 4d3e
00000050: 68a3 d3bd d16d e4be d306 db3e f470 2e3f
00000060: 623b 123e 68b7 ecbd 4da2 753e 8a36 a63e
00000070: e09b 2fbf 25ae 573e

fc1.bias f4 [15]
0.75849915 -0.40642205 -0.23861521 -0.1218188 0.25837502 0.16910662 -0.32494193 0.4170394
0.21434626 -0.023440897 -0.64857805 0.5606131 0.09520389 0.11211516 -0.21412621
00000000: 002d 423f 8d16 d0be 8c57 74be 237c f9bd
00000010: bb49 843e 492a 2d3e ca5e a6be 3086 d53e
00000020: 967d 5b3e 2007 c0bc 3609 26bf 5784 0f3f
00000030: 42fa c23d a29c e53d e743 5bbe

fc2.weight f4 [10, 15]
-0.04517467 -0.1682685 0.19008265 0.06040548 0.20699875 -0.33157337 -0.18404718 -0.09598179
0.0002589124 -0.049071286 -0.17413631 0.4340131 -0.09921406 -0.010645546 0.03964155 -0.21216412
0.19016121 0.23704936 0.22831407 0.02099142 -0.16568467 -0.1773648 -0.01777454 0.052513596
0.12029365 -0.12668529 -0.16374323 0.23822027 -0.07161988 -0.19491851 -0.04049596 -0.089855105
-0.033878945 -0.13284469 -0.045037836 0.055014167 -0.2357476 0.26321214 -0.14029062 0.05146558
-0.06813836 -0.35054228 0.11193761 -0.016777318 -0.19415002 0.15537383 0.22101356 -0.03446342
-0.07264211 0.33962357 -0.27244145 -0.047134843 0.037780337 0.14615667 0.018057408 0.0504255
0.17007403 -0.18621653 0.36231738 -0.2259197 0.03746485 -0.07169886 -0.14830714 -0.13481866
0.18495136 0.100859255 0.07032251 0.079710804 0.28644454 -0.0018591866 0.05897478 0.30200762
-0.026103897 0.051744036 -0.24047233 0.13758014 -0.17596222 0.096049644 -0.012961765 0.07395357
-0.15617639 0.041881576 -0.22801061 0.2312616 0.11940842 -0.22019386 -0.1885807 0.1282
0.16727234 0.04900434 0.067136094 -0.24350496 0.12229657 -0.07106259 0.15133 0.20027933
-0.18718581 0.2880501 -0.06503576 -0.026849939 -0.25745824 0.1791881 0.013242096 0.12475985
-0.23836355 -0.011558026 0.118596174 -0.111698076 0.03221392 0.113829695 -0.12752017 -0.15870346
-0.15131079 -0.053061444 0.22081143 0.2057276 -0.10172089 -0.048632428 0.012995253 -0.2561349
0.23735575 0.031785496 0.21485962 -0.0072062984 -0.29337066 0.23554292 0.07136543 0.31032947
-0.26884347 -0.25493363 -0.088743955 0.17524683 -0.09084897 -0.37630203 -0.1055361 0.11857661
0.013381477 -0.23126581 0.02736282 0.17679341 -0.18646757 0.1495082 0.04233109 0.32049683
0.065746896 0.17843845 0.33354428 0.23146385 0.14714651 0.17805721
00000000: 1309 39bd 944e 2cbe 07a5 423e bd6b 773d
00000010: 7bf7 533e fcc3 a9be dd76 3cbe 1a92 c4bd
00000020: a2be 8739 f9fe 48bd ca50 32be f736 de3e
00000030: be30 cbbd a86a 2ebc 2e5f 223d 8d41 59be
00000040: 9fb9 423e 11bd 723e 2acb 693e 33f6 ab3c
00000050: 3ea9 29be 1e9f 35be ea9b 91bc 7f18 573d
00000060: 845c f63d cab9 01be 4eac 27be 04f0 733e
00000070: 72ad 92bd b898 47be 17df 25bd f405 b8bd
00000080: a6c4 0abd 7008 08be 9879 38bd 8956 613d
00000090: d267 71be bec3 863e 58a8 0fbe 92cd 523d
000000a0: 208c 8bbd 477a b3be 8c3f e53d 9670 89bc
000000b0: 43cf 46be 511a 1f3e 6151 623e 8429 0dbd
000000c0: 63c5 94bd 24e3 ad3e 727d 8bbe 7710 41bd
000000d0: 8ebf 1a3d 18aa 153e 21ed 933c f88a 4e3d
000000e0: e327 2e3e 8caf 3ebe aa81 b93e 7e57 67be
000000f0: be74 193d dad6 92bd d4dd 17be e70d 0abe
00000100: e463 3d3e 4c8f ce3d 4005 903d 6b3f a33d
00000110: dca8 923e f3af f3ba 8a8f 713d bea0 9a3e
00000120: d7d7 d5bc 8ef1 533d 613e 76be cfe1 0c3e
00000130: 712f 34be adb5 c43d 955d 54bc f874 973d
00000140: b4ec 1fbe 048c 2b3d 9d7b 69be d7cf 6c3e
00000150: 678c f43d 807a 61be 4d1b 41be dc46 033e
00000160: 7149 2b3e c6b8 483d a67e 893d 5d59 79be
00000170: a076 fa3d 4389 91bd 40f6 1a3e 0616 4d3e
00000180: a3ad 3fbe 4d7b 933e 7831 85bd 67f4 dbbc
00000190: 91d1 83be 167d 373e 60f5 583c 1882 ff3d
000001a0: 9315 74be e05d 3dbc 8de2 f23d f6c1 e4bd
000001b0: bef2 033d 8b1f e93d a694 02be 2983 22be
000001c0: 37f1 1abe f556 59bd 641c 623e 42aa 523e
000001d0: 0b53 d0bd cc32 47bd 0bea 543c 1d24 83be
000001e0: 630d 733e 8231 023d 2904 5c3e d022 ecbb
000001f0: ae34 96be 2a32 713e 0a28 923d 81e3 9e3e
00000200: daa5 89be a986 82be 64bf b5bd e873 333e
00000210: 060f babd a9aa c0be 5023 d8bd 4bd8 f23d
00000220: fc3d 5b3c f2d0 6cbe fe27 e03c 5509 353e
00000230: 5bf1 3ebe ad18 193e 5d63 2d3d 2918 a43e
00000240: 4fa6 863d 92b8 363e 51c6 aa3e dc04 6d3e
00000250: 93ad 163e a154 363e

fc2.bias f4 [10]
0.4042177 -0.037265945 0.28081357 0.1294412 -0.20135309 -0.16478343 -0.001364666 -0.10352708
0.3530147 0.22924095
00000000: 9ff5 ce3e 2da4 18bd ccc6 8f3e 3c8c 043e
00000010: 812f 4ebe fdbc 28be 98de b2ba 0106 d4bd
00000020: 58be b43e 24be 6a3e

fc3.weight f4 [5, 10]
-0.18948637 0.20003942 0.26696584 -0.4672406 -0.25039417 -0.26485872 0.048548535 0.21492773
0.4288645 -0.014452172 0.10647831 0.15141311 -0.3596053 0.29411379 0.12369582 -0.17513037
0.3851984 -0.10354525 -0.115981005 0.19340558 0.18511179 0.26676002 -0.48794547 0.2411161
0.046686225 -0.07325846 0.15414503 -0.00892046 0.17445925 0.15490317 -0.42621502 0.108129576
0.62412196 0.2919734 0.022174308 0.03910498 0.12540011 0.20952164 -0.05268289 0.115466624
-0.08025345 0.01150344 0.24677847 0.10928029 -0.009003356 0.23963219 0.16272087 0.13098398
-0.28833452 -0.17113622
00000000: b708 42be 22d7 4c3e bfaf 883e 293a efbe
00000010: aa33 80be 909b 87be d4da 463d 0416 5c3e
00000020: 2194 db3e cec8 6cbc 4d11 da3d 0a0c 1b3e
00000030: 301e b8be 1596 963e 3c54 fd3d 6055 33be
00000040: ba38 c53e 880f d4bd 7387 edbd 1d0c 463e
00000050: f28d 3d3e c594 883e fdd3 f9be 24e7 763e
00000060: 0e3a 3f3d 8808 96bd 32d8 1d3e 1f27 12bc
00000070: 72a5 323e f09e 1e3e db38 dabe 0a73 dd3d
00000080: 75c6 1f3f 8a7d 953e e5a6 b53c 8b2c 203d
00000090: e368 003e d78c 563e 04ca 57bd c479 ec3d
000000a0: ec5b a4bd ed78 3c3c 7fb3 7c3e 58ce df3d
000000b0: d082 13bc 2462 753e 4da0 263e aa20 063e
000000c0: 95a0 93be 553e 2fbe

fc3.bias f4 [5]
0.3873121 -0.16562665 -0.1517678 -0.55705416 0.06825773
00000000: c64d c63e 089a 29be 0569 1bbe 1a9b 0ebf
00000010: b5ca 8b3d

fc4.weight f4 [1, 5]
0.43131226 -0.5421879 -0.46029568 1.2134472 -0.16391082
00000000: f6d4 dc3e d4cc 0abf e0ab ebbe 3d52 9b3f
00000010: 3dd8 27be
