carv/controller_models/double_integrator/daggers/di_4layer/natural_dagger_8.pth (torch, 3727 bytes, 7 tensors)

fc1.weight f4 [15, 2]
000000 b5 6f 1f 3d e6 bf ab be 20 c2 0a 3f 78 bf e6 3e
       0.03892489 -0.33544844 0.5420246 0.45067954
000010 10 4b f0 3e d6 74 e9 be e3 38 17 3f 8d be 72 3e
       0.46932268 -0.4559695 0.5907118 0.23705502
000020 2a a6 2f 3f 0f 60 a5 3e fa bd 03 bf fc 6b be 3e
       0.6861292 0.3229985 -0.51461756 0.3719176
000030 53 fc ed 3e 70 bd 19 3f 5a 7f f3 be b3 a0 ee be
       0.4648157 0.60054684 -0.475581 -0.4660698
000040 f6 53 35 3f a8 aa fc 3e fd 1e e4 be b3 fa c2 3e
       0.7083124 0.4934895 -0.44554892 0.38081893
000050 a2 ad 32 3e 87 30 02 bf 37 5e ba be c1 5d 48 bf
       0.17449048 -0.50855297 -0.36400005 -0.7826806
000060 25 be ec be 42 09 a6 be c8 dd 69 3f 9e d0 2f 3f
       -0.4623882 -0.32428938 0.91354036 0.686777
000070 86 12 2d be 28 3e 0b bf
       -0.16901597 -0.5439172

fc1.bias f4 [15]
000000 7b bf 09 bf fa ec e7 3d 63 ca 46 3f 8b d2 38 bf
       -0.538078 0.113244966 0.7765257 -0.72196263
000010 d8 f3 e1 bd 90 23 83 be 23 80 01 3e f5 04 2f bf
       -0.11032838 -0.2561307 0.12646537 -0.6836694
000020 6b ee 06 3f 49 2b 0a bf 6b 61 3d 3f e1 9a ee 3e
       0.52707547 -0.539723 0.73976773 0.46602538
000030 58 ec 07 bf a0 95 9b 3d ce ea b9 3e
       -0.53095007 0.07596898 0.36311954

fc2.weight f4 [10, 15]
000000 a2 35 3e bd 25 31 9f bd b8 23 88 3e fe 17 73 bd
       -0.046437867 -0.077730455 0.2658975 -0.059349053
000010 a9 51 c2 be e8 63 bc bd 57 b6 7f be 3b e4 b4 bb
       -0.37952927 -0.09198743 -0.24971901 -0.0055203713
000020 f9 96 01 3e db ab 05 3e ae db 84 3e 45 c8 21 3e
       0.12655248 0.13053839 0.25948852 0.15799053
000030 b0 bf 61 3d c0 bb 8b bc 2e c2 12 3f 11 eb 81 3e
       0.055114448 -0.0170573 0.57327545 0.25374654
000040 3f e8 82 3d 50 04 0f be 5d c2 5c 3f 82 b4 8e 3d
       0.06391954 -0.13966489 0.86234075 0.06968023
000050 de 30 a2 bd 13 d3 0c be 9e 6a 64 3e b4 a6 5e 3e
       -0.07919477 -0.13752393 0.22306296 0.2174328
000060 ec ec 3b 3e 56 62 8b 3e 54 69 0a 3f 4f 67 66 bd
       0.18352097 0.27223462 0.5406697 -0.056250867
000070 c1 51 f7 bd 12 aa ac 3e e7 ca 80 be f6 fc 90 bc
       -0.1207614 0.33723503 -0.25154802 -0.017698746
000080 b5 fb f2 3d ca ab 00 bd 72 0e 87 3d 24 2a 80 3e
       0.118644156 -0.03141383 0.06594552 0.2503215
000090 a4 da 35 be 68 7e c8 bd 1c 79 94 3c 3d 47 0c bd
       -0.17759186 -0.09789735 0.018124156 -0.034247626
0000a0 8c d1 b1 bd c9 8f 5a bd d4 7a 9b bd 03 55 4d be
       -0.08682546 -0.05335978 -0.07591787 -0.2005196
0000b0 d8 83 bd bd e2 57 59 3e e3 d8 05 bd b2 d4 74 be
       -0.09253663 0.21224931 -0.032677542 -0.23909262
0000c0 ae fa a2 be 7d e4 e8 bd 8f b4 1f be 5e 1b 2e 3f
       -0.31831878 -0.11371706 -0.15596221 0.6801051
0000d0 8f a8 30 3e ba c1 18 3e d5 21 ab 3d 96 95 79 be
       0.172518 0.14917651 0.08356062 -0.24373469
0000e0 1f c3 1e be f3 70 80 be 45 0f 9f 3e 83 1e c6 bd
       -0.1550412 -0.25086173 0.31066337 -0.096737884
0000f0 f3 23 56 3d 8c 82 2c 3e dd 6b f4 bd 16 d6 9e be
       0.052280378 0.16846675 -0.11934636 -0.3102271
000100 b4 2c 5e bc 4f 35 63 be 7f 86 c7 3d 71 dd 19 3e
       -0.013560463 -0.22188304 0.0974245 0.1502588
000110 e3 65 87 3e 51 99 ac 3d f2 3f 56 3e 3a 4e 65 be
       0.2644492 0.0842768 0.2092283 -0.22393122
000120 26 87 34 3d eb c3 94 3e b2 06 aa be e9 fe 93 bd
       0.0440742 0.29055724 -0.33208233 -0.07226355
000130 71 69 93 bd e9 fc 6b 3e 36 6b 35 3e b1 b9 40 3d
       -0.07197846 0.23045696 0.17716679 0.04705209
000140 2a e3 51 be c2 29 a0 be f1 a3 48 3e eb 05 f3 bd
       -0.20496812 -0.3128186 0.19593789 -0.11866363
000150 27 f6 27 be 81 fc 55 3e 15 46 4a 3e fe e4 b9 3d
       -0.16402493 0.20897104 0.19753297 0.0907688
000160 06 e6 81 be f5 c3 e0 3e fd 55 a7 bd 0d f2 9e 3e
       -0.25370806 0.43899503 -0.08170698 0.31044045
000170 d5 24 04 3d 00 09 5b be 67 91 04 3e 72 00 c6 3c
       0.03226169 -0.21390152 0.12946092 0.024170134
000180 e8 bd d3 3e 17 dc 70 3c 33 9d a9 3e 24 e1 ec 3d
       0.41355824 0.014700911 0.33127746 0.1156638
000190 db 84 16 be 18 51 94 bd ef 40 f5 3b f7 c2 c2 3e
       -0.14699118 -0.0724203 0.0074845473 0.3803937
0001a0 6a 9d b9 bd 19 6f e1 bd c6 46 1d 3e 47 b8 44 bd
       -0.090632275 -0.11007518 0.15359029 -0.048027303
0001b0 5f f8 ed bd a5 93 73 3e d1 f9 67 be d2 51 b8 3d
       -0.11619639 0.2378679 -0.22653891 0.08999981
0001c0 4e ce fb 3d db 5f 90 3d 37 67 7a be ee bd 7c be
       0.12295209 0.07049533 -0.24453436 -0.24681827
0001d0 c6 e8 0e 3e 7f c5 34 3e 35 3a 2a be 2f ad 7d 3a
       0.13955984 0.17653464 -0.16623767 0.00096769904
0001e0 e7 40 27 be 75 2b 86 be 21 f3 e2 3b a1 37 fb 3e
       -0.16333352 -0.2620503 0.006925956 0.4906588
0001f0 70 40 6b bc 9f be 68 bd e8 f0 c1 be 7d 61 15 3e
       -0.014358625 -0.056822415 -0.3787911 0.1458797
000200 a6 9f 8b bd 35 60 ed 3c 84 85 ef 3e 3d c6 e8 3e
       -0.0681756 0.02897654 0.46781552 0.45463744
000210 98 4f e4 bd b1 7b 50 3d 1a 59 04 3f ef d9 00 be
       -0.11147994 0.05089921 0.5169846 -0.12583135
000220 ef e7 76 be 72 24 4f be 10 22 5c 3e 78 96 49 bc
       -0.24111913 -0.20228747 0.21497369 -0.012303941
000230 06 6a f2 bd 49 c2 7a be 69 2a 5f 3e ac 7c ca bd
       -0.118366286 -0.24488176 0.21793522 -0.098870605
000240 e6 d1 c4 bd ce 5a 67 be ab b3 2f be e5 37 45 3e
       -0.096103474 -0.22593233 -0.17158382 0.19259603
000250 7d ef 59 bc 99 8f ec 3d
       -0.013301727 0.115508266

fc2.bias f4 [10]
000000 9e 93 d7 3e b7 2e 3b be 05 b1 8e bd 8b 1c ac 3e
       0.4210481 -0.18279539 -0.069673575 0.33615527
000010 59 cb fb 3d ea ca 8c 3e 5f 43 20 3d 9b 5e 60 3d
       0.12294645 0.2749856 0.03912675 0.054777723
000020 3e 7c b1 3d 13 a8 97 bd
       0.086662754 -0.074051045

fc3.weight f4 [5, 10]
000000 52 66 9e 3d 6c 54 88 3e c2 5a fb bd af 50 6c be
       0.0773436 0.2662691 -0.1227317 -0.23077653
000010 15 87 33 3d 36 63 13 be 3d c3 51 be dc e0 f8 3d
       0.043829996 -0.14393315 -0.20484634 0.121522635
000020 e8 d2 40 be e8 a0 74 3e b4 23 e6 3e 5f ee 31 3f
       -0.18830454 0.23889506 0.44949114 0.6950435
000030 d2 56 60 bd c4 1b 9a bf f3 4e 1c be cf 68 f5 3d
       -0.0547703 -1.2039723 -0.15264492 0.11982881
000040 e6 84 f4 be 6f a9 9a 3e e1 4b f8 3e 20 01 9e 3e
       -0.47757643 0.30207393 0.4849539 0.30860233
000050 68 89 9f 3d 07 5e 0a 3f ba 64 07 be 06 6a 59 bf
       0.0778988 0.54049724 -0.13222018 -0.84927404
000060 96 e0 9d be 22 3a cb 3e 09 35 3a be 52 dd 04 be
       -0.30835408 0.3969279 -0.18184294 -0.12975052
000070 78 ca 58 3e 14 f6 8f 3e 8d 89 a3 bd bb 28 9d 3e
       0.21170986 0.2811743 -0.0798522 0.30695137
000080 b9 ae 9d be 87 ea 1a 3e 3d 15 93 bd 27 6b 8e be
       -0.30797365 0.15128528 -0.07181785 -0.27816126
000090 e3 d0 8e be 07 7b 0d bd fc 13 50 3e cc f4 a7 3d
       -0.27893743 -0.034541156 0.20320123 0.08200988
0000a0 eb 4c 78 bc 1c da 45 3b 0a ff 8c 3e c9 3d db 3d
       -0.015155057 0.0030189818 0.2753833 0.10705144
0000b0 00 2d b3 be c8 50 b5 be 68 21 7b be 49 58 45 3e
       -0.3499527 -0.35413194 -0.24524462 0.1927196
0000c0 d2 91 01 be f3 a6 6b be
       -0.12653282 -0.23012905

fc3.bias f4 [5]
000000 7d c5 06 be fe 8f bf 3e 2f 22 cb 3e e0 06 02 be
       -0.13161273 0.37414545 0.39674518 -0.12697935
000010 28 da ca 3d
       0.09904891

fc4.weight f4 [1, 5]
000000 51 e3 4b 3e e9 e1 cd 3e a2 d9 c5 3e b8 c0 35 3d
       0.19910933 0.40211418 0.38642603 0.044373244
000010 f6 ff 5d be
       -0.21679673
