carv/controller_models/double_integrator/daggers/di_4layer/robust-constraint_dagger_4.pth (torch, 3727 bytes, 7 tensors)

fc1.weight f4 [15, 2]
-0.13654542 -0.015769834 0.65894634 0.27940202 -0.6615744 -0.60143274 -0.11799544 -0.36824
-0.077792525 -0.9704314 0.48413768 1.3722346 -0.36806786 0.37792605 0.44518724 -0.60794187
0.42312634 -0.49339432 0.14596401 0.5480718 0.38973692 0.5886675 0.63915455 0.16992672
-0.26823527 0.41900265 -0.10601974 -0.856604 0.5205479 0.91256356
00000000: 90d2 0bbe bd2f 81bc b5b0 283f c80d 8f3e
00000010: f15c 29bf 7ff7 19bf 98a7 f1bd f489 bcbe
00000020: b051 9fbd 316e 78bf e5e0 f73e 62a5 af3f
00000030: 6473 bcbe 867f c13e 95ef e33e 14a2 1bbf
00000040: 04a4 d83e 2e9e fcbe 9777 153e 6f4e 0c3f
00000050: 998b c73e eab2 163f a29f 233f 4501 2e3e
00000060: 2256 89be 8487 d63e e120 d9bd 664a 5bbf
00000070: a142 053f c49d 693f

fc1.bias f4 [15]
-0.22708005 -0.44093153 -0.53864557 0.13291265 0.52234113 -0.23750554 0.903687 -0.2100441
-0.9154827 1.0372665 0.48773935 0.71730065 -0.09274253 0.4942833 0.26474208
00000000: ac87 68be c7c1 e1be ade4 09bf 411a 083e
00000010: 26b8 053f a734 73be 0858 673f cd15 57be
00000020: 135d 6abf 26c5 843f f9b8 f93e 04a1 373f
00000030: ccef bdbd b312 fd3e 468c 873e

fc2.weight f4 [10, 15]
0.15094663 -0.20026612 0.09711902 -0.06110889 -0.24538012 -0.04073922 -0.11062417 -0.037047256
-0.19474852 0.22886153 -0.1688092 -0.20357285 -0.060892783 0.0026774958 -0.23419574 0.12495003
0.17337926 -0.25260362 0.25149432 -0.10614452 0.16718516 0.017368803 -0.10449385 0.17167097
0.026002042 0.012064931 0.012934454 -0.08146954 0.1167979 -0.23924313 -0.17819837 0.065660745
-0.19208202 0.2562839 -0.13568424 0.09002901 -0.13049844 0.097840495 0.25202256 0.013913751
-0.056002535 -0.014519711 0.08323485 -0.06757925 -0.16998683 0.0823101 0.1508264 -0.12083451
0.12644154 -0.28143787 0.19426255 0.03321194 -0.25298902 0.15095541 0.19139375 -0.05764258
0.037236366 -0.1344318 0.02614806 -0.32196724 -0.044385042 0.32006937 -0.081837356 -0.18386243
-0.3109293 -0.8350404 -0.26264188 0.13146098 -0.4313412 0.3351001 0.24209006 0.18435794
0.014837111 -0.37802404 0.13138327 -0.08337998 0.1560179 -0.17627017 -0.27825707 -0.39759287
-1.1943833 -0.46809247 0.07396343 -0.6306274 0.69580126 0.32545376 -0.019598905 0.24331124
-0.09482465 0.4870292 -0.24092233 0.32252607 -0.1734318 0.21280378 0.0725691 -0.5561547
0.6094303 0.063694686 0.53843844 0.17413631 0.022604465 0.15791515 -0.1458641 0.060588725
-0.29569837 -0.029150937 0.0033107067 0.13149463 -0.019088097 -0.07319028 0.048866786 -0.045154598
0.16612437 -0.07999554 -0.11012571 -0.001547964 0.076067165 0.18900171 0.041973468 -0.14526322
0.23237029 0.054423485 0.120977014 0.44414884 0.27558595 -0.41624686 0.84577113 0.3141554
0.16106375 -0.23507358 -0.28969038 0.21659353 0.09638385 0.2715907 -0.47705117 -0.24678466
0.06994079 0.21634689 0.045072325 -0.124712504 -0.15009369 -0.23706444 0.07256337 -0.25517836
-0.08261325 -0.12270487 0.027727498 -0.25114176 -0.13458839 -0.0063774013
00000000: c191 1a3e 9012 4dbe 56e6 c63d 514d 7abd
00000010: ed44 7bbe 2bde 26bd ed8e e2bd ddbe 17bd
00000020: 286c 47be ad5a 6a3e 52dc 2cbe 6775 50be
00000030: b66a 79bd ed78 2f3b 02d1 6fbe cde5 ff3d
00000040: 558a 313e 4355 81be ddc3 803e 4c62 d9bd
00000050: 9632 2b3e 0549 8e3c df00 d6bd 84ca 2f3e
00000060: 3c02 d53c fdab 453c 08eb 533c 81d9 a6bd
00000070: bd33 ef3d 27fc 74be a279 36be 2479 863d
00000080: 26b1 44be a537 833e cff0 0abe 2161 b83d
00000090: 62a1 05be 9960 c83d 1a09 813e 80f6 633c
000000a0: ea62 65bd 15e4 6dbc 0877 aa3d fd66 8abd
000000b0: 0711 2ebe 3392 a83d 3c72 1a3e 1578 f7bd
000000c0: e479 013e a018 90be c3ec 463e 3e09 083d
000000d0: c787 81be 0e94 1a3e b9fc 433e a01a 6cbd
000000e0: 2985 183d 7da8 09be 7534 d63c e4d8 a4be
000000f0: 17cd 35bd 22e0 a33e 589a a7bd 6f46 3cbe
00000100: 2032 9fbe 35c5 55bf ff78 86be b59d 063e
00000110: c1d8 dcbe 3e92 ab3e 75e6 773e 54c8 3c3e
00000120: 5b17 733c 5e8c c1be 5689 063e 1fc3 aabd
00000130: 28c3 1f3e 2b80 34be b677 8ebe 4b91 cbbe
00000140: 8de1 98bf d1a9 efbe 247a 973d cc70 21bf
00000150: 0820 323f e0a1 a63e e28d a0bc 9526 793e
00000160: 6d33 c2bd e45b f93e 58b4 76be 2322 a53e
00000170: 1b98 31be 3ce9 593e 1c9f 943d 2860 0ebf
00000180: a003 1c3f 5c72 823d 1ad7 093f ca50 323e
00000190: 002d b93c 82b4 213e 665d 15be e22b 783d
000001a0: c765 97be f2cd eebc 71f8 583b 87a6 063e
000001b0: a45e 9cbc c9e4 95bd 8a28 483d 07f4 38bd
000001c0: 821c 2a3e b4d4 a3bd 9789 e1bd 0ee5 caba
000001d0: 1ac9 9b3d aa89 413e 5fec 2b3d e2bf 14be
000001e0: 7af2 6d3e 29eb 5e3d ccc2 f73d 7a67 e33e
000001f0: 9a19 8d3e 4f1e d5be 7584 583f fad8 a03e
00000200: e5ed 243e 21b7 70be 4c52 94be b2ca 5d3e
00000210: e564 c53d f00d 8b3e 0d40 f4be 1eb5 7cbe
00000220: 1e3d 8f3d 0a8a 5d3e c29d 383d 4569 ffbd
00000230: 29b2 19be 05c1 72be 1b9c 943d bda6 82be
00000240: 2331 a9bd b14c fbbd c724 e33c a795 80be
00000250: 8ad1 09be 85f9 d0bb

fc2.bias f4 [10]
0.14309043 -0.22419955 -0.14181955 -0.040566776 -0.032991745 0.22563732 0.31289804 -0.17617312
-0.077277124 -0.18408123
00000000: 4c86 123e 9194 65be 2539 11be 5929 26bd
00000010: 5a22 07bd 780d 673e 2c34 a03e ba66 34be
00000020: 7843 9ebd ca7f 3cbe

fc3.weight f4 [5, 10]
0.2706911 -0.110559694 -0.27848598 -0.2346968 -0.5407325 -0.5266249 0.39019135 -0.25220686
0.36335844 -0.24740428 -0.064735025 0.13755009 -0.12898247 0.27193144 -0.20124592 -0.075105585
-0.042356748 -0.07011669 0.07941714 0.18029964 -0.29228142 0.30747917 -0.31344298 0.19884242
0.4163548 0.64299893 0.027503867 -0.01942504 -0.117990054 -0.00023183832 0.23396784 0.26321098
0.2583412 0.1404376 -0.5247043 -0.34545502 0.33323553 -0.082666546 0.48341244 0.09653574
-0.014333112 0.18462795 0.032278568 -0.20331852 0.13947576 0.693764 0.102077566 -0.17108883
-0.14406902 0.23542623
00000000: 0698 8a3e 1f6d e2bd b795 8ebe 5c54 70be
00000010: 726d 0abf e4d0 06bf 29c7 c73e 4221 81be
00000020: 1e0a ba3e 8c57 7dbe cc93 84bd eed9 0c3e
00000030: fb13 04be 993a 8b3e 6913 4ebe f5d0 99bd
00000040: 457e 2dbd 5799 8fbd 74a5 a23d 78a0 383e
00000050: e9a5 95be e96d 9d3e 997b a0be 599d 4b3e
00000060: 752c d53e 949b 243f ca4f e13c 4321 9fbc
00000070: c5a4 f1bd a019 73b9 4495 6f3e 97c3 863e
00000080: 4c45 843e e0ce 0f3e 0553 06bf 7bdf b0be
00000090: d99d aa3e 144d a9bd d681 f73e 88b4 c53d
000000a0: 6ed5 6abc 1c0f 3d3e 8836 043d bb32 50be
000000b0: bcd2 0e3e 849a 313f 0b0e d13d e931 2fbe
000000c0: d486 13be 9313 713e

fc3.bias f4 [5]
0.20159774 -0.13580696 0.18536194 0.15195225 -0.021039145
00000000: a36f 4e3e fb10 0bbe 85cf 3d3e 5f99 1b3e
00000010: 495a acbc

fc4.weight f4 [1, 5]
0.42005676 -0.13521136 -0.1316067 0.49283046 -0.44810662
00000000: ae11 d73e d974 0abe e8c3 06be 4654 fc3e
00000010: 3b6e e5be
