carv/controller_models/double_integrator/daggers/di_4layer/robust-constraint_expanded_0.pth (torch, 3535 bytes, 7 tensors)

fc1.weight f4 [15, 2]
00000000: 5dc9 04be d73c ab3e ac4a 9f3d d049 443e
00000010: f3d1 a13e d2c6 0fbf eb87 6c3e 93b1 ac3e
00000020: 710f 7dbe 198e edbd 0cda aa3e 4021 a13d
00000030: eca9 5cbe 170f 32bf 4973 05bf f84b 2d3d
00000040: 04cf 263f 83b2 e53e 2bd2 c13d 6647 0bbf
00000050: 33ae 2abf 20fd 6b3e 3ff6 103f 9e62 1e3f
00000060: 07fd 0ebf 4aa5 dabe 3e4d 76bd 4c78 bdbe
00000070: a722 563e 6c89 463b
-0.12967439 0.33444855 0.077779144 0.19168782 0.3160549 -0.5616275 0.23098724 0.33729228
-0.24712922 -0.115993686 0.33369482 0.0786767 -0.21549195 -0.69554275 -0.52129036 0.042308778
0.6515963 0.44862756 0.094639145 -0.5440582 -0.66672057 0.23045778 0.5662574 0.6186923
-0.5585484 -0.4270423 -0.060132258 -0.37005842 0.20911656 0.0030294312

fc1.bias f4 [15]
00000000: b089 173f 573a 73be cf02 453e b80e 953e
00000010: 01b1 dc3e 0147 093f cfab c5be 9140 18be
00000020: e8bb 3f3e 9806 c43e ee12 d4be bd82 003e
00000030: 3ad3 7cbe df75 f5be efcb 06bf
0.5919447 -0.23752724 0.19239353 0.29112792 0.43103793 0.5362397 -0.38607642 -0.1486838
0.18724024 0.3828628 -0.41420692 0.12549873 -0.24689952 -0.4794149 -0.5265493

fc2.weight f4 [10, 15]
00000000: a1d4 033e 2b52 debd cec2 4c3e bf4a 0ebe
00000010: 6223 6dbe 26fb e3bc 7a11 a9bd 7686 58bd
00000020: bad8 2bbe a1e3 1ebe 00af 023e b571 603d
00000030: fdf8 0f3e f52b 383d da56 5dbe 5e60 89bd
00000040: 416b b23d 6e33 333e 041c 9ebd dde5 b93c
00000050: fc39 7e3e e2f9 acbd d9ed 023e fb86 0c3e
00000060: 9fac 8ebd 104a 693e bdf7 993c b46e 72be
00000070: 7f74 4cbe f384 243d cf41 423e 85ee d9bd
00000080: 5c99 1fbe 03ec 7cbe 1793 e2bd 40f6 c63d
00000090: 8b0f 393e 1778 0d3e b362 e73b 7d97 97bc
000000a0: 2ad1 27be de92 f63d 3163 f1bc 2567 5a3e
000000b0: 40ee 993c 98c3 f8bc 2729 1e3e eeb0 c4bd
000000c0: e8e7 62bd 207b 21bd 8a5c 53be 09fb 203e
000000d0: e93c 81be 91a5 0d3e 512d 22be 5ecd d0bd
000000e0: b240 01be 7709 f0bc f3a7 653d a9bc eabd
000000f0: a265 923d 0921 313e b28b 783d 9040 6abd
00000100: 5650 8bbd 237f 0c3d a282 073e 54f1 763e
00000110: 0416 843d 7a97 2c3d adb8 ccbd 9463 6dbe
00000120: 3660 1a3e 7e07 cdbd cf40 483d 9daf 7fbe
00000130: 7de6 4d3e 5b57 bdbc fccd 493c 9cd9 a1bd
00000140: 5633 263e 78aa 44be 482e e33d 842c 243e
00000150: 1425 26be 8638 5cbe 30d4 4b3d 3766 df3d
00000160: b670 593c a780 f33d 84ed 453e 7767 b7bd
00000170: 4f51 8c3d afde 973d bcb7 33be ae1b 363e
00000180: d33c 933d 59d1 2c3d ac53 b83d 3321 473e
00000190: 36da 5fbc 024f 38be dc5e 75be c1a9 efbd
000001a0: a7f4 52be 6ac8 efbd 0c34 a2bd 59e2 93bc
000001b0: ee4c 30be 679c df3d af7b 4dbe 043f 7a3e
000001c0: 4079 283e 6500 703e c5f9 85bd 61ac adbd
000001d0: 7ed4 01be 9c60 4cbe 534d 853d 9ac5 14be
000001e0: 0df4 363d 2e17 8c3d f2fd 363e f08c 2b3e
000001f0: 3b25 6b3d 2ca4 49be aa82 a9bd 0ffd 48be
00000200: 5b19 73be 4d69 833e eb85 37be ef14 803c
00000210: 5648 6e3e ee90 06be 561e 0a3d 239b 05be
00000220: e849 91bd 35c2 833e f3f3 123e eaa3 ec3b
00000230: 856a 5abc 0260 cdbb 2d44 793e 6b1b 87bd
00000240: 312d 4dbe 6ff5 83bd 4610 7abe 09c9 853d
00000250: 637c 6ebd 6143 11be
0.1287408 -0.10855516 0.19996187 -0.13895701 -0.23158029 -0.027829718 -0.082552865 -0.052862607
-0.16781893 -0.15516521 0.1276207 0.05479594 0.14059825 0.044963796 -0.21615162 -0.06707834
0.08711863 0.17500088 -0.07720187 0.022692615 0.24826807 -0.08446099 0.12786044 0.13723366
-0.069665186 0.22782159 0.018794889 -0.23675042 -0.19966315 0.040165853 0.18970416 -0.10641197
-0.15585846 -0.24699406 -0.110632114 0.09714937 0.18072335 0.13815342 0.0070613264 -0.018504852
-0.16388384 0.120397314 -0.029466243 0.21328409 0.018790364 -0.030366704 0.15445386 -0.09604059
-0.055396944 -0.03942406 -0.2064077 0.15720762 -0.25241783 0.1383269 -0.158376 -0.10195421
-0.12622336 -0.029301388 0.056068372 -0.11461765 0.07148291 0.17297758 0.0606801 -0.057190478
-0.06802432 0.034300935 0.13233426 0.24115497 0.06449512 0.042136647 -0.099961616 -0.23182517
0.15075764 -0.10011195 0.04888993 -0.24969335 0.20107456 -0.023112943 0.012317177 -0.07902834
0.1623052 -0.19205654 0.11092812 0.16032606 -0.16225082 -0.21505937 0.049762905 0.10908168
0.013271501 0.11889773 0.19328886 -0.08955281 0.06851446 0.074155204 -0.17550558 0.17783996
0.07189336 0.042191837 0.09000334 0.19446258 -0.013662865 -0.17998889 -0.23961967 -0.117023
-0.2060114 -0.11708148 -0.079200834 -0.018052267 -0.17216846 0.10918503 -0.20066713 0.24438101
0.16452503 0.2343765 -0.065417804 -0.08480144 -0.12678716 -0.19958729 0.06508889 -0.14528504
0.04466634 0.06840359 0.1787031 0.16752982 0.057408553 -0.19691533 -0.08276875 -0.19627784
-0.23740141 0.25666276 -0.1792218 0.015634982 0.23269781 -0.13141224 0.033720337 -0.13047461
-0.070941746 0.25734106 0.14350872 0.0072216885 -0.01333106 -0.0062675485 0.24342413 -0.065970264
-0.2003677 -0.06443297 -0.2442027 0.06532485 -0.058224093 -0.1418586

fc2.bias f4 [10]
00000000: d4be 69be 276f eebd 020c 67be 6060 563e
00000010: 3542 de3d c02e e3bd e5d3 73be dc97 833e
00000020: 3ae1 583e 2816 6c3e
-0.22826701 -0.116422944 -0.22563174 0.20935202 0.10852472 -0.11092901 -0.238113 0.25701797
0.21179667 0.23055327

fc3.weight f4 [5, 10]
00000000: 7002 813e 69fa 913e c0af 86be e12c 9d3d
00000010: 9b96 db3d fae5 0cbe f9e9 7f3d d5c7 423e
00000020: 27da 773e 8ea7 8bbe 5c20 cfbc 208a 9a3e
00000030: 04cd abbd 0362 58bd 54a8 10bd bd18 9dbc
00000040: 3cbb 83be 6850 8ebe f3ca fd3d 5171 c93d
00000050: 9103 1f3d f4c3 96bd b011 5c3e afeb a03e
00000060: 4d80 6dbe 3449 4abe 9101 1d3e 8bbd ff3d
00000070: 7904 dfbc 6265 7f3e f524 aa3d 9e3c 1cbe
00000080: 3dc4 83be 8299 41bd 4530 8abe ef94 093d
00000090: 966b 0cbe 8f1d d33d f5ac a439 4478 39be
000000a0: ac4f cbbd 5539 61bc f65b 1a3e c3d2 80b9
000000b0: 5179 e53c 34e3 353e c449 8dbe 5e67 893e
000000c0: 9adf c9bc 56f9 4e3e
0.25197172 0.2851136 -0.26305962 0.076745756 0.10722085 -0.13759604 0.062478993 0.19021542
0.24204312 -0.27276272 -0.025283985 0.30183506 -0.08388713 -0.052827846 -0.03531678 -0.019176835
-0.25728786 -0.2779572 0.12392225 0.098360665 0.03882176 -0.07361594 0.21491122 0.31429812
-0.23193474 -0.19754487 0.15332629 0.12487324 -0.027223812 0.24941018 0.0830783 -0.15257499
-0.25735655 -0.047265537 -0.26989952 0.0335893 -0.13712916 0.10308372 0.0003140938 -0.18112284
-0.099273056 -0.013746579 0.15074143 -0.00024571092 0.02801195 0.17762452 -0.2759534 0.26836675
-0.024642754 0.20212302

fc3.bias f4 [5]
00000000: e4bb 1b3e c620 95bd 950b 3ebe 1975 673e
00000010: c214 afbd
0.15208393 -0.07281642 -0.18559106 0.22603263 -0.08548881

fc4.weight f4 [1, 5]
00000000: 5830 debd 5d32 843e 35cc 8939 6f56 c7be
00000010: 1f06 c6bd
-0.108490646 0.25819674 0.00026282822 -0.3893313 -0.09669136
