carv/controller_models/double_integrator/daggers/di_4layer/robust-constraint_expanded_8.pth (torch, 3535 bytes, 7 tensors)

fc1.weight f4 [15, 2]
0	0x3d1f6fb5	0.03892489
1	0xbeabbfe6	-0.33544844
2	0x3ea3081b	0.3184212
3	0x3e6a3565	0.22871931
4	0x3f175319	0.5911117
5	0xbde9a14d	-0.11407719
6	0x3ee143ac	0.43996942
7	0x3ea887ff	0.32916257
8	0x3eca3f3b	0.39501366
9	0x3f2a6358	0.66557837
10	0xbf03bdfa	-0.51461756
11	0x3ebe6bfc	0.3719176
12	0x3e67fdfc	0.22655481
13	0x3e859a6f	0.26094386
14	0xbef37f5a	-0.475581
15	0xbeeea0b3	-0.4660698
16	0x3f0a59de	0.54043376
17	0x3eb23011	0.34802297
18	0xbee41efd	-0.44554892
19	0x3ec2fab3	0.38081893
20	0x3e916409	0.28396633
21	0xbdd41562	-0.10355641
22	0xbf16c958	-0.58900976
23	0xbef3d84d	-0.47625962
24	0xbeecbe25	-0.4623882
25	0xbea60942	-0.32428938
26	0x3f2f21c9	0.6841093
27	0x3efe6792	0.49688393
28	0xbedb2dc6	-0.4280836
29	0xbe0c7e03	-0.13719945

fc1.bias f4 [15]
0	0xbf09bf7b	-0.538078
1	0x3e4bf918	0.1991924
2	0x3f1fcc0f	0.62420744
3	0xbf001733	-0.500354
4	0xbf204a3c	-0.6261327
5	0xbe832390	-0.2561307
6	0xbe2207f7	-0.15823351
7	0xbf2f04f5	-0.6836694
8	0x3eeed504	0.46646893
9	0xbf0a2b49	-0.539723
10	0x3f1d5b71	0.61467654
11	0x3eb6998c	0.35664022
12	0xbf07ec58	-0.53095007
13	0xbe57567c	-0.21029085
14	0x3ddb6956	0.107134506

fc2.weight f4 [10, 15]
0	0xbd3e35a2	-0.046437867
1	0x3e065f27	0.13122235
2	0x3e1d87ac	0.15383786
3	0xbde079cb	-0.1096073
4	0xbe3363e0	-0.17518568
5	0xbdbc63e8	-0.09198743
6	0xbc5683ce	-0.013092948
7	0xbbb4e43b	-0.0055203713
8	0x3e815e02	0.25267035
9	0x3e05abdb	0.13053839
10	0x3c325ba2	0.010886105
11	0xbe16a92d	-0.14712973
12	0x3d61bfb0	0.055114448
13	0x3e3e93b2	0.18611029
14	0x3e507815	0.20358308
15	0x3e81eb11	0.25374654
16	0x3dd93b0e	0.10606967
17	0xbe4b9624	-0.19881493
18	0x3e82570c	0.25457036
19	0xbd979996	-0.07402341
20	0xbda230de	-0.07919477
21	0xbd43d30f	-0.047808703
22	0x3e646a9e	0.22306296
23	0x3e66b1b8	0.22528732
24	0x3e3becec	0.18352097
25	0x3e4811c7	0.19538032
26	0x3e7bf920	0.24606752
27	0xbd66674f	-0.056250867
28	0xbdd0a322	-0.10187365
29	0x3ca51d5a	0.020155597
30	0xbe80cae7	-0.25154802
31	0xbc659a55	-0.014013846
32	0x3dfa8fb0	0.122344375
33	0xbd00abca	-0.03141383
34	0x3d870e72	0.06594552
35	0x3e802a24	0.2503215
36	0xbe35daa4	-0.17759186
37	0xbdc87e68	-0.09789735
38	0x3cb2bb2b	0.021817764
39	0xbd0c473d	-0.034247626
40	0xbdaa38ba	-0.08311601
41	0xbd4ad279	-0.04951713
42	0xbd9b7ad4	-0.07591787
43	0xbe4a1e06	-0.19738016
44	0xbdbd83d8	-0.09253663
45	0x3e5957e2	0.21224931
46	0xbe231fa7	-0.15930043
47	0xbe0415bc	-0.12898916
48	0xbe402413	-0.18763761
49	0xbe4f1695	-0.20223458
50	0xbe1fb48f	-0.15596221
51	0x3d9f8713	0.07789435
52	0x3e30a88f	0.172518
53	0x3d26d010	0.040725768
54	0x3dab21d5	0.08356062
55	0xbe2dda44	-0.16977793
56	0x3dfd10af	0.12356698
57	0xbe8070f3	-0.25086173
58	0x3e784fc0	0.24249172
59	0x3df16d05	0.11788372
60	0x3d5623f3	0.052280378
61	0x3d103705	0.03520872
62	0xbdd8082b	-0.10548433
63	0xbe3f20e0	-0.18664885
64	0xbe535879	-0.20639218
65	0xbe63354f	-0.22188304
66	0xbe15c40d	-0.14625569
67	0x3e19dd71	0.1502588
68	0x3e3cd783	0.18441586
69	0x3dac9951	0.0842768
70	0x3e7911a6	0.24323139
71	0xbe0ff6f6	-0.14059052
72	0x3d348726	0.0440742
73	0x3dba860b	0.09107598
74	0xbe21a945	-0.15787227
75	0xbd93fee9	-0.07226355
76	0xbd3aa2dd	-0.045565475
77	0x3cb58f49	0.02216305
78	0xbe460f5b	-0.19341795
79	0x3d9f6af7	0.07784074
80	0xbe51e32a	-0.20496812
81	0xbe293572	-0.16524294
82	0x3e48a3f1	0.19593789
83	0xbe5b899f	-0.21439217
84	0xbe27f627	-0.16402493
85	0xbc1c54f5	-0.00954174
86	0xbe13f870	-0.1445024
87	0x3db9e4fe	0.0907688
88	0xbe250728	-0.16116011
89	0x3e1a59f3	0.15073375
90	0xbda755fd	-0.08170698
91	0x3dbf9196	0.0935394
92	0xbd9e455c	-0.07728073
93	0xbe3ac89e	-0.18240592
94	0xbd991855	-0.07475344
95	0x3cc60072	0.024170134
96	0x3e395fa8	0.18102896
97	0x3c70dc17	0.014700911
98	0x3e03b68e	0.12862608
99	0x3dece124	0.1156638
100	0xbe209d0b	-0.15684907
101	0x3d79a100	0.060944557
102	0x3bf540ef	0.0074845473
103	0x3e365fe1	0.17810012
104	0x3e1caca0	0.15300226
105	0xbde16f19	-0.11007518
106	0x3e294c0e	0.16532919
107	0xbd1a307a	-0.037643887
108	0xbde53270	-0.11191261
109	0x3e782c2b	0.24235599
110	0xbe67f9d1	-0.22653891
111	0x3dc1c87f	0.0946207
112	0x3dfbce4e	0.12295209
113	0x3da71c12	0.08159651
114	0xbe7a6737	-0.24453436
115	0xbe72f156	-0.23724875
116	0x3e171aea	0.1475636
117	0x3e34c57f	0.17653464
118	0xbe25848d	-0.16163845
119	0x3c16ab2b	0.009196083
120	0xbe2740e7	-0.16333352
121	0xbe513d79	-0.20433606
122	0xbe568711	-0.20949961
123	0x3d92e948	0.07173401
124	0x3c07f06f	0.00829707
125	0xbd68be9f	-0.056822415
126	0xbe456bfd	-0.19279476
127	0x3e15617d	0.1458797
128	0xbdf313d2	-0.11869015
129	0x3ced6035	0.02897654
130	0x3e78fc36	0.24314961
131	0x3de08838	0.10963482
132	0xbde44f98	-0.11147994
133	0x3e2e7a3d	0.17038818
134	0x3e6a8910	0.22903848
135	0xbe00d9ef	-0.12583135
136	0xbe76e7ef	-0.24111913
137	0xbe4f2472	-0.20228747
138	0x3e5c2210	0.21497369
139	0xbc499678	-0.012303941
140	0xbdf26a06	-0.118366286
141	0xbe7ac249	-0.24488176
142	0x3e5f2a69	0.21793522
143	0xbdca7cac	-0.098870605
144	0xbdc4d1e6	-0.096103474
145	0xbe675ace	-0.22593233
146	0xbe2fb3ab	-0.17158382
147	0x3e4537e5	0.19259603
148	0xbc59ef7d	-0.013301727
149	0x3dec8f99	0.115508266

fc2.bias f4 [10]
0	0x3e4232ae	0.18964645
1	0xbe493221	-0.19648029
2	0xbd8710d1	-0.06595004
3	0x3e365ead	0.17809553
4	0x3e25f2c5	0.1620589
5	0x3dd2d776	0.10295002
6	0x3da9f1b9	0.08298058
7	0x3d82af38	0.063810766
8	0xbd81390e	-0.063097104
9	0xbd97a813	-0.074051045

fc3.weight f4 [5, 10]
0	0x3d9e6652	0.0773436
1	0x3e88546c	0.2662691
2	0xbdfb5ac2	-0.1227317
3	0xbe6c50af	-0.23077653
4	0x3d338715	0.043829996
5	0xbe136336	-0.14393315
6	0xbe51c33d	-0.20484634
7	0x3df8e0dc	0.121522635
8	0xbe40d2e8	-0.18830454
9	0x3e74a0e8	0.23889506
10	0x3e53aea3	0.20672087
11	0x3e8f91a5	0.28040805
12	0xbd6e068f	-0.058111724
13	0xbe808010	-0.25097704
14	0xbd94aa2b	-0.072590195
15	0xbe4659de	-0.19370219
16	0xbe6db55c	-0.23213714
17	0x3e973580	0.29533005
18	0x3e1abf1b	0.15111963
19	0x3e9e0120	0.30860233
20	0xbe3b6914	-0.18301803
21	0xbd87967c	-0.066204995
22	0xbe0764ba	-0.13222018
23	0x3e1be7e3	0.15225177
24	0xbe9cfc03	-0.3066102
25	0x3da2f83f	0.079575054
26	0xbd172231	-0.03689784
27	0xbe07fa28	-0.13279021
28	0xbdff3d5a	-0.12462874
29	0x3e8ff614	0.2811743
30	0xbda3898d	-0.0798522
31	0x3e9d28bb	0.30695137
32	0xbe9daeb9	-0.30797365
33	0x3e1aea87	0.15128528
34	0xbd93153d	-0.07181785
35	0xbe8e6b27	-0.27816126
36	0xbe8ed0e3	-0.27893743
37	0xbd0d7b07	-0.034541156
38	0x3e5013fc	0.20320123
39	0x3da7f4cc	0.08200988
40	0x3d13eee2	0.03611649
41	0x3c438c1f	0.011935263
42	0x3e8eb548	0.27872682
43	0x3df07073	0.11740198
44	0xbe9b71ee	-0.3036036
45	0xbe8a7ed2	-0.2704988
46	0xbe480bac	-0.19535702
47	0x3e4c9fe9	0.19982876
48	0xbe0191d2	-0.12653282
49	0xbe6ba6f3	-0.23012905

fc3.bias f4 [5]
0	0xbe06c57d	-0.13161273
1	0x3e4bd3b7	0.19904982
2	0x3e39fdee	0.18163273
3	0xbe0206e0	-0.12697935
4	0x3e190156	0.14941916

fc4.weight f4 [1, 5]
0	0x3e4be351	0.19910933
1	0x3e0b1c2d	0.13584967
2	0x3d1b693d	0.03794216
3	0x3d35c0b8	0.044373244
4	0xbe7185b2	-0.23586157
