carv/controller_models/double_integrator/daggers/di_4layer/robust-constraint_dagger_3.pth (torch, 3727 bytes, 7 tensors)

fc1.weight f4 [15, 2]
00000000: 0575 193f 4d67 463f 17f9 173f d404 083f
00000010: 8e5a 013f 8beb 1ebf b042 11bf 9d41 d4be
00000020: d0f5 21be bad0 22bf d995 1f3f b767 1fbe
00000030: 74f4 233f c4f4 f3be 3c54 29be 34d6 5abe
00000040: 2f2b 23be b3f6 51bf a66a 043e 3e95 a73e
00000050: 36a6 07bf 6150 ce3e b1f7 3b3e b0de 7e3f
00000060: 9e7d 57be e424 09bf acec 72be 2955 38bf
00000070: 209b 9dbe 8d0a 81bd
0.5994418 0.77501374 0.59364456 0.5313237 0.505288 -0.6207816 -0.5674238 -0.4145631
-0.15816426 -0.6359974 0.62338024 -0.15566908 0.6404488 -0.4764768 -0.16536039 -0.21370775
-0.15934442 -0.8201706 0.12931308 0.3273105 -0.5298799 0.402957 0.18356206 0.99558544
-0.21044013 -0.53571916 -0.23723096 -0.72004944 -0.30782413 -0.063008405

fc1.bias f4 [15]
00000000: 9cd4 ac3e 5425 5d3e c88b 2c3d 7366 16be
00000010: f597 5a3e 1695 e73e ff06 fc3e 387e bc3e
00000020: 1ae5 d73e 6215 123f 85d7 cdbe 4e0c 4a3e
00000030: d844 bf3e cf90 ae3e 4d50 673f
0.33755958 0.21596271 0.042125493 -0.14687519 0.2134703 0.4523093 0.49224088 0.36815047
0.42166978 0.5706388 -0.4020349 0.19731256 0.3735721 0.34094855 0.90356904

fc2.weight f4 [10, 15]
00000000: ab94 82be 111a 8f3d 8dde 413d 511f bf3d
00000010: c1c8 e0bc b12f 81be b2f1 cd3d 2ec6 173e
00000020: 5fa0 c8bd 7259 313e f970 3f3e d728 0ebd
00000030: 25b4 183e e899 2a3e b7ea b4bd d7cc f4bc
00000040: 6380 fb3d 0206 42bc b2a8 ec3d 9bf3 22bc
00000050: 8cb2 26be fcab 8bbe 4148 473d a9ae 13be
00000060: cd08 373e b7db 66be b45f 63be dad8 4a3e
00000070: 7924 0e3d d571 29bd e5c0 713d 1b3d 4cbe
00000080: 474b d63c e7fa 9fbb 7c42 abbe fde3 87be
00000090: 9190 a13d 09ff 38be 9cf6 473e 9a25 96be
000000a0: 7ada fc3d d2dd 86bc 83fd 99ba e1ca 48be
000000b0: 7253 e63d cefc 89bd de78 4c3e 3e11 ff3d
000000c0: 1365 2e3e 8e53 5fbf ec3b 243e b775 7c3d
000000d0: 4bb6 c9be 74ca 97bd 3d91 f6bd 26cc a4bc
000000e0: 203c 4cbf 757d fcbe 8a20 10bf 91fe b93d
000000f0: deea 283e 9dfa 55be 7734 75be d88a c7bb
00000100: b516 cc3d 165d 27be 5a35 07be 48a9 42be
00000110: 04d3 37be d8eb 8dbd d668 3abd dea1 833e
00000120: b31c 44be 8f80 7e3e 5393 32be 80e7 27bd
00000130: 91ad 37bd 88ee 3dbe 705f e7bd 4843 e8bd
00000140: 9bee 25be bc46 b63b d7e9 423d 5085 8f3c
00000150: c352 14be 52c4 af3c f676 993c 8aab 44be
00000160: f4c1 8a3d bab8 83be 0891 d2bd aa31 d13d
00000170: 7f54 0a3e 55c8 403e a068 963e ca6e 6b3e
00000180: ad83 7dbd da36 7a3c 1bc9 1b3e c632 883d
00000190: 3f27 013e 7625 33bf ffae d43e 916b d13e
000001a0: a8fd 2d3d 74fe d4be 6f60 a7bb 474e 7f3e
000001b0: dd19 13be 0bec 353f ae28 fa3d c66e 283e
000001c0: ac08 953e 18a2 153e 27fc 513d 8adb 5bbe
000001d0: 89ec c5be b9de c63e 0a40 fd3e 1f92 eabd
000001e0: e5c7 6bbe f02e 3cbe f14c 943e cc83 203e
000001f0: b52e 403f 971f a1bd 1adb 043e d015 f8bd
00000200: 67dc 703e 8699 73be a054 c4bd fc17 8fbe
00000210: fc04 fe3e d956 1e3f 6363 55bd e21c 153f
00000220: cdc9 013f 02e9 013c 028a 7c3d 16c1 d4be
00000230: 0443 bd3d e1bd a93c 5b3d abbe f089 c8be
00000240: 3b1b c03e 2ee4 9d3d 5d06 6bbf 5064 83be
00000250: cd79 16bf c0e5 843e
-0.2550405 0.06987394 0.04733138 0.09332145 -0.027439477 -0.25231698 0.10055865 0.14821693
-0.09796213 0.17319277 0.1869544 -0.034706917 0.1491247 0.16660273 -0.08833831 -0.029882831
0.12280347 -0.011842253 0.115556136 -0.009945775 -0.16279048 -0.2727965 0.04865289 -0.14422096
0.17874451 -0.22544752 -0.22204477 0.19809285 0.03470275 -0.041368324 0.05902185 -0.19945185
0.026158942 -0.004882205 -0.3344916 -0.2654113 0.07888902 -0.18066038 0.19527668 -0.29325563
0.123463586 -0.016463194 -0.0011748526 -0.19608642 0.11246385 -0.06737672 0.19967982 0.124544606
0.17030744 -0.8723687 0.16038483 0.0616357 -0.3939689 -0.07411662 -0.12039421 -0.020116877
-0.79779243 -0.49314466 -0.5629965 0.09081758 0.16495845 -0.20896383 -0.23945795 -0.0060895495
0.099652685 -0.16344103 -0.13203946 -0.19009888 -0.1795159 -0.06929749 -0.045510136 0.25709432
-0.19151573 0.24853729 -0.17439012 -0.04099226 -0.04484326 -0.18548024 -0.112975 -0.11340958
-0.16204302 0.0055626314 0.04758629 0.017519623 -0.14484696 0.021455918 0.018733483 -0.19206062
0.06775275 -0.25726873 -0.10281569 0.10214551 0.13508795 0.1882642 0.29376698 0.22991481
-0.061893154 0.015271867 0.15213434 0.06650309 0.12612627 -0.69979036 0.4153976 0.4090238
0.042478234 -0.41600382 -0.0051079313 0.24932204 -0.14365335 0.710633 0.1221479 0.16448507
0.2910818 0.14612615 0.05126586 -0.21470466 -0.38657025 0.388418 0.4946292 -0.11453652
-0.23025472 -0.1837728 0.28964952 0.15675277 0.7507127 -0.078673534 0.12974206 -0.121135354
0.23521577 -0.23789033 -0.095864534 -0.27947986 0.49613178 0.6185127 -0.052096736 0.58247197
0.5069855 0.007929089 0.061655052 -0.41553563 0.09241298 0.020720424 -0.33445248 -0.39167738
0.37520775 0.077095374 -0.91806585 -0.2566247 -0.58779603 0.25956535

fc2.bias f4 [10]
00000000: f54b 0cbe f90e a23d 1b45 483e 07f3 b23d
00000010: d833 a0bd 16f5 b6bd f8d1 153e f5bc 683e
00000020: b5ab 0dbd f315 fc3d
-0.1370085 0.07913012 0.19557612 0.0873776 -0.078223884 -0.08933465 0.14630878 0.22728331
-0.03458758 0.12308874

fc3.weight f4 [5, 10]
00000000: 341a 083e 3042 3f3e 024e 983e cd7e 5dbc
00000010: 6d7e 30be fc38 1bbd 7fcc 7fbe 32d4 76be
00000020: ccc9 6dbe 60cf 1fbe ca64 96be 9600 83ba
00000030: 0a3b 48be eeae e73d 30f8 c93d a18f 9fbe
00000040: 99d2 d6bd 4c57 473e 329c 96be 3100 5dbe
00000050: 0d51 a73d 2f56 9f3e 2148 5bbe 10b6 93be
00000060: 924a 73be 5ab4 8a3e 937d 373d 2759 65be
00000070: f0a5 9a3d 1df5 963d 2ee1 e83d a6dd 88bd
00000080: 3ad1 0c39 91cd 34be 670b 883e 8351 ef3d
00000090: e094 5c3e 9559 d03e 1a83 073f 999c cfbe
000000a0: de95 4dbe 7681 febb bdb5 2e3e df35 b33e
000000b0: 7550 513e a447 1dbe 29d9 0a3e 88b8 373d
000000c0: 67c6 cbbd 994f 2a3f
0.13291246 0.18677592 0.29747015 -0.013519001 -0.17235728 -0.03789614 -0.24980353 -0.24104384
-0.2322151 -0.15606451 -0.2937377 -0.0009994681 -0.19553772 0.11312662 0.09861791 -0.31164268
-0.10489387 0.19466895 -0.29416043 -0.21582104 0.08169756 0.3112044 -0.21414234 -0.2884984
-0.23758915 0.27090722 0.04479749 -0.2239729 0.07551181 0.073709704 0.113710746 -0.06682901
0.00013429383 -0.17656542 0.265712 0.11685469 0.21541166 0.40693346 0.5293442 -0.40549162
-0.20076701 -0.007766898 0.17061515 0.35002038 0.20440848 -0.1535936 0.13559403 0.044853717
-0.099499516 0.66527706

fc3.bias f4 [5]
00000000: fd1b d8bd b11b 23be 0714 2cbe acaa e3bd
00000010: fb6f f3bb
-0.10552213 -0.15928532 -0.16804515 -0.111165375 -0.0074291206

fc4.weight f4 [1, 5]
00000000: b2b9 933d 70a2 cc3e 87c1 873e 295f 053f
00000010: 3dce cebe
0.07213153 0.3996768 0.26514837 0.5209833 -0.40391722
