carv/controller_models/double_integrator/daggers/di_4layer/robust-constraint_dagger_1.pth (torch, 3727 bytes, 7 tensors)

fc1.weight f4 [15, 2]
000000 ad 99 1e bf f0 0a 06 3f 48 a4 3f be 17 29 9b 3e
       -0.6195324 0.5236044 -0.18715012 0.30304787
000010 f1 3d a3 be 8e 41 bd 3e 21 1d 23 bf 5c 49 31 bf
       -0.31883195 0.36964077 -0.6371632 -0.6925256
000020 2e 2e 89 be f1 c1 75 be 3c 7e 6d 3f 07 82 a0 3e
       -0.26793045 -0.23999764 0.92770743 0.31349203
000030 a3 eb 11 bf 99 a2 87 be cd 28 70 be f6 b9 c4 be
       -0.5700018 -0.2649124 -0.23453064 -0.38423127
000040 8c ef b6 3d 88 49 37 bf 3a 80 41 3f 1a d3 fb 3e
       0.08932409 -0.71596575 0.75586283 0.49184495
000050 5c 44 aa be aa c8 58 3e ac b6 29 3f b1 b5 b3 3e
       -0.3325528 0.21170297 0.6629436 0.35099557
000060 f6 62 8d be da 43 72 be 55 3f 05 3e ff e6 41 bf
       -0.27614564 -0.23658696 0.1301244 -0.757431
000070 e4 61 88 3c 45 bb 8b bd
       0.01664824 -0.06822828

fc1.bias f4 [15]
000000 bb 56 4b bd 0b a5 01 3f b7 f1 d3 3e 50 e4 ba be
       -0.04964326 0.5064246 0.4139535 -0.36502314
000010 79 e9 11 bf a5 a2 c8 3e d3 34 15 bf 91 34 18 3f
       -0.56996876 0.39186588 -0.5828373 0.5945521
000020 48 f3 79 3e a6 c9 9e be f7 17 26 bd b6 14 dc be
       0.2440921 -0.3101322 -0.0405502 -0.4298455
000030 b9 78 34 3f ec e1 b3 3e a8 4f e8 bd
       0.7049671 0.35133302 -0.11343318

fc2.weight f4 [10, 15]
000000 3e e9 f4 bd 53 05 ee 3d 04 e0 18 3e b5 72 83 bd
       -0.1195855 0.11622109 0.14929205 -0.06418363
000010 a7 71 15 bd ed aa d5 3e 93 94 47 be 91 48 df be
       -0.03648534 0.4173197 -0.1949027 -0.4361005
000020 a9 fc ba bd 4e 05 22 3f d2 ba 14 3e fd b8 39 3e
       -0.09130222 0.63289344 0.14524391 0.18136974
000030 01 2e 15 bf 69 94 e5 be 03 77 89 bd 23 c2 6f 3e
       -0.5827332 -0.4483979 -0.06712153 0.23413901
000040 4b f6 a7 be 74 dd 39 ba 26 31 9c 3d 93 4e 1e 3e
       -0.32805094 -0.0007090189 0.07626562 0.15459661
000050 65 39 34 3e 77 5c 7d bc 3a 72 fc 3e e9 eb d5 3e
       0.1760002 -0.01546394 0.49305898 0.41781548
000060 99 b5 d6 3c 9b b2 4a 3e c8 27 2f bc 5b 7b 53 3e
       0.02620964 0.19794695 -0.010690637 0.20652525
000070 f6 58 48 3e f1 fd 21 bd 5e 51 7c be 41 1d 6a be
       0.19565186 -0.039548818 -0.24640414 -0.22862722
000080 91 73 16 be 15 4c d6 bd 77 12 66 3e 87 68 15 be
       -0.14692523 -0.1046373 0.22467981 -0.14590655
000090 e5 a9 7a 3e 1e fa b2 3d c6 c5 58 be 26 9f 39 bd
       0.24478872 0.08739112 -0.21169195 -0.04531779
0000a0 e9 af 4b bc 17 f7 46 be 57 dc 42 be 18 61 8d 3d
       -0.012432077 -0.19430195 -0.19029365 0.06903285
0000b0 d0 5c 27 be 65 b1 58 be 7d 60 18 bd 2e e5 ad 3d
       -0.16343999 -0.2116142 -0.037201393 0.08490978
0000c0 4c 5f dc bd 1c 8f 1c 3e b5 d8 48 be 41 50 c9 3d
       -0.10760364 0.15288967 -0.19613917 0.0982976
0000d0 9c b3 22 be 33 44 dc 3c 2c 6d 41 be 6d 83 6f be
       -0.15888828 0.026887989 -0.18889302 -0.23389979
0000e0 b6 7a f7 3c c4 72 0d 3e a4 a5 3e be c4 65 20 3e
       0.03020988 0.13813311 -0.18617874 0.1566382
0000f0 17 67 a7 3d 1c 0a b4 bd 6b d6 71 3d 09 c8 f5 3d
       0.0817396 -0.08790991 0.059042376 0.12001044
000100 7e 3a 03 be 92 9c 93 be bb 58 6e 3e 59 b5 20 3e
       -0.12815282 -0.2883039 0.23276035 0.15694179
000110 61 e3 a7 bd b3 fb 5b be f2 cd 24 be 69 28 e5 bb
       -0.08197666 -0.21482734 -0.16094187 -0.0069933427
000120 ee 49 1b be 3b b9 ec bd d0 a1 a8 bd 86 41 51 3d
       -0.1516492 -0.115587674 -0.08233988 0.05108788
000130 6d fc 02 be 2e d8 0b be 7a f8 be bd a3 bf a3 bd
       -0.12791605 -0.13656685 -0.09324737 -0.07995536
000140 21 0e 50 be 46 42 1b be a5 37 cc bd 06 2e 25 be
       -0.2031789 -0.15162 -0.09971551 -0.16130838
000150 3f 18 01 be c2 a6 7c bd 51 db f4 bd 7e e4 6d be
       -0.12606905 -0.06168247 -0.11955894 -0.23231694
000160 c5 46 dd bd ad fb f9 bd b3 90 13 be 6b 5b 97 be
       -0.10804514 -0.122062065 -0.14410667 -0.29561934
000170 a0 cc c3 bd c8 b4 24 be 94 c5 23 3e b6 15 ec 3c
       -0.095605135 -0.16084588 0.15993339 0.028818946
000180 f6 df 15 3e f8 78 aa 3e 6b b8 e0 3e 03 b8 8a be
       0.14636216 0.33295417 0.438907 -0.27093515
000190 ae 95 62 3e 17 ca 73 be 0d 7b c8 3e 90 ee ab 3d
       0.22127411 -0.2380756 0.3915638 0.083951116
0001a0 9b ba 52 bd d5 94 7a 3c 1a 63 0d 3b 07 56 ef 3d
       -0.051447492 0.015294273 0.0021573962 0.1168633
0001b0 76 c6 6b be 1b cd 80 3e 28 88 95 3e be b6 e7 3d
       -0.23024926 0.25156483 0.2920544 0.11314152
0001c0 57 14 cc 3e 3c 92 5b 3e 48 38 32 be 31 49 6b bd
       0.39859268 0.21442503 -0.17404282 -0.057442848
0001d0 3a aa 21 3d 0c 2f 9e bd c9 62 ae 3e 89 f8 91 3d
       0.03946898 -0.07723817 0.34059742 0.071274824
0001e0 07 40 9e 3d 0c 1b 48 be 02 88 c9 3d e0 b4 48 3e
       0.07727056 -0.19541568 0.098403946 0.19600248
0001f0 8c 02 38 3d cd 09 3b 3e 6b 40 0e 3e b6 5e ba 3e
       0.044924304 0.18265457 0.13891761 0.36400384
000200 02 22 d1 3e 29 8e 97 be b7 ad 15 3e da e3 f2 bd
       0.40846258 -0.29600647 0.14617048 -0.118598655
000210 88 8e 0e bd a4 a4 d4 3e 91 16 6c 3d 15 d8 db 3b
       -0.034803897 0.4153186 0.05763871 0.0067091086
000220 17 a5 48 be 80 71 63 be aa e0 18 3e 26 37 72 3e
       -0.19594227 -0.22211266 0.14929453 0.2365385
000230 3e 56 81 be 01 82 7e bd ab bb 3d be 2f 82 77 be
       -0.2526111 -0.0621357 -0.18528621 -0.24170755
000240 d0 4a 3c be 29 07 13 3e f3 c8 a6 bd 8a 95 21 be
       -0.18387914 0.143582 -0.08143797 -0.15779701
000250 ff 3c 1d 3e 4a 5a 5c 3c
       0.153553 0.013449261

fc2.bias f4 [10]
000000 0f 0b 7e 3b 35 7d e0 3c b0 8a b1 bd 79 f6 84 3d
       0.0038763916 0.027403453 -0.08669031 0.064923234
000010 96 d6 39 3e e9 36 6b be a3 c7 7f 3e 68 5e 0b 3e
       0.18148264 -0.22970165 0.24978499 0.13610232
000020 79 ae a7 bd c4 08 e9 3d
       -0.08187575 0.11378625

fc3.weight f4 [5, 10]
000000 86 d2 e6 bd c9 90 3d be b6 37 8a be 77 64 3e 3e
       -0.11270623 -0.18512262 -0.2699563 0.18593012
000010 f8 84 5c 3e cd 8c 3e be 81 36 3b be 0f 62 6c be
       0.21535099 -0.18608399 -0.1828251 -0.23084281
000020 6a 25 a5 be db 00 45 3e 52 9d f7 bd 07 fe a8 bd
       -0.32255107 0.19238608 -0.12090553 -0.08251577
000030 f2 37 91 be 19 e7 4d be 9b fb 59 bc e5 b5 3a 3e
       -0.28362995 -0.20107688 -0.013304616 0.1823345
000040 d3 44 25 3d 62 c6 08 3e 1b 7f b4 3d 3e ba 8a 3e
       0.04034884 0.13356927 0.08813306 0.27095217
000050 73 65 07 bf fc ee 83 3e 2c 84 f9 3d c5 8a 37 3e
       -0.52889174 0.25768268 0.12183413 0.1792403
000060 f7 de 2d be 88 da 71 be dd 6c 24 3f fb d9 46 3e
       -0.16979586 -0.2361852 0.6422861 0.1941909
000070 52 f2 c1 3e 92 5d 3a be e4 99 cc 3d 68 a5 87 be
       0.37880188 -0.18199757 0.0999029 -0.26493382
000080 4f 9c da 3d 77 fa a3 3d c7 e9 cc 3d ec 30 4c bd
       0.10674345 0.08006757 0.10005527 -0.049851343
000090 07 0c c3 bd 75 9b c0 3d 85 84 f8 3d af 20 1b 3e
       -0.095237784 0.09404651 0.12134651 0.15149187
0000a0 cb 1a 56 3f 2f c6 b2 3d e0 4f 8c 3d ba 06 72 be
       0.8363463 0.08729207 0.068511724 -0.23635378
0000b0 3d 09 b4 be dc 55 8b 3e 21 d4 16 bf a7 d9 d9 3d
       -0.35163298 0.27213943 -0.58917433 0.10637217
0000c0 85 41 24 3c 4d 10 84 3e
       0.010025387 0.25793687

fc3.bias f4 [5]
000000 31 4d 7c 3e d1 37 90 be 32 c5 5b 3e 5e 9f 54 be
       0.24638821 -0.28167585 0.21461943 -0.20763919
000010 50 a2 7b 3c
       0.015358523

fc4.weight f4 [1, 5]
000000 55 23 88 be 6d ad 87 3d 9c 88 b6 3e d9 bd ba 3e
       -0.26589456 0.06624875 0.356511 0.36472967
000010 d7 54 c2 be
       -0.37955353
