nfl_robustness_training/src/controller_models/double_integrator/di_4layer/natural_symbolic_indices_default_more_data_5hz.pth (torch, 6159 bytes, 7 tensors)

fc1.weight f4 [30, 2]
-0.5491896 0.4466696 -0.1807514 -0.21171373 0.38945538 0.5294307 -0.36637682 -0.84330803
-0.4091472 -0.71043044 -0.6755025 0.44391277 0.37384003 0.28169808 0.0839021 0.45328066
0.8049203 0.4841475 -0.39047334 -0.2795247 -0.23296462 0.2582078 0.16970366 0.7476367
-0.0791619 0.6333487 0.37074152 -0.09477281 -0.36407676 0.2833241 0.039157707 -0.35753644
0.5496956 -0.27512756 -0.49099886 -0.5847469 0.70740634 0.44988063 -0.47676212 0.55182326
0.042108953 -0.8484579 0.35511413 -0.44269386 -0.25704715 0.03689358 -0.6439498 0.017462704
0.66073847 0.27184662 -0.07777619 0.3221984 -0.06186078 -0.22787604 0.2366417 0.010302309
0.35716859 -0.39169675 0.5722112 0.47845852
00000000: b197 0cbf e1b1 e43e e516 39be 7ccb 58be
00000010: b266 c73e c588 073f be95 bbbe 09e3 57bf
00000020: be7b d1be c5de 35bf bbed 2cbf 8948 e33e
00000030: f667 bf3e bb3a 903e ddd4 ab3d 6714 e83e
00000040: 420f 4e3f 2ee2 f73e 1fec c7be dd1d 8fbe
00000050: 478e 6ebe d033 843e ccc6 2d3e 1e65 3f3f
00000060: a21f a2bd 2423 223f d5d1 bd3e 3f18 c2bd
00000070: 4568 babe db0f 913e d563 203d 040f b7be
00000080: dab8 0c3f 85dd 8cbe 3464 fbbe f9b1 15bf
00000090: 9518 353f c156 e63e 2a1a f4be 4a44 0d3f
000000a0: 707a 2c3d 8934 59bf 85d1 b53e c5a8 e2be
000000b0: af9b 83be b91d 173d e5d9 24bf f20d 8f3c
000000c0: 2826 293f 7b2f 8b3e 2049 9fbd 30f7 a43e
000000d0: bb61 7dbd 5658 69be 3452 723e 04cb 283c
000000e0: cdde b63e 7a8c c8be 6f7c 123f 84f8 f43e

fc1.bias f4 [30]
-0.27732044 0.35008886 0.13890433 0.69003886 0.6620842 0.48554882 0.5046326 0.2626002
-0.25001615 -0.40017682 0.7630312 0.36491492 -0.5434271 0.3190592 -0.21899165 -0.64298135
0.80514306 0.21933842 0.22284736 -0.011258266 -0.45509568 0.7908669 -0.24453281 -0.6926041
0.7186264 -0.30331132 -0.3784192 0.57711273 0.49340123 -0.45270264
00000000: f2fc 8dbe d93e b33e f03c 0e3e 63a6 303f
00000010: 5a7e 293f db99 f83e 9a2f 013f 8973 863e
00000020: 1e02 80be fae3 ccbe 0356 433f 21d6 ba3e
00000030: 0a1e 0bbf ba5b a33e 593f 60be 6d9a 24bf
00000040: db1d 4e3f 409a 603e 1932 643e 9774 38bc
00000050: 4d02 e9be 4176 4a3f cf66 7abe 814e 31bf
00000060: e6f7 373f 9f4b 9bbe 29c0 c1be a9bd 133f
00000070: 169f fc3e a4c8 e7be

fc2.weight f4 [20, 30]
-0.022154145 -0.10067707 0.1290753 -0.17237799 -0.11480867 -0.07262894 -0.12796117 0.116159715
-0.11907985 -0.03809791 0.0101332525 -0.042719357 0.008194936 -0.044582613 -0.1701557 0.15180692
-0.08472242 0.046355247 0.10528211 0.058187775 -0.14718254 -0.018711073 0.0324005 0.08544871
0.11326029 0.15014273 -0.005570895 0.14750667 -0.054573767 -0.10530397 -0.065497465 0.21093358
0.20788603 0.15251848 -0.012084026 -0.14133424 0.11634988 0.18526016 -0.054274555 0.14580303
-0.05654316 0.06245693 -0.11394729 0.13173072 -0.08465276 0.16635425 0.29260525 0.06216586
0.038895965 0.16181251 0.1957074 0.300393 -0.14124517 -0.007925274 0.09170284 -0.04208859
-0.017496947 0.13535076 0.30083495 -0.08739107 -0.1529008 0.12731647 -0.2352481 0.1437139
0.020319281 -0.29137158 -0.021901809 -0.2137821 -0.04576083 0.09738739 -0.0984405 -0.11953957
0.053240437 -0.038607206 -0.11793692 -0.07428446 0.21577117 0.0016312778 -0.19543733 -0.11981433
0.4155832 0.13806862 -0.1112468 0.18223506 -0.15511803 -0.17763738 -0.12962423 0.12980464
-0.009961672 -0.18613389 -0.057119835 -0.112867594 0.17063381 -0.006260928 -0.054820385 0.16678035
-0.17378892 -0.07593596 0.17770237 -0.13546222 0.0645459 -0.1271662 -0.149738 -0.07226455
-0.13805412 -0.05418961 -0.10230707 -0.08295874 -0.058369122 -0.0793246 -0.09419394 -0.0069536916
0.02818573 -0.04486429 -0.09779226 0.14583738 -0.14456657 0.14877619 0.039555702 -0.04898584
-0.15983175 0.03532119 -0.15230967 0.116308086 -0.0013132505 -0.16108501 0.1767434 0.030511053
0.063425414 -0.009554785 0.15832926 -0.089188464 -0.12758076 0.10429073 -0.030969154 0.029525165
-0.14285995 0.07538997 -0.17874904 -0.0145429345 -0.07505105 -0.16522247 0.051145293 -0.044414937
0.03238753 -0.1562725 0.15117712 -0.17946042 -0.10320514 -0.1135636 -0.14930613 0.036171466
-0.08095009 0.06255363 0.04035535 0.15135792 -0.0644251 -0.07276988 -0.16677335 -0.022879906
0.16758436 -0.13221924 -0.13241579 0.09753848 0.073162824 0.13887382 -0.13746674 -0.07468451
0.15783136 -0.11459894 -0.12751223 -0.078698255 -0.17085046 -0.062450904 -0.0012692171 0.051144034
0.10787535 -0.0830116 -0.107306376 -0.14036456 -0.005867328 -0.038556382 -0.15332277 0.10159872
0.061548397 -0.09813611 -0.14006661 -0.11241861 -0.095651574 -0.122577906 -0.11963288 0.12640676
-0.14341216 0.077161185 -0.13122338 -0.074873015 -0.06339844 -0.010663361 -0.037309706 0.0750342
0.1519685 0.111741684 0.0827648 0.11151697 -0.12063916 -0.10871298 0.15315208 -0.1770637
-0.17073293 0.16572188 0.020603204 0.09375014 -0.12513936 -0.03763583 -0.095633686 -0.1362683
-0.019703371 -0.16904779 0.052661326 0.11347754 -0.08946399 0.13173464 0.11867006 -0.10093446
-0.15438463 -0.0066607543 -0.1542409 -0.16318953 -0.087280236 -0.14357568 -0.07264544 -0.015090443
0.008109314 -0.15763402 0.15036206 0.119985834 -0.12285858 -0.11775092 0.07897337 0.1590078
-0.13036464 0.04496186 -0.25385696 0.051476493 0.29864705 -0.124760374 0.03539895 0.03696854
-0.2670264 -0.029044602 -0.14548711 -0.2056689 -0.16236526 -0.056126367 0.0898263 0.15909564
00000000: 9c7c b5bc c82f cebd 512c 043e db83 30be
00000010: cf20 ebbd 7bbe 94bd 4108 03be 25e5 ed3d
00000020: 23e0 f3bd 8e0c 1cbd f105 263c 7efa 2ebd
00000030: 0e44 063c 429c 36bd 4c3d 2ebe 4673 1b3e
00000040: f382 adbd 00df 3d3d 269e d73d 4e56 6e3d
00000050: 05b7 16be f747 99bc 63b6 043d bcff ae3d
00000060: 03f5 e73d 04bf 193e 0e8c b6bb fd0b 173e
00000070: be88 5fbd 9ca9 d7bd 8923 86bd f9fe 573e
00000080: 13e0 543e ce2d 1c3e 14fc 45bc ecb9 10be
00000090: d948 ee3d d7b4 3d3e ff4e 5ebd 644d 153e
000000a0: cd99 67bd d6d2 7f3d 325d e9bd 6be4 063e
000000b0: 6d5e adbd c558 2a3e 5bd0 953e a1a1 7e3d
000000c0: 6051 1f3d 2eb2 253e 8567 483e 1ccd 993e
000000d0: 93a2 10be 02d9 01bc b3ce bb3d 1665 2cbd
000000e0: c255 8fbc 6499 0a3e 0a07 9a3e 17fa b2bd
000000f0: 0792 1cbe 405f 023e e1e4 70be bd29 133e
00000100: 9f74 a63c a82e 95be 6c6b b3bc b2e9 5abe
00000110: b56f 3bbd 0a73 c73d 2c9b c9bd 29d1 f4bd
00000120: a512 5a3d 9722 1ebd e988 f1bd 7322 98bd
00000130: 1ef3 5c3e 9ad0 d53a b920 48be 3761 f5bd
00000140: 52c7 d43e dc61 0d3e 5dd5 e3bd d49b 3a3e
00000150: 43d7 1ebe 93e6 35be 37bc 04be 82eb 043e
00000160: 4836 23bc e299 3ebe 7df6 69bd 2027 e7bd
00000170: a1ba 2e3e 7928 cdbb 578b 60bd 78c8 2a3e
00000180: b9f5 31be 5084 9bbd 9cf7 353e 9cb6 0abe
00000190: a430 843d db37 02be eb54 19be 70ff 93bd
000001a0: 0f5e 0dbe edf5 5dbd 5e86 d1bd 46e6 a9bd
000001b0: 7614 6fbd f074 a2bd c1e8 c0bd cbdb e3bb
000001c0: c3e5 e63c 9ec3 37bd 4f47 c8bd 6556 153e
000001d0: 4209 14be c958 183e 2905 223d 60a5 48bd
000001e0: efaa 23be f4ac 103d 11f7 1bbe ef32 ee3d
000001f0: 6021 acba 78f3 24be 39fc 343e 51f2 f93c
00000200: 2fe5 813d ac8b 1cbc 1121 223e 71a8 b6bd
00000210: 88a4 02be 6196 d53d 06b3 fdbc c2de f13c
00000220: e149 12be 0e66 9a3d fd09 37be 7d45 6ebc
00000230: 5db4 99bd 1430 29be ba7d 513d 70ec 35bd
00000240: c9a8 043d e605 20be 2dce 1a3e 79c4 37be
00000250: 375d d3bd 0894 e8bd b5e3 18be 8828 143d
00000260: 29c9 a5bd 1e1c 803d a74b 253d 92fd 1a3e
00000270: 4ff1 83bd 6008 95bd a2c6 2abe a46e bbbc
00000280: 3c9b 2b3e 7b64 07be 0198 07be 41c2 c73d
00000290: 64d6 953d f034 0e3e 15c4 0cbe 31f4 98bd
000002a0: 8b9e 213e d9b2 eabd 9192 02be 8d2c a1bd
000002b0: 6cf3 2ebe 85cc 7fbd dc5b a6ba 687c 513d
000002c0: c0ed dc3d fc01 aabd 72c3 dbbd babb 0fbe
000002d0: b742 c0bb 4ced 1dbd a500 1dbe fd12 d03d
000002e0: 2c1a 7c3d 96fb c8bd 9f6d 0fbe ba3b e6bd
000002f0: f9e4 c3bd 200a fbbd 1502 f5bd c670 013e
00000300: a3da 12be af06 9e3d 6c5f 06be 0657 99bd
00000310: 0bd7 81bd 61b5 2ebc 10d2 18bd 88ab 993d
00000320: a19d 1b3e d3d8 e43d 9780 a93d 0263 e43d
00000330: aa11 f7bd e9a4 debd e6d3 1c3e 3050 35be
00000340: 9dd4 2ebe ffb2 293e 0dc8 a83c 1300 c03d
00000350: 8824 00be 0728 1abd 98db c3bd eb89 0bbe
00000360: f768 a1bc dd1a 2dbe 67b3 573d ea66 e83d
00000370: e538 b7bd 72e5 063e 4a09 f33d bab6 cebd
00000380: 0117 1ebe 7542 dabb 54f1 1dbe 281b 27be
00000390: fbbf b2bd 8105 13be 22c7 94bd e83d 77bc
000003a0: eedc 043c d06a 21be 83f8 193e 22bb f53d
000003b0: 479d fbbd 6527 f1bd cabc a13d f1d2 223e
000003c0: 4f7e 05be ed29 383d 8af9 81be 04d9 523d
000003d0: 44e8 983e 5e82 ffbd 7dfe 103d 536c 173d
000003e0: afb7 88be f2ee edbc 93fa 14be de9a 52be
000003f0: 1443 26be c3e4 65bd daf6 b73d f8e9 223e

fc2.bias f4 [20]
0.016957248 0.12562531 0.16528699 0.117584795 -0.014239232 0.02799012 -0.06447753 0.009283076
0.053170916 0.065107614 0.06883631 -0.058582954 0.12369849 0.14984512 -0.17597432 -0.05243358
-0.10734196 -0.18070702 -0.01861336 0.07653869
00000000: ede9 8a3c eca3 003e fe40 293e 4cd0 f03d
00000010: ab4b 69bc 894b e53c cc0c 84bd 0b18 183c
00000020: bfc9 593d 2457 853d 0dfa 8c3d aef4 6fbd
00000030: a255 fd3d 0071 193e 9d32 34be 98c4 56bd
00000040: 1ad6 dbbd 430b 39be 0c7b 98bc 51c0 9c3d

fc3.weight f4 [10, 20]
-0.056168526 -0.16888611 -0.120826215 -0.098755844 -0.18518792 0.21264645 0.20232128 0.15484248
-0.13664706 -0.1806684 -0.02552574 -0.09184541 -0.14428996 0.19508477 0.16141713 -0.0016299349
-0.039010346 0.18461128 -0.07353792 -0.20456159 0.06377681 0.07195962 0.11141818 0.16238074
0.008770119 0.1124353 0.005232014 0.07288272 0.06348393 -0.12691872 0.06878004 0.10395483
0.029664617 -0.096017286 -0.22717813 0.07084279 -0.10046109 -0.011139092 0.19948527 -0.086690016
0.07818884 0.14558639 -0.067359895 -0.16244048 0.056536805 0.15940085 -0.22347376 0.10694726
0.06170679 -0.18648916 -0.081553325 -0.15629508 0.12032596 0.10384731 -0.2260908 -0.07414766
0.15728934 -0.00912891 -0.07855648 -0.19911121 -0.078954145 0.20727675 0.20483011 -0.08162486
-0.07194352 -0.09081461 -0.127823 -0.13496265 0.22240333 0.022640014 -0.14791815 0.21273306
-0.055207 0.16663232 -0.26816016 -0.09915086 0.0913183 0.019099535 0.07452172 0.33672047
0.1657808 -0.059486195 0.09623979 0.14226907 -0.16787924 -0.1157426 -0.015974438 0.01820504
0.10985096 0.09624026 -0.087050915 0.0018101295 -0.15169007 0.13117728 0.056797974 -0.08007526
-0.27400777 0.0858159 -0.013407119 0.22398832 -0.07975965 0.31890944 -0.26255462 0.00023647684
0.12568401 0.17688127 -0.028695298 0.16400401 -0.27510145 -0.09402717 0.3908921 -0.088098474
0.15069737 -0.11317832 0.20352367 -0.13213389 -0.08638148 0.0050601363 0.19341354 0.14488259
-0.050740615 -0.13078308 0.023324993 0.066376366 0.075529344 -0.14856209 0.15094462 -0.041936137
0.03354672 0.2207974 0.07117767 -0.15651654 -0.0483939 0.03947312 -0.033550344 0.006933654
-0.050159384 -0.21126989 -0.037847746 -0.042525236 0.16850086 0.1210557 0.118218526 -0.12870115
0.020012956 -0.12091282 -0.08789402 0.052539576 -0.054399885 -0.115013845 -0.087477654 0.057304338
0.15170896 0.37450862 -0.089682095 -0.18823051 0.034787398 -0.06945185 0.12454441 0.1437612
-0.13475248 0.2918561 -0.21930598 -0.11705959 0.08772444 -0.0045408243 -0.19470158 0.02148277
0.0043537663 0.03849045 0.103831105 -0.06076594 0.15509099 -0.42477936 0.18226631 -0.01337929
-0.15958261 0.046579774 0.01868794 0.007764938 -0.16841294 -0.16675584 -0.057767373 -0.025513088
0.18967098 -0.058807015 0.1392228 -0.07973329 -0.076380424 -0.11337589 -0.08519799 -0.13296326
0.18433091 0.20900662 0.029946493 -0.14413367 0.14135395 -0.07524841 -0.11937357 -0.107946366
00000000: f810 66bd 7bf0 2cbe bc73 f7bd 8140 cabd
00000010: e7a1 3dbe febf 593e 4f2d 4f3e 078f 1e3e
00000020: 35ed 0bbe 2301 39be 5b1b d1bc 7219 bcbd
00000030: bfc0 13be 4dc4 473e 884a 253e 8aa3 d5ba
00000040: 50c9 1fbd bd0a 3d3e 0d9b 96bd 9878 51be
00000050: 6b9d 823d 915f 933d 372f e43d 2347 263e
00000060: 8cb0 0f3c 7b44 e63d 5171 ab3b 8943 953d
00000070: dd03 823d fbf6 01be 8ddc 8c3d 45e6 d43d
00000080: 3603 f33c b6a4 c4bd 62a1 68be 0616 913d
00000090: 8bbe cdbd bd80 36bc de45 4c3e 898a b1bd
000000a0: 7821 a03d 9914 153e fcf3 89bd cc56 26be
000000b0: 2393 673d fa39 233e 4ed6 64be 2a07 db3d
000000c0: 42c0 7c3d 04f7 3ebe 6e05 a7bd d10b 20be
000000d0: 756d f63d e6ad d43d 5984 67be bada 97bd
000000e0: 7510 213e 6c91 15bc 38e2 a0bd cfe3 4bbe
000000f0: b6b2 a1bd 5b40 543e fcbe 513e ef2a a7bd
00000100: 2057 93bd 03fd b9bd 08e4 02be a633 0abe
00000110: b3bd 633e 8d77 b93c db77 17be b2d6 593e
00000120: bc20 62bd aaa1 2a3e 4a4c 89be 9b0f cbbd
00000130: 1705 bb3d a176 9c3c d89e 983d a066 ac3e
00000140: 71c2 293e cca7 73bd 5e19 c53d fcae 113e
00000150: 89e8 2bbe 750a edbd d3dc 82bc bc22 953c
00000160: 8af9 e03d 9d19 c53d c047 b2bd de41 ed3a
00000170: a454 1bbe 5653 063e fea4 683d 7ffe a3bd
00000180: bf4a 8cbe 3fc0 af3d 88a9 5bbc 325d 653e
00000190: 0759 a3bd 1948 a33e 8f6d 86be c5f6 7739
000001a0: 4fb3 003e 5d20 353e 6712 ebbc abf0 273e
000001b0: 19da 8cbe 5191 c0bd 0223 c83e f96c b4bd
000001c0: 6950 1a3e 09ca e7bd 8268 503e 1b4e 07be
000001d0: c6e8 b0bd 80cf a53b 330e 463e 1a5c 143e
000001e0: 64d5 4fbd 00ec 05be 0e14 bf3c 55f0 873d
000001f0: 21af 9a3d a920 18be 3a91 1a3e 3ac5 2bbd
00000200: 4968 093d b718 623e 99c5 913d df45 20be
00000210: af38 46bd 91ae 213d 166c 09bd b533 e33b
00000220: ed73 4dbd 2257 58be 3d06 1bbd f12e 2ebd
00000230: 7d8b 2c3e 0dec f73d 8e1c f23d 3cca 03be
00000240: 36f2 a33c 24a1 f7bd c801 b4bd bd33 573d
00000250: 6ad2 5ebd 618c ebbd 7c27 b3bd f4b7 6a3d
00000260: 9859 1b3e 98bf bf3e 3fab b7bd 80bf 40be
00000270: 3b7d 0e3d c63c 8ebd 2411 ff3d 2336 133e
00000280: 8efc 09be 2a6e 953e bf91 60be f0bc efbd
00000290: dfa8 b33d 32cb 94bb da5f 47be a2fc af3c
000002a0: 0aaa 8e3b 29a8 1d3d 67a5 d43d b5e5 78bd
000002b0: 2cd0 1e3e ae7c d9be 05a4 3a3e cf34 5bbc
000002c0: a069 23be 6fca 3e3d 7317 993c 0571 fe3b
000002d0: 7174 2cbe 0bc2 2abe 7b9d 6cbd d300 d1bc
000002e0: 1c39 423e a0df 70bd 6c90 0e3e 354b a3bd
000002f0: 576d 9cbd 9e31 e8bd 497c aebd 8527 08be
00000300: 3ec1 3c3e d505 563e 5952 f53c c797 13be
00000310: 17bf 103e d71b 9abd 217a f4bd fc12 ddbd

fc3.bias f4 [10]
-0.21878059 -0.14213665 -0.12706679 0.03216552 0.14195807 0.18924451 -0.124866225 -0.062238123
-0.08995583 0.03613133
00000000: 0508 60be 458c 11be cc1d 02be febf 033d
00000010: 755d 113e 50c9 413e ddb9 ffbd 67ed 7ebd
00000020: c33a b8bd 72fe 133d

fc4.weight f4 [1, 10]
-0.24079978 -0.11280831 -0.1813373 0.45650187 0.29904133 -0.2220572 0.015462598 0.20218536
-0.16071671 0.13154739
00000000: 3894 76be 0b08 e7bd 7cb0 39be 9dba e93e
00000010: f21b 993e f662 63be d656 7d3c ae09 4f3e
00000020: ec92 24be 5cb4 063e
