nfl_robustness_training/src/controller_models/double_integrator/di_4layer/robust-constraint_expanded.pth (torch, 3535 bytes, 7 tensors)

fc1.weight f4 [15, 2]
000000 24 c5 90 3e 41 c7 a7 bd 5c c9 be 3e 3c 44 9a bd
       0.28275406 -0.081923015 0.37263 -0.07532546
000010 ce 69 e9 3e 59 cb b4 3e cb 92 7c be 45 af 2c bf
       0.45588535 0.35311392 -0.24665372 -0.6745494
000020 97 03 4a 3e 1c 4e b0 be 0f 84 76 3e e2 69 af 3d
       0.19727932 -0.34434593 0.24073814 0.085651174
000030 be 8f 15 3e ee 6a 20 3f 6a bc b0 3c 3c 00 86 3e
       0.14605615 0.6266316 0.021574218 0.26172054
000040 d3 21 b1 3e 2c 21 38 bf 1e 2e 8b be ee 16 2e 3f
       0.34596118 -0.71925616 -0.27183622 0.6800374
000050 ea 4d 31 bf 60 b6 44 bd 21 88 65 bd 13 66 00 3f
       -0.6925951 -0.04802549 -0.056038026 0.5015575
000060 09 de 25 bd ff 11 6e 3e 88 0e 2f be c6 0a c0 be
       -0.040494952 0.23249052 -0.17095387 -0.3750822
000070 8c 40 f6 be fb e0 7d be
       -0.4809612 -0.24792854

fc1.bias f4 [15]
000000 41 db 46 bf 73 7a 7e be 63 99 7c 3e a4 4b e7 3e
       -0.77678305 -0.24851398 0.24667887 0.45174897
000010 16 4a b9 3d 7c 8f a6 3d e1 b7 20 3f 77 71 97 be
       0.09047334 0.08132836 0.62780577 -0.29578754
000020 9e fa c6 3d e4 78 c6 be b3 5c 63 be 83 bb 27 bf
       0.0971577 -0.38764107 -0.2220333 -0.65520495
000030 7f 7a e2 3e 1e 74 bf 3e 15 b0 66 bb
       0.44234082 0.37393278 -0.0035200168

fc2.weight f4 [10, 15]
000000 13 d8 b6 bd ed af 21 3e ec 7a 1c 3e 6f 3b 9a bd
       -0.08927932 0.15789767 0.15281266 -0.07530867
000010 10 fb 6a bc c5 cf 8d 3e 23 23 db 3e 4d 8b 5a 3e
       -0.0143420845 0.27697578 0.42800245 0.21342202
000020 40 58 10 3e a1 ec 80 bd 06 53 3c bc aa ec 56 bd
       0.14096165 -0.062951334 -0.011494404 -0.052471794
000030 43 34 81 3e 0f 32 7f bd 52 bf cc 3d e3 9e ca bd
       0.25235185 -0.0623036 0.09997429 -0.098935865
000040 20 e7 69 be ef c5 39 3e a9 4f 62 3e 8b 6e 13 3e
       -0.22842073 0.18141912 0.221007 0.14397638
000050 da 9f ba 3d 71 08 c6 3e eb 68 62 be 4c a7 1a be
       0.091125205 0.38678315 -0.22110336 -0.15102881
000060 02 ee 00 3e ca da 70 be a4 57 66 3e 47 77 86 bb
       0.12590793 -0.23520961 0.2249437 -0.0041035744
000070 9c a0 58 3d 39 dc d9 bd 3f 5d 3a 3d 6e ed cc 3c
       0.052887544 -0.10637707 0.045499083 0.025015559
000080 68 2a 77 be 3c 2b 63 bd 9f 20 27 be ee c6 60 3e
       -0.2413727 -0.055461153 -0.16321038 0.21950886
000090 5c d1 01 bd b8 a1 83 be 9c 12 80 3d 6b a3 e5 3d
       -0.0316938 -0.2570932 0.062535495 0.1121281
0000a0 cc b7 ec bd 57 6b c6 bc 1a 9a e4 3d 3d 82 24 be
       -0.11558494 -0.024221106 0.11162205 -0.16065307
0000b0 8e c3 0b be a8 e2 c2 be f7 e1 5c be 3d b9 af 3e
       -0.13648817 -0.3806355 -0.21570574 0.34321013
0000c0 80 1e 3e bd 78 96 c1 bb 3b ca 6b 3e a6 48 98 3e
       -0.046415806 -0.00590783 0.23026364 0.29742926
0000d0 26 09 34 3d c1 e7 95 be 39 f4 a9 bd b6 3b c1 bd
       0.043954037 -0.29278377 -0.08298535 -0.09435217
0000e0 ac 68 2a bd 5b 06 6f 3c 0a 5d 48 3e 9e 00 a3 bd
       -0.04160373 0.014588918 0.19566742 -0.07959102
0000f0 f8 ee 88 be 84 70 67 3e 42 ef bc 3e 40 c4 b7 be
       -0.2674482 0.22601515 0.3690129 -0.35891914
000100 ce b1 d4 3c ee 2e d2 3e 55 95 46 3d cf 0a b8 bd
       0.02596369 0.4105143 0.048482258 -0.089864366
000110 90 e0 de 3c e5 79 24 be c8 55 47 bd 98 47 1c bd
       0.02720669 -0.16062124 -0.04866579 -0.038154215
000120 f6 18 84 3e 0b f7 35 bd 64 b6 86 3a 47 9c 41 3e
       0.25800294 -0.04442505 0.0010277745 0.18907271
000130 b1 96 eb 3d 85 ed 65 be 77 2a 46 3e 0d 5b 2e 3e
       0.115033515 -0.22453888 0.19352137 0.1702692
000140 f8 88 3d be 54 8d bc bd 9f f4 33 3e 9b 82 80 be
       -0.1850928 -0.09206644 0.17573784 -0.25099644
000150 dd bb 67 be 45 32 33 be 5b c5 a4 3d 13 f1 d7 bd
       -0.22630258 -0.17499645 0.08045455 -0.10544028
000160 7d cc 6b be b6 f9 cc 3d 82 37 27 3f f6 71 1a 3d
       -0.23027225 0.10008566 0.65319073 0.037706338
000170 da f0 74 be 40 a2 88 3e 2e 26 a8 bc 31 5f b4 be
       -0.23920003 0.26686287 -0.020526018 -0.35228875
000180 a0 9e 60 3e ef b0 2c 3e b5 29 91 3d 94 d7 34 bb
       0.2193551 0.1686437 0.07088033 -0.0027594315
000190 5d 63 3a 3e aa 3a 71 be 3b 42 d8 3e 58 34 80 3e
       0.18201967 -0.23557535 0.4223803 0.25039935
0001a0 47 5d b4 bc ac d8 62 3d c1 8a 2a bd 3c 33 5f be
       -0.022017134 0.055382416 -0.041636232 -0.21796888
0001b0 69 58 14 bb c9 35 b1 bd 06 d5 61 be 2b a8 40 be
       -0.0022635704 -0.08652837 -0.22053918 -0.18814151
0001c0 77 9c b8 3b bf 1c 75 3e 08 53 bd 3d 84 e9 2f be
       0.0056338864 0.23936747 0.092443526 -0.17178923
0001d0 c8 5d 36 3e 00 9f ad 3c 20 2d 81 be bc aa 48 3c
       0.17809212 0.021193981 -0.2522974 0.0122477375
0001e0 00 ba 29 3e 4d 77 1b be e6 a4 42 bc f4 b9 03 be
       0.1657486 -0.15182228 -0.011880135 -0.12863904
0001f0 57 7a 50 be af 3b 16 be 12 67 d4 3c b7 e8 2a 3e
       -0.20359169 -0.14671205 0.025928054 0.16690336
000200 c3 85 44 bd 3e c6 6d be fa d8 10 bb ad f3 65 be
       -0.047979128 -0.23220155 -0.0022101984 -0.22456236
000210 6e 7f 78 3c 64 07 44 3e 11 ae e1 3d 60 0a 99 3e
       0.0151671 0.19143444 0.11019529 0.29890728
000220 ab d5 da 3d 9e c5 a7 3d eb 7d 4f 3e 9b fe a4 bc
       0.10685285 0.08191989 0.20262878 -0.020140937
000230 5e f8 c6 bd c6 c7 a6 be 8d 77 a3 3d b1 a4 d1 3e
       -0.09715341 -0.3257429 0.07981787 0.40945962
000240 f9 a2 eb 3d 8c c1 c7 3d 0f 5b 60 be 95 a5 7a 3e
       0.11505694 0.09753713 -0.21909736 0.24477227
000250 09 95 f4 3d 44 8b a6 3c
       0.11942489 0.020330079

fc2.bias f4 [10]
000000 f5 f7 89 bd 0b 7d 1f 3e 90 50 0f be 9a 79 91 3e
       -0.06736747 0.15575044 -0.13995576 0.28413087
000010 26 e3 74 3e 53 74 2e be 21 b1 e6 bc d5 ae db bd
       0.23914775 -0.17036562 -0.028160634 -0.10726706
000020 85 5e 62 be 09 22 83 3d
       -0.22106369 0.06402976

fc3.weight f4 [5, 10]
000000 d5 cc a4 3e b3 cb 8f 3e ed b3 d0 bd 7b 4e 8a 3e
       0.32187524 0.28085098 -0.10190568 0.27013
000010 15 97 21 bd 01 b3 82 be 1b 3f d4 bd 33 c8 b2 3c
       -0.039450724 -0.25527194 -0.10363599 0.021823978
000020 36 37 24 be 55 03 da be 67 03 51 3e 46 3c 47 3e
       -0.16036686 -0.42580667 0.20411454 0.19456586
000030 ca 73 c9 bd e6 e5 b8 3e 26 9e c0 3e 23 75 8d 3c
       -0.09836538 0.361129 0.37620658 0.01726777
000040 bf e1 6f be 86 b8 95 3e 40 07 69 3e 3c 98 61 be
       -0.23425959 0.29242343 0.22756672 -0.22030729
000050 6b 5c b9 be 1f ac 89 3d 96 2e 8d 3e 6d 03 bc 3e
       -0.36203322 0.067222826 0.27574605 0.36721364
000060 35 50 b7 be 87 c8 4e 3c 68 ca 8a 3e 96 33 ab 3d
       -0.3580338 0.012621052 0.2710755 0.083594486
000070 7a 8f 92 bc 76 b1 21 be 59 c0 73 bd 1a e9 32 bb
       -0.01789068 -0.15790352 -0.05950961 -0.0027299584
000080 48 6a d9 bd 24 39 c4 be f3 01 7e be 9e 96 18 be
       -0.10615975 -0.38324845 -0.24805431 -0.14901206
000090 5f 7a 8a 3e 5c e2 88 be ac fe 99 be 24 10 03 3f
       0.27046487 -0.26735198 -0.30077112 0.51196504
0000a0 93 dc 75 3e 27 b2 a1 3e 08 41 0d 3e f9 82 12 3e
       0.24009924 0.31581232 0.13794339 0.14307775
0000b0 4c fc d3 bd bf bb 5c be 9d 8b 5c bd 85 a0 a0 3d
       -0.10350856 -0.21555994 -0.053844083 0.07843117
0000c0 f1 a9 97 be eb 6f ca be
       -0.29621843 -0.39538512

fc3.bias f4 [5]
000000 1f 0f 98 3e df b4 0b 3e 71 02 f9 3e 2e f1 ba 3e
       0.29699036 0.13643216 0.48634675 0.3651213
000010 0a ea 8f 3e
       0.28108245

fc4.weight f4 [1, 5]
000000 4e 39 8c be 70 41 a8 be b1 5b 1c 3f 31 c0 19 3f
       -0.2738747 -0.32862425 0.6107741 0.60058886
000010 88 ad 17 bf
       -0.5924916
