nfl_robustness_training/src/controller_models/double_integrator/daggers/di_4layer/constraint_dagger_5.pth (torch, 3727 bytes, 7 tensors)

fc1.weight f4 [15, 2]
0	0x3f225af3	0.6342003
1	0xbdc04e63	-0.09389951
2	0xbe63ff6c	-0.22265404
3	0x3ef6a1ce	0.48170322
4	0x3e223f80	0.15844536
5	0x3f207272	0.6267463
6	0x3e55a7e3	0.20864825
7	0x3e83ff7d	0.2578086
8	0xbda1358b	-0.07871541
9	0xbef9d658	-0.48796344
10	0x3f1da6d7	0.615827
11	0xbf24c981	-0.6436997
12	0x3ed3b939	0.4135225
13	0xbe974b35	-0.29549566
14	0x3e23fa6f	0.16013502
15	0x3d569490	0.052387774
16	0x3f15fab6	0.5858568
17	0xbeba4204	-0.3637849
18	0x3ed8927f	0.42299268
19	0xbeb4b1cd	-0.352919
20	0xbf037f97	-0.5136656
21	0x3e2f8eef	0.17144369
22	0x3e013a03	0.12619786
23	0xbed9a9fe	-0.42512506
24	0x3e1c46a0	0.15261316
25	0x3e36a6ba	0.17837039
26	0xbf0c028f	-0.54691404
27	0x3d7cfffa	0.061767556
28	0x3ecde1cb	0.4021133
29	0xbe6a6368	-0.22889483

fc1.bias f4 [15]
0	0xbf23d998	-0.64003897
1	0xbe732e09	-0.2374803
2	0x3ecfad80	0.40562057
3	0x3a578b0d	0.00082223193
4	0x3f1f3c4e	0.6220139
5	0xbe8f402e	-0.27978653
6	0xbe395587	-0.18099032
7	0xbf0620cc	-0.52393794
8	0xbdeaa2a1	-0.114568
9	0x3e0fbb36	0.14036259
10	0x3df21e3d	0.11822174
11	0xbedff6ba	-0.43742925
12	0x3e4dfddf	0.20116375
13	0xbebb4d76	-0.36582536
14	0xbc3fe8e7	-0.011713243

fc2.weight f4 [10, 15]
0	0x3e1e22c1	0.15442945
1	0xbe3d0083	-0.18457226
2	0xbe7f2b1d	-0.2491879
3	0xbc12a40a	-0.008950243
4	0x3e4baa35	0.19889148
5	0xbd1c3f62	-0.038146384
6	0xbe5a3e76	-0.2131289
7	0xbdb8dbca	-0.090262964
8	0x3e7cf575	0.2470301
9	0xbe0b2fa9	-0.135924
10	0xbe71e83f	-0.23623751
11	0xbe534a98	-0.20633924
12	0xbdd26384	-0.10272887
13	0x3e5a6ecb	0.21331327
14	0x3e6405a7	0.22267781
15	0x3d854573	0.06507387
16	0xbe6a11af	-0.22858308
17	0xbe780798	-0.24221647
18	0xbe7a4992	-0.24442127
19	0x3e22336a	0.15839925
20	0xbc098b19	-0.00839498
21	0xbe0da01a	-0.13830605
22	0x3d75b59b	0.059987646
23	0xbc9af273	-0.018914437
24	0x3e38ebab	0.1805865
25	0x3e497d66	0.19676742
26	0x3d4ed67e	0.050497524
27	0xbe2cbd0c	-0.1686899
28	0xbe7cbadd	-0.24680658
29	0xbe444e02	-0.19170383
30	0xbe84ac24	-0.25912583
31	0xbe475e6d	-0.19469614
32	0x3d4aea12	0.049539633
33	0x3e8203ea	0.2539361
34	0xbd9d689d	-0.07685969
35	0xbc17fa5f	-0.009276002
36	0xbe0aae75	-0.13543113
37	0xbbab816e	-0.005233935
38	0x3e0ee78d	0.13955517
39	0x3d8c9ff3	0.068664454
40	0xbe0f893a	-0.14017192
41	0xbb72bc36	-0.0037038452
42	0x3dc8e8a1	0.098099954
43	0xbe061bcf	-0.13096546
44	0x3dcf4cb7	0.10122054
45	0x3ccfbc42	0.025358323
46	0xbe47dbda	-0.1951746
47	0xbdfb9010	-0.12283337
48	0x3d1fbd82	0.038999088
49	0x3a8f08bc	0.0010912637
50	0xbe320d60	-0.17387915
51	0xbe1dd7a4	-0.15414292
52	0xbe641550	-0.22273755
53	0xbe0b6496	-0.13612589
54	0x3e725d29	0.2366835
55	0x3ded795d	0.11595414
56	0x3e352b46	0.17692289
57	0x3e111441	0.14167883
58	0xbdb9679f	-0.09052967
59	0x3de9f3f1	0.11423481
60	0xbda9b5a4	-0.08286598
61	0xbe6bbcfb	-0.23021309
62	0x3c2f64a8	0.010705151
63	0x3d852e3e	0.065029606
64	0x3cbdd5df	0.02317327
65	0xbe6db9ea	-0.23215452
66	0xbe7af3a3	-0.24507003
67	0x3e7973b1	0.24360539
68	0xbe35524b	-0.17707174
69	0x3e527d0d	0.20555516
70	0x3bc79a13	0.006091365
71	0x3e7f8945	0.24954708
72	0x3e52de98	0.20592725
73	0x3c84c76e	0.016208377
74	0xbe3de1fc	-0.18543237
75	0x3c5e457c	0.013566371
76	0xbc8056c7	-0.015666379
77	0xbd8c1378	-0.06839651
78	0xbb7dc98e	-0.0038724872
79	0xbe66dd42	-0.2254534
80	0x3e0335a2	0.12813428
81	0xbe826fd0	-0.2547593
82	0xbe0e240d	-0.1388094
83	0xbd0388c8	-0.032112867
84	0x3dceeb81	0.101035126
85	0xbdedc325	-0.116094865
86	0x3e1458f9	0.14487065
87	0x396bdd5c	0.00022493809
88	0x3d5f4b23	0.054515015
89	0xbcbb2700	-0.022845745
90	0x3cfb7a2c	0.030697905
91	0xbe04bae0	-0.12961912
92	0x3e3d371f	0.18478058
93	0x3e2d50d7	0.16925369
94	0xbd53b3fc	-0.05168532
95	0x3e09c5ef	0.13454412
96	0x3d8625df	0.06550192
97	0x3d9b9cd8	0.07598275
98	0xbe40290e	-0.18765661
99	0x3d2948f0	0.041329324
100	0x3e4d673c	0.20058912
101	0xbe7216c1	-0.23641492
102	0xbe4a4597	-0.19753109
103	0xbe0a6309	-0.13514341
104	0xbcefb21d	-0.029259736
105	0x3e0429f2	0.12906626
106	0x3c29a191	0.010353462
107	0xbe3a0845	-0.18167217
108	0xbe77c002	-0.24194339
109	0xbd58b6c6	-0.05290868
110	0xbdfd140e	-0.12357341
111	0x3d2d49b3	0.042306613
112	0xbdc278f5	-0.09495727
113	0xbd20bbb4	-0.039241508
114	0x3e26a231	0.16272809
115	0x3c92f2ff	0.017938135
116	0x3e7e3c1b	0.24827616
117	0xbe83609b	-0.25659642
118	0xbc95ba77	-0.01827739
119	0xbdd9fb40	-0.10643625
120	0xbb4ef459	-0.0031578748
121	0x3c61f69f	0.013791709
122	0xbe06a964	-0.13150555
123	0x3e26c09a	0.16284409
124	0x3dc33d24	0.09533146
125	0x3d96e105	0.07367138
126	0x3e6bf02d	0.23040839
127	0xbe25d403	-0.16194157
128	0xbe80cf05	-0.25157943
129	0xbe7c429c	-0.24634784
130	0x3e7673f4	0.2406767
131	0x3e48552c	0.1956374
132	0x3e57c827	0.21072446
133	0xbe31af9a	-0.17352143
134	0x3ccc3a4e	0.024930146
135	0x3d13ea62	0.036112197
136	0x3db3f25c	0.08786461
137	0xbd479513	-0.048726153
138	0x3d2fefd4	0.042953327
139	0x3df9e0ba	0.12201066
140	0x3e7f942a	0.24958864
141	0xbe11c9ec	-0.14237183
142	0xbe6984f7	-0.22804628
143	0xbdf25f08	-0.11834532
144	0xbe6ba26d	-0.2301118
145	0xbe33d8a9	-0.17563118
146	0x3e82939a	0.25503236
147	0xbe5314cf	-0.20613407
148	0x3ddb1a83	0.10698416
149	0xbe18be2e	-0.14916298

fc2.bias f4 [10]
0	0x3db162b4	0.08661404
1	0xbe82e9dd	-0.2556905
2	0x3d1f0483	0.038822662
3	0xbe58b01a	-0.21160927
4	0x3e71580c	0.23568743
5	0xbd3505d4	-0.04419501
6	0x3c54108a	0.012943396
7	0xbcacf234	-0.021111585
8	0xbe17b3b4	-0.14814645
9	0xbe6ed17a	-0.23322096

fc3.weight f4 [5, 10]
0	0xbd2dc784	-0.0424266
1	0x3e923a86	0.28560275
2	0xbe992729	-0.2991269
3	0x3e76eea7	0.24114476
4	0xbe0a5325	-0.1350828
5	0xbe29bab9	-0.16575135
6	0x3dcf32dc	0.101171225
7	0xbe523369	-0.20527424
8	0x3d4d62d6	0.050143085
9	0xbe008155	-0.12549336
10	0xbe1827c9	-0.14858927
11	0x3e45ffa7	0.19335805
12	0x3e3e7c4f	0.18602107
13	0x3e27d31c	0.16389126
14	0xbe7a6213	-0.24451475
15	0x3e5f251a	0.21791497
16	0x3e72637e	0.23670766
17	0xbe85590b	-0.26044497
18	0x3d7ba517	0.06143674
19	0x3e8e77db	0.27825817
20	0xbdcde63f	-0.100536816
21	0x3db0140e	0.08597575
22	0x3e5c90c5	0.215396
23	0xbe6efd90	-0.23338914
24	0xbd8effa2	-0.06982352
25	0xbc237486	-0.009976512
26	0xbdb99b19	-0.09062786
27	0x3e0a5be9	0.13511623
28	0x3e8f3a99	0.27974394
29	0x3d72b32b	0.0592529
30	0xbcbe0fe9	-0.023200946
31	0xbd5114c0	-0.05104518
32	0xbdca1a61	-0.098683126
33	0x3d9fc1fe	0.07800673
34	0x3cb317f7	0.021862013
35	0xbe095037	-0.13409506
36	0xbd52cb70	-0.051463544
37	0x3ea005e7	0.31254503
38	0x3e9fba1d	0.3119668
39	0xbc9c54d6	-0.019083422
40	0xbd8acadc	-0.067769736
41	0x3dde6be4	0.10860422
42	0x3de68e09	0.1125756
43	0x3dca155c	0.09867355
44	0x3e9284a9	0.28616837
45	0x3e81b99d	0.25336924
46	0xbe5f3b68	-0.21800005
47	0xbe2ce574	-0.16884404
48	0x3bf04b78	0.0073332153
49	0x3e6e6700	0.23281479

fc3.bias f4 [5]
0	0xbda50567	-0.08057671
1	0xbdac6b55	-0.084189095
2	0xbe5ad4f2	-0.21370295
3	0xbe4e1021	-0.2012334
4	0xbe3a0a20	-0.18167925

fc4.weight f4 [1, 5]
0	0xbe11b6d7	-0.14229904
1	0x3e5a391b	0.21310847
2	0x3c2f6609	0.010705479
3	0x3dc89786	0.09794526
4	0x3e3c269f	0.18374108
