nfl_robustness_training/src/controller_models/double_integrator/daggers/di_4layer/constraint_dagger_3.pth (torch, 3727 bytes, 7 tensors)

fc1.weight f4 [15, 2]
000000 f4 a8 20 3f ea 96 3b 3f 0d 21 31 3f 13 6c 0e 3f
       0.627578 0.7327715 0.69191056 0.5563366
000010 f5 6d ee 3e 0b 67 3e bf 10 84 1a bf 6d 4e e7 be
       0.46568266 -0.7437598 -0.6035776 -0.45177022
000020 5c 42 00 be 02 da 07 bf 78 8d 17 3f bb ac fb be
       -0.12525314 -0.5306703 0.5920024 -0.4915522
000030 07 1d 17 3f b1 e1 1d bf 71 7c 29 be ae da 88 3d
       0.5902867 -0.616725 -0.16551377 0.06682335
000040 94 b9 58 be 40 d8 4f bf b9 59 dd 3d fe 7c a3 3e
       -0.21164542 -0.81189346 0.10808129 0.319313
000050 36 a6 07 bf 61 50 ce 3e 7e 43 24 be ce 8e f5 3e
       -0.5298799 0.402957 -0.16041371 0.47960514
000060 dd 73 6a be e6 e6 bb be 27 11 5e be a7 54 17 bf
       -0.22895761 -0.366996 -0.2168623 -0.59113544
000070 07 2a 9c be 6d db 71 3e
       -0.30500814 0.2361886

fc1.bias f4 [15]
000000 dd fe 85 3e b5 78 84 3e bf 2e cd 3d 67 c7 df bd
       0.26171008 0.25873342 0.10018682 -0.10926705
000010 13 b0 4a 3e 32 d4 e5 3e 98 27 0d 3f ed 9e 04 3f
       0.1979373 0.44888455 0.5513854 0.51805
000020 b8 8e ff 3e 20 65 24 3f 85 d7 cd be 75 44 4d 3f
       0.49913573 0.64216805 -0.4020349 0.8018258
000030 da f8 df 3e c9 51 b8 3e fa 06 87 3f
       0.43744546 0.35999897 1.0549004

fc2.weight f4 [10, 15]
000000 0c 24 84 be ec 74 85 3d 61 f3 37 3d 51 1f bf 3d
       -0.25808752 0.06516442 0.04490984 0.09332145
000010 dd c5 d8 bc 1c 10 80 be a8 a6 d6 3d 7c 46 1a 3e
       -0.026461536 -0.2501229 0.10481006 0.1506595
000020 d6 3d c0 bd 23 f5 33 3e f9 70 3f 3e 89 93 27 bd
       -0.09386794 0.17573981 0.1869544 -0.040912185
000030 c2 ce 1b 3e 90 5e 2d 3e 9d 82 a7 bd 24 b1 1a 3e
       0.1521559 0.16930604 -0.081792094 0.15106636
000040 94 6c 01 3e 7a d5 28 be e2 2f 07 3e 25 d5 38 3e
       0.12639076 -0.16487685 0.1320186 0.18050058
000050 ba 6f 19 be 4d c7 6a be 21 2e 30 3f da ab 20 bd
       -0.14984027 -0.2292759 0.6882039 -0.03922639
000060 08 40 0e 3f b7 db 66 be b5 43 a2 bf fb 38 f7 3e
       0.55566454 -0.22544752 -1.2676913 0.4828566
000070 aa fd 57 3e 77 11 3c 3f 5a 51 80 3d 4b bd 49 be
       0.21092859 0.7346415 0.062655166 -0.19701116
000080 14 8a af 3c 73 85 09 bd a6 ef 4e be 74 9b 8b be
       0.021428145 -0.033574533 -0.20208606 -0.2726704
000090 09 32 92 3d 90 39 02 be 43 4c 38 3e c8 43 9e be
       0.0713845 -0.12717271 0.17997842 -0.30911088
0000a0 7a da fc 3d e2 d3 51 3d 43 67 35 3d dd ed 0e be
       0.123463586 0.051227458 0.04428793 -0.13957925
0000b0 14 a3 fc 3d 4e 98 70 bd 39 a6 78 3e 51 2f d3 3d
       0.12335792 -0.058739 0.24282159 0.10311759
0000c0 c3 55 0a 3e c2 7d 1b bf 41 7a 23 3e ec fb 8b 3d
       0.13509278 -0.60738766 0.15964605 0.0683516
0000d0 f5 09 94 3e 5a 55 4d bc c5 3f 48 bd 26 cc a4 bc
       0.28913847 -0.012532556 -0.04888894 -0.020116877
0000e0 8a 3e 9a bf a0 a3 af bd b0 ee 65 be d8 06 33 3f
       -1.2050335 -0.08576131 -0.22454333 0.6993232
0000f0 de ea 28 3e 9d fa 55 be 77 34 75 be d8 8a c7 bb
       0.16495845 -0.20896383 -0.23945795 -0.0060895495
000100 b5 16 cc 3d 16 5d 27 be 5a 35 07 be 48 a9 42 be
       0.099652685 -0.16344103 -0.13203946 -0.19009888
000110 04 d3 37 be d8 eb 8d bd d6 68 3a bd de a1 83 3e
       -0.1795159 -0.06929749 -0.045510136 0.25709432
000120 b3 1c 44 be 8f 80 7e 3e 53 93 32 be 80 e7 27 bd
       -0.19151573 0.24853729 -0.17439012 -0.04099226
000130 91 ad 37 bd 88 ee 3d be 70 5f e7 bd 48 43 e8 bd
       -0.04484326 -0.18548024 -0.112975 -0.11340958
000140 9b ee 25 be bc 46 b6 3b d7 e9 42 3d 50 85 8f 3c
       -0.16204302 0.0055626314 0.04758629 0.017519623
000150 c3 52 14 be 52 c4 af 3c f6 76 99 3c 8a ab 44 be
       -0.14484696 0.021455918 0.018733483 -0.19206062
000160 f4 c1 8a 3d ba b8 83 be 8f 51 1c be af c7 31 3d
       0.06775275 -0.25726873 -0.15265487 0.043403324
000170 f4 1e 5f 3e 5e f1 67 3e eb 1f 4a 3e f0 1d 93 3e
       0.21789151 0.22650668 0.19738738 0.28733778
000180 6d fa f8 bb 3d 11 75 be b8 f4 47 3e c4 34 46 3d
       -0.0075982125 -0.23932357 0.19526947 0.048390165
000190 3f 27 01 3e 48 fd 87 3f 67 d5 99 3e e5 88 a1 3e
       0.12612627 1.062417 0.30045626 0.31549755
0001a0 b7 97 57 be 91 ac dc be 11 bd 42 bd 8c 70 a0 3e
       -0.21053968 -0.43100408 -0.04754359 0.31335866
0001b0 54 1e d9 bd 32 83 18 3f aa 03 34 3e 41 cf 5a 3e
       -0.10601488 0.5957519 0.17579523 0.21368124
0001c0 d9 4e de 3d 16 05 3c 3e e1 4b b0 3d 8a db 5b be
       0.10854883 0.18361315 0.08608223 -0.21470466
0001d0 71 48 97 3f b5 85 8d 3e 52 37 c4 3e bc e0 84 be
       1.1818982 0.27641073 0.38323456 -0.2595271
0001e0 79 f3 63 be de c9 5e be ac 47 b1 3e e4 10 47 3e
       -0.22260846 -0.21756694 0.34624994 0.19440037
0001f0 ed b0 21 3f 3b 01 bc bc cc f8 37 3e 9e d1 8c be
       0.6316059 -0.022949805 0.17966002 -0.27503675
000200 de d8 8c 3e e2 bd 2a be a0 54 c4 bd ed 17 9d 3f
       0.27509207 -0.16673997 -0.095864534 1.2272927
000210 87 e3 c9 3e e1 3e 01 3f 4c 8c 18 be ed f1 08 3f
       0.39431402 0.5048657 -0.14897269 0.5349415
000220 60 9b 01 3f 21 26 72 3c fb 65 27 3d 27 1d 83 be
       0.5062771 0.014779598 0.04086874 -0.2560818
000230 ce 1e c8 3d 77 f6 1c 3d df 51 3d 3e 06 7e a9 be
       0.097715005 0.038320985 0.18488263 -0.3310396
000240 56 4a b5 3e 2e e4 9d 3d 27 64 bf bf 9c 37 e0 bc
       0.35408276 0.077095374 -1.4952439 -0.027370267
000250 4e 98 cd be 75 f2 40 3f
       -0.40155262 0.7536996

fc2.bias f4 [10]
000000 2d 83 04 be 15 5f cf 3e 7d dc 39 3e ac 2b 3a 3e
       -0.12940665 0.4050223 0.18150516 0.18180722
000010 d8 33 a0 bd 16 f5 b6 bd 0a 35 0c 3e 25 92 7b 3e
       -0.078223884 -0.08933465 0.13692108 0.24567468
000020 a7 2d b5 3b c9 41 1a 3e
       0.005529124 0.15064158

fc3.weight f4 [5, 10]
000000 34 1a 08 3e 30 42 3f 3e 02 4e 98 3e cd 7e 5d bc
       0.13291246 0.18677592 0.29747015 -0.013519001
000010 6d 7e 30 be fc 38 1b bd 7f cc 7f be 32 d4 76 be
       -0.17235728 -0.03789614 -0.24980353 -0.24104384
000020 cc c9 6d be 60 cf 1f be ca 64 96 be 96 00 83 ba
       -0.2322151 -0.15606451 -0.2937377 -0.0009994681
000030 0a 3b 48 be ee ae e7 3d 30 f8 c9 3d a1 8f 9f be
       -0.19553772 0.11312662 0.09861791 -0.31164268
000040 99 d2 d6 bd 4c 57 47 3e 32 9c 96 be 31 00 5d be
       -0.10489387 0.19466895 -0.29416043 -0.21582104
000050 0d 51 a7 3d e9 10 5b 3d 7c e9 8b be 65 31 87 bd
       0.08169756 0.053482924 -0.27326572 -0.06601218
000060 92 4a 73 be 5a b4 8a 3e 42 b9 e1 3d 1c 5c 8d be
       -0.23758915 0.27090722 0.11021663 -0.27609336
000070 e7 2a 81 be 4d 9e 99 3e 3d 43 d9 3d 62 7d 8c bf
       -0.25228044 0.30003586 0.10608528 -1.0975764
000080 f2 66 76 3c b0 45 7e be 67 0b 88 3e 83 51 ef 3d
       0.0150391925 -0.24831271 0.265712 0.11685469
000090 ad 55 a5 3e fb 2e fc 3e 61 31 1b 3f 64 41 e4 be
       0.32291928 0.49254593 0.6062222 -0.4458114
0000a0 d5 97 4d be 5c 8b 56 3f 28 a0 b8 3d 3d 6a 6d 3e
       -0.2007745 0.83806396 0.090149224 0.23185058
0000b0 75 50 51 3e a4 47 1d be 67 f5 1b 3d a4 b6 29 bc
       0.20440848 -0.1535936 0.03807583 -0.010358486
0000c0 11 41 25 be 10 3e 20 3f
       -0.16138102 0.625947

fc3.bias f4 [5]
000000 fd 1b d8 bd b1 1b 23 be 71 bc eb bd e9 de b9 bd
       -0.10552213 -0.15928532 -0.11510552 -0.0907572
000010 8f 94 f7 bd
       -0.12088882

fc4.weight f4 [1, 5]
000000 b2 b9 93 3d 70 a2 cc 3e f5 f6 2e 3f 75 fb 4e 3f
       0.07213153 0.3996768 0.68345577 0.8085244
000010 47 fd 03 bf
       -0.51558346
