nfl_robustness_training/src/controller_models/double_integrator/daggers/di_4layer/constraint_dagger_1.pth (torch, 3727 bytes, 7 tensors)

fc1.weight f4 [15, 2]
0	0xbf25034f	-0.64458174
1	0x3f11c874	0.5694649
2	0xbf3269cc	-0.69692683
3	0x3f465402	0.77471936
4	0xbef03e39	-0.46922472
5	0x3e589448	0.21150315
6	0xbf231d21	-0.6371632
7	0xbf31495c	-0.6925256
8	0xbe892e2e	-0.26793045
9	0xbe75c1f1	-0.23999764
10	0x3f594170	0.84865475
11	0x3f30e4e1	0.6909924
12	0xbf11eba3	-0.5700018
13	0xbe87a299	-0.2649124
14	0xbe6360be	-0.22204873
15	0xbf0e304a	-0.55542433
16	0x3ddec6a2	0.1087773
17	0xbf5f9fbf	-0.8735313
18	0x3f4b78b5	0.7948106
19	0x3f254aae	0.6456708
20	0xbee39da7	-0.44456217
21	0x3e7515f0	0.2393415
22	0x3f3cdd33	0.73775023
23	0x3f03104d	0.5119675
24	0xbe85dc06	-0.26144427
25	0xbebb32e0	-0.36562252
26	0x3e036078	0.12829769
27	0xbf698f6f	-0.9123449
28	0x3c4c819e	0.012482075
29	0xbd90ab24	-0.070638925

fc1.bias f4 [15]
0	0xbca69021	-0.020332398
1	0x3e78b77b	0.24288742
2	0x3f42216f	0.75832266
3	0xbebae450	-0.36502314
4	0xbf11e979	-0.56996876
5	0x3ed6286e	0.4182772
6	0xbf1534d3	-0.5828373
7	0x3ef4ffd5	0.47851434
8	0x3df7d8e3	0.12101915
9	0xbdb76b85	-0.089560546
10	0x3c2725dc	0.0102018975
11	0xbe6bb3df	-0.23017834
12	0x3f2770b4	0.65406346
13	0x3e2f7c7f	0.17137335
14	0xbdde127e	-0.10843371

fc2.weight f4 [10, 15]
0	0xbdf4e93e	-0.1195855
1	0x3e18e11a	0.1492962
2	0x3d7ca337	0.06167909
3	0xbd8372b5	-0.06418363
4	0xbd1571a7	-0.03648534
5	0x3ef36524	0.47538102
6	0xbe479493	-0.1949027
7	0xbf14898c	-0.5802238
8	0xbe02be75	-0.12767966
9	0x3f1d968b	0.61557835
10	0x3e14bad3	0.14524393
11	0x3e29d836	0.16586384
12	0xbf0db72a	-0.5535761
13	0xbedc9974	-0.43085825
14	0xbd71f9d4	-0.059076145
15	0x3e5502e1	0.2080188
16	0xbe92f133	-0.28699645
17	0x3ee1aadc	0.44075668
18	0x3d9c3126	0.07626562
19	0x3e1e4e93	0.15459661
20	0x3d4de9a4	0.050271645
21	0xbc7d5c77	-0.01546394
22	0x3ebcec7f	0.36899182
23	0x3ec228d3	0.3792177
24	0xbdb30de4	-0.08742884
25	0x3e681b2c	0.22666615
26	0xbd89b14e	-0.06723271
27	0x3d8cba55	0.068714775
28	0x3e3d746d	0.18501444
29	0xbd546c45	-0.051861066
30	0xbe7c515e	-0.24640414
31	0xbe6a1d41	-0.22862722
32	0xbe167391	-0.14692523
33	0xbdd64c15	-0.1046373
34	0x3e661277	0.22467981
35	0xbe156887	-0.14590655
36	0x3e7aa9e5	0.24478872
37	0x3db2fa1e	0.08739112
38	0xbe58c5c6	-0.21169195
39	0xbd399f26	-0.04531779
40	0xbc4bafe9	-0.012432077
41	0xbe46f717	-0.19430195
42	0xbe42dc57	-0.19029365
43	0x3d8d6118	0.06903285
44	0xbe275cd0	-0.16343999
45	0xbe58b582	-0.2116299
46	0xbcf4fecd	-0.029906655
47	0x3d95ce34	0.07314721
48	0xbddc5f4c	-0.10760364
49	0x3e1c8f1c	0.15288967
50	0xbe57d7db	-0.21078436
51	0x3dc95041	0.0982976
52	0xbe32bd48	-0.17455018
53	0x3bdbbd2f	0.006705902
54	0xbe416d2c	-0.18889302
55	0xbe6f82dc	-0.23389763
56	0x3cf77ab6	0.03020988
57	0x3dfccce1	0.12343765
58	0xbe526792	-0.20547321
59	0x3e2065c4	0.1566382
60	0x3df43032	0.11923255
61	0xbd697d23	-0.057004105
62	0x3d64dadf	0.055872794
63	0x3df5c809	0.12001044
64	0xbe033a7e	-0.12815282
65	0xbe99446f	-0.29935023
66	0x3e6e58bb	0.23276035
67	0x3e10fbd7	0.1415857
68	0xbdda51f2	-0.10660161
69	0xbe5b98d0	-0.21445012
70	0xbe3b73c8	-0.18305886
71	0xbc041c36	-0.008063367
72	0xbe2722fe	-0.16321942
73	0xbe04b77d	-0.1296062
74	0xbdaaaaf1	-0.08333386
75	0x3d514186	0.05108788
76	0xbe02fc6d	-0.12791605
77	0xbe0bd82e	-0.13656685
78	0xbdbef87a	-0.09324737
79	0xbda3bfa3	-0.07995536
80	0xbe500e21	-0.2031789
81	0xbe1b4246	-0.15162
82	0xbdcc37a5	-0.09971551
83	0xbe252e06	-0.16130838
84	0xbe01183f	-0.12606905
85	0xbd7ca6c2	-0.06168247
86	0xbdf4db51	-0.11955894
87	0xbe6de47e	-0.23231694
88	0xbddd46c5	-0.10804514
89	0xbdf9fbad	-0.122062065
90	0xbe2bff0d	-0.16796513
91	0xbe88a97c	-0.26691806
92	0x3eb15e4d	0.34642258
93	0xbe24b4c8	-0.16084588
94	0x3e23c594	0.15993339
95	0xbd4864f8	-0.048924416
96	0x3e15dff6	0.14636216
97	0x3ea4ea7d	0.3221015
98	0x3f026a1d	0.50943166
99	0xbe9546a8	-0.2915547
100	0x3e7bd6e6	0.24593696
101	0xbe7b3b8d	-0.24534436
102	0x3e9a5a9e	0.3014726
103	0x3e1147a1	0.1418748
104	0xbd488cbf	-0.04896235
105	0xbc1b5156	-0.009479841
106	0xbd472c18	-0.048626035
107	0x3f1e84ca	0.6192137
108	0xbe6bc676	-0.23024926
109	0x3e80cd1b	0.25156483
110	0x3e8a1bc8	0.2697432
111	0x3de7b6be	0.11314152
112	0x3e74ec2a	0.23918214
113	0x3e6dc235	0.23218615
114	0xbe01e829	-0.12686218
115	0xbd0173c3	-0.03160454
116	0x3e29c527	0.16579114
117	0xbe985d59	-0.2975872
118	0x3ebff3fe	0.3749084
119	0x3d888982	0.066668525
120	0x3d4f49c7	0.05060747
121	0xbe5f42af	-0.21802782
122	0x3f30cc33	0.69061583
123	0x3e48b4e0	0.19600248
124	0x3d38028c	0.044924304
125	0x3ca99942	0.020702962
126	0x3e0e406b	0.13891761
127	0x3e916c71	0.28403047
128	0x3ee80a1f	0.45320222
129	0xbeb0b235	-0.3451096
130	0x3e32ce8c	0.17461604
131	0xbe0131d6	-0.12616667
132	0xbe5a4bff	-0.21318053
133	0x3ee28d45	0.44248405
134	0x3d74bcfb	0.05975054
135	0x3c6b5631	0.014363811
136	0xbe49066d	-0.19631357
137	0xbe706e27	-0.2347952
138	0x3e18e0aa	0.14929453
139	0x3e723726	0.2365385
140	0xbe809a61	-0.25117782
141	0xbd7e8201	-0.0621357
142	0xbe3d2a87	-0.18473254
143	0xbe75fb44	-0.24021631
144	0xbe3aa2a5	-0.18226106
145	0x3e130729	0.143582
146	0xbda41fbf	-0.080138676
147	0xbe2107ad	-0.15725584
148	0x3e1ebefd	0.15502544
149	0x3c72f9ba	0.014830047

fc2.bias f4 [10]
0	0x3e1b0d95	0.151419
1	0xbd897b48	-0.06712967
2	0xbdb18ab0	-0.08669031
3	0x3d526184	0.05136253
4	0x3e318674	0.17336446
5	0xbe6b36e9	-0.22970165
6	0x3e342bfb	0.17594902
7	0xbd271782	-0.040793903
8	0xbe7ee622	-0.24892476
9	0x3dec34a6	0.115334794

fc3.weight f4 [5, 10]
0	0xbe054686	-0.13015184
1	0xbe417ac9	-0.18894495
2	0xbe8a37b6	-0.2699563
3	0x3e3cf3ae	0.18452331
4	0x3e5f5d38	0.21812904
5	0xbe3e8ccd	-0.18608399
6	0xbe33911f	-0.17535828
7	0xbe6eb4c0	-0.23311138
8	0xbea66164	-0.32496178
9	0x3e46b1f6	0.19403824
10	0xbd4367c7	-0.04770639
11	0x3da30ff7	0.079620294
12	0xbe9137f2	-0.28362995
13	0xbe3bd5e4	-0.18343312
14	0xbebf4db8	-0.37363982
15	0x3e3ab5e5	0.1823345
16	0x3e0756ae	0.1321666
17	0x3e978125	0.29590717
18	0x3f078df5	0.52950984
19	0x3e8aba3e	0.27095217
20	0xbec9ed8b	-0.39439043
21	0x3e5cdc5b	0.21568434
22	0x3df9842c	0.12183413
23	0x3e4a626f	0.19764112
24	0xbe33f09f	-0.17572258
25	0xbe71da88	-0.2361852
26	0x3f18d042	0.59692776
27	0x3dfcfadb	0.123525344
28	0x3ef19362	0.47182757
29	0xbe3c3747	-0.18380462
30	0x3e81487f	0.25250623
31	0xbebfc73d	-0.37456694
32	0x3dda9c4f	0.10674345
33	0x3da3fa77	0.08006757
34	0x3dcce9c7	0.10005527
35	0xbd4c30ec	-0.049851343
36	0xbe98cdf8	-0.29844642
37	0x3dc77fb4	0.09741154
38	0xbcb2ad47	-0.02181114
39	0x3e1b20af	0.15149187
40	0x3f4f6e9e	0.81028163
41	0x3bf2bb39	0.0074075726
42	0x3d8c4fe0	0.068511724
43	0xbe731ab3	-0.23740654
44	0xbeb2b251	-0.3490167
45	0x3e8b55dc	0.27213943
46	0xbf3c047c	-0.7344434
47	0x3da5c55b	0.08094283
48	0xbe7445a5	-0.23854692
49	0x3e84e48f	0.25955626

fc3.bias f4 [5]
0	0x3e7b5fdd	0.24548288
1	0xbed66b23	-0.41878614
2	0x3ddb51bf	0.10708951
3	0xbe9bb07f	-0.30408093
4	0x3d03472c	0.032050297

fc4.weight f4 [1, 5]
0	0xbe88d166	-0.26722258
1	0x3f19d337	0.60087913
2	0x3ea38c86	0.31943148
3	0x3f8f91d9	1.1216384
4	0xbf03960f	-0.51400846
