nfl_robustness_training/src/controller_models/double_integrator/daggers/di_4layer/natural_expanded_3.pth (torch, 3727 bytes, 7 tensors)

fc1.weight f4 [15, 2]
0	0x3f23f7fc	0.6405027
1	0x3f18da72	0.5970832
2	0x3f354881	0.7081376
3	0x3f003352	0.5007831
4	0x3ee99b56	0.45626324
5	0xbf2c0935	-0.6720155
6	0xbed6f079	-0.4198034
7	0xbf3eb2e0	-0.7449169
8	0xbf01b6c3	-0.506695
9	0xbde04301	-0.1095028
10	0x3f3819f9	0.7191463
11	0xbe3d8758	-0.18508661
12	0x3f131409	0.57452446
13	0xbf0e53ce	-0.55596626
14	0xbe7dc40a	-0.24781814
15	0x3ded0b78	0.11574453
16	0xbe4e44c1	-0.20143415
17	0xbf3200db	-0.69532555
18	0x3dab6b1a	0.083700374
19	0x3e27c57d	0.1638393
20	0xbf07a636	-0.5298799
21	0x3ece5061	0.402957
22	0xbaf7815d	-0.0018883158
23	0x3eb04534	0.34427798
24	0xbe49b60c	-0.19698352
25	0xbe5be773	-0.2147501
26	0xbe71412e	-0.2356002
27	0xbece8d8f	-0.40342376
28	0xbee43112	-0.44568688
29	0x3e73e10a	0.23816314

fc1.bias f4 [15]
0	0x3e40c130	0.18823695
1	0x3e49feef	0.19726156
2	0x3e165813	0.14682035
3	0x3c21a68a	0.009866366
4	0x3e0153d0	0.12629628
5	0x3eed3645	0.46330467
6	0x3f1daa79	0.61588246
7	0x3eab65c4	0.3347608
8	0x3f179b4e	0.5922135
9	0x3f04dfb9	0.51903874
10	0xbecdd785	-0.4020349
11	0x3e9a9d35	0.30198064
12	0x3edc34ba	0.43008977
13	0x3ecda450	0.40164423
14	0x3f40a3c1	0.7524987

fc2.weight f4 [10, 15]
0	0xbeb619b4	-0.35566485
1	0xbd05c398	-0.032657236
2	0x3e97ca8a	0.29646713
3	0x3ea08ff9	0.31359842
4	0x3d3c6260	0.045992255
5	0xbdce944f	-0.10086881
6	0x3e968acb	0.29402766
7	0x3e2ef34f	0.17085002
8	0x3e01f1a4	0.12689835
9	0x3df9a70c	0.12190065
10	0x3e3f70f9	0.1869544
11	0xbe910493	-0.28323802
12	0x3e52c1f5	0.20581801
13	0x3e9b519a	0.30335695
14	0xbd84a933	-0.06477585
15	0xbcb2d207	-0.021828664
16	0x3e134f58	0.14385736
17	0xbcc9503c	-0.024574392
18	0x3df2e4e0	0.11860061
19	0xbb598c70	-0.003319528
20	0xbe1fbdaf	-0.15599702
21	0xbe885194	-0.2662474
22	0x3d675770	0.05647987
23	0xbe0d219a	-0.13782349
24	0x3e3ee99c	0.18643802
25	0xbe66dbb7	-0.22544752
26	0xbe5b4f52	-0.21416977
27	0x3e5220a0	0.20520258
28	0x3d2a9057	0.04164156
29	0xbd0a612e	-0.033784084
30	0x3d81dd49	0.06341035
31	0xbe4063a6	-0.18788013
32	0x3d15f983	0.036614906
33	0x3e3a6cae	0.1820552
34	0xbe742e24	-0.23845726
35	0xbe83330e	-0.2562489
36	0x3db6cf50	0.089262605
37	0xbdcfb390	-0.10141671
38	0x3e56dfb0	0.20983768
39	0xbe8d7c82	-0.27634054
40	0x3dfcda7a	0.123463586
41	0xbbd556d1	-0.0065105935
42	0x3df443f5	0.11927024
43	0xbd60a1bc	-0.054841742
44	0x3e369ca4	0.17833191
45	0xbd3b7f86	-0.045775913
46	0x3e8a8f39	0.27062395
47	0x3e17587a	0.14779845
48	0xbd3c4fa1	-0.045974378
49	0xbe84dc79	-0.25949457
50	0x3e8b7919	0.27240828
51	0x3e0063df	0.12538098
52	0xbe10599a	-0.1409668
53	0xbcd2c89a	-0.02573042
54	0xbd97d8e1	-0.07414413
55	0xbca4cc26	-0.020116877
56	0x3d146b55	0.036235172
57	0xbda3e8d7	-0.08003395
58	0xbde61314	-0.112341076
59	0x3e195f9c	0.14977878
60	0x3e28eade	0.16495845
61	0xbe55fa9d	-0.20896383
62	0xbe753477	-0.23945795
63	0xbbc78ad8	-0.0060895495
64	0x3dcc16b5	0.099652685
65	0xbe275d16	-0.16344103
66	0xbe07355a	-0.13203946
67	0xbe42a948	-0.19009888
68	0xbe37d304	-0.1795159
69	0xbd8debd8	-0.06929749
70	0xbd3a68d6	-0.045510136
71	0x3e83a1de	0.25709432
72	0xbe441cb3	-0.19151573
73	0x3e7e808f	0.24853729
74	0xbe329353	-0.17439012
75	0xbd27e780	-0.04099226
76	0xbd37ad91	-0.04484326
77	0xbe3dee88	-0.18548024
78	0xbde75f70	-0.112975
79	0xbde84348	-0.11340958
80	0xbe25ee9b	-0.16204302
81	0x3bb646bc	0.0055626314
82	0x3d42e9d7	0.04758629
83	0x3c8f8550	0.017519623
84	0xbe1452c3	-0.14484696
85	0x3cafc452	0.021455918
86	0x3c9976f6	0.018733483
87	0xbe44ab8a	-0.19206062
88	0x3d8ac1f4	0.06775275
89	0xbe83b8ba	-0.25726873
90	0xbda25166	-0.07925682
91	0x3dd284ec	0.10279259
92	0x3e74ab15	0.23893388
93	0x3efa01b1	0.48829415
94	0xbdf685a4	-0.12037209
95	0x3ea1773d	0.31536284
96	0x3cd89e0d	0.026442552
97	0xbd8ff32d	-0.07028804
98	0x3e2858fd	0.16440196
99	0x3e0c039a	0.13673249
100	0x3e01273f	0.12612627
101	0xbe8fdcf4	-0.2809826
102	0x3e508986	0.20364961
103	0x3e0b1000	0.13580322
104	0x3d75e39e	0.060031526
105	0xbec60cad	-0.38681546
106	0xbc9065aa	-0.017626602
107	0x3ea7d33f	0.32778355
108	0x3e147a11	0.1449969
109	0x3e82fe4d	0.2558464
110	0x3e2e0386	0.16993532
111	0x3e677930	0.22604823
112	0x3e8b248c	0.2717632
113	0x3e1caa1d	0.15299268
114	0x3dfdb8e3	0.1238878
115	0xbe5bdb8a	-0.21470466
116	0xbe50c83b	-0.20388882
117	0x3e2a26be	0.16616341
118	0x3e3fcce7	0.18730508
119	0x3c3ffa98	0.011717461
120	0xbe37b15e	-0.17938754
121	0xbe428d17	-0.18999134
122	0x3eb8ab0c	0.36067998
123	0x3ee5577d	0.4479331
124	0x3e8bf9af	0.2733893
125	0xbca6e66d	-0.020373547
126	0x3e475ea3	0.19469695
127	0xbdc50bad	-0.096213676
128	0x3e6e6be2	0.23283342
129	0xbde44d18	-0.11147517
130	0xbdc454a0	-0.095864534
131	0xbe2e71cd	-0.17035599
132	0x3e8866db	0.26640972
133	0x3e92f984	0.2870599
134	0x3e19cf09	0.15020384
135	0x3ef55c91	0.47922185
136	0x3ef1e81d	0.472474
137	0x3c0aef98	0.008479975
138	0xbdee7858	-0.116440475
139	0x3e10db58	0.14146173
140	0x3e2605d2	0.16213158
141	0x3d5a9e0b	0.053373378
142	0xbe8aafb4	-0.27087176
143	0xbe9e865c	-0.30961883
144	0x3e6a88f5	0.22903807
145	0x3d9de42e	0.077095374
146	0x3e4e4c05	0.20146187
147	0x3d9eab43	0.07747509
148	0xbe689d0d	-0.2271616
149	0x3ddd22fa	0.10797687

fc2.bias f4 [10]
0	0xbcaeec06	-0.02135278
1	0x3db09c7a	0.086235955
2	0x3e551637	0.20809256
3	0x3dd261dd	0.10272572
4	0xbda033d8	-0.078223884
5	0xbdb6f516	-0.08933465
6	0x3e4c27d2	0.19937065
7	0x3e965b29	0.29366425
8	0x3d65ce3c	0.056104884
9	0x3d1fa301	0.038973812

fc3.weight f4 [5, 10]
0	0x3e081a34	0.13291246
1	0x3e3f4230	0.18677592
2	0x3e984e02	0.29747015
3	0xbc5d7ecd	-0.013519001
4	0xbe307e6d	-0.17235728
5	0xbd1b38fc	-0.03789614
6	0xbe7fcc7f	-0.24980353
7	0xbe76d432	-0.24104384
8	0xbe6dc9cc	-0.2322151
9	0xbe1fcf60	-0.15606451
10	0xbe9664ca	-0.2937377
11	0xba830096	-0.0009994681
12	0xbe483b0a	-0.19553772
13	0x3de7aeee	0.11312662
14	0x3dc9f830	0.09861791
15	0xbe9f8fa1	-0.31164268
16	0xbdd6d299	-0.10489387
17	0x3e47574c	0.19466895
18	0xbe969c32	-0.29416043
19	0xbe5d0031	-0.21582104
20	0x3da7510d	0.08169756
21	0x3e9f562f	0.3112044
22	0xbe5b4821	-0.21414234
23	0xbe6fda01	-0.23423006
24	0xbe734a92	-0.23758915
25	0x3e8ab45a	0.27090722
26	0x3db78e4d	0.089626886
27	0xbe53e752	-0.2069371
28	0x3d9aa5f0	0.07551181
29	0x3e14b776	0.1452311
30	0x3ea149dd	0.31501666
31	0xbd911c4e	-0.07085477
32	0x3c16ec70	0.0092116445
33	0xbdae73e3	-0.085181974
34	0x3e880b67	0.265712
35	0x3def5183	0.11685469
36	0x3e8da0dd	0.2766179
37	0x3edaf839	0.42767504
38	0x3ee9e755	0.45684305
39	0xbe6ad987	-0.22934543
40	0xbf0bd097	-0.5461516
41	0xbc0b47f2	-0.00850104
42	0x3e333e0f	0.17504142
43	0x3e85f106	0.2616045
44	0x3e515075	0.20440848
45	0xbe1d47a4	-0.1535936
46	0x3e52948c	0.20564479
47	0x3c394484	0.011307839
48	0xbce0ed45	-0.027456889
49	0x3ef39099	0.47571257

fc3.bias f4 [5]
0	0xbdd81bfd	-0.10552213
1	0xbe231bb1	-0.15928532
2	0xbdc4449e	-0.095834
3	0xbd3c9d39	-0.046048377
4	0xbd556e77	-0.0521073

fc4.weight f4 [1, 5]
0	0x3d93b9b2	0.07213153
1	0x3ecca270	0.3996768
2	0x3e924a0f	0.28572127
3	0x3ef2cc03	0.47421274
4	0xbea9f1ac	-0.33192194
