nfl_robustness_training/src/controller_models/double_integrator/daggers/di_4layer/robust-constraint_expanded_5.pth (torch, 3535 bytes, 7 tensors)

fc1.weight f4 [15, 2]
00000000: fcb2 213f 838d c5bd 6cff 63be cea1 f63e
00000010: 61df 243e 5b1a 213f c447 583e 514f 853e
00000020: 4275 a6bd 1526 fbbe c94e 1e3f ad21 24bf
00000030: 2009 d53e c1fb 95be 6ffa 233e 9094 563d
00000040: bf52 153f c191 bbbe 68e2 d93e 1962 b3be
00000050: 977f 03bf ef8e 2f3e 033a 013e fea9 d9be
00000060: e4a6 193e 9408 343e 8f02 0cbf faff 7c3d
00000070: e591 cc3e 2e02 6dbe
0.63163733 -0.09646132 -0.22265404 0.48170322 0.16100837 0.6293084 0.21121126 0.26037076
-0.08127834 -0.49052492 0.61838967 -0.64113885 0.41608524 -0.29293635 0.16013502 0.052387774
0.58329386 -0.3663464 0.42555547 -0.3503578 -0.5136656 0.17144369 0.12619786 -0.42512506
0.1500507 0.17581397 -0.54691404 0.061767556 0.3995506 -0.23145363

fc1.bias f4 [15]
00000000: 8781 24bf 092e 73be 69fd d03e 67d9 5d3b
00000010: 5f94 1e3f 4ef0 8dbe e0b5 36be cc20 06bf
00000020: 3ce2 efbd fb5a 123e 3d1e f23d baf6 dfbe
00000030: 655e 4b3e 764d bbbe f9e2 69bc
-0.64260143 -0.2374803 0.40818337 0.0033851506 0.61945146 -0.277224 -0.17842817 -0.52393794
-0.11713073 0.14292519 0.11822174 -0.43742925 0.19860227 -0.36582536 -0.014275306

fc2.weight f4 [10, 15]
00000000: e182 1b3e 8300 3dbe 7fe5 80be a6a1 3cbc
00000010: 700a 493e e4be 26bd 54de 5cbe cadb b8bd
00000020: 9455 7a3e 8acf 0dbe 3fe8 71be 984a 53be
00000030: 36a3 d7bd cb6e 5a3e c765 613e 7345 853d
00000040: af11 6abe 9807 78be 9249 7abe 6a33 223e
00000050: 198b 09bc 1aa0 0dbe 9bb5 753d 73f2 9abc
00000060: abeb 383e 667d 493e 7ed6 4e3d 0cbd 2cbe
00000070: ddba 7cbe 024e 44be 385c 83be 6d5e 47be
00000080: 9869 553d d353 833e ff28 98bd 67f8 dbbb
00000090: 940e 08be 6e81 abbb 6e87 113e b5df 913d
000000a0: 3a89 0fbe 36bc 72bb 5628 ce3d cf1b 06be
000000b0: 768c d43d 42bc cf3c dadb 47be 1090 fbbd
000000c0: 82bd 1f3d bc08 8f3a 600d 32be a4d7 1dbe
000000d0: 5015 64be 9664 0bbe 295d 723e 5d79 ed3d
000000e0: 462b 353e 4114 113e 9f67 b9bd f1f3 e93d
000000f0: a4b5 a9bd fbbc 6bbe a864 2f3c 3e2e 853d
00000100: dfd5 bd3c eab9 6dbe a3f3 7abe b173 793e
00000110: 4b52 35be 0d7d 523e 139a c73b 4589 7f3e
00000120: 98de 523e 6ec7 843c fce1 3dbe 7c45 5e3c
00000130: c756 80bc 7813 8cbd 8ec9 7dbb 42dd 66be
00000140: a235 033e d06f 82be 0d24 0ebe c888 03bd
00000150: 81eb ce3d 25c3 edbd f958 143e 5cdd 6b39
00000160: 234b 5f3d 0027 bbbc a23c 083d e0ba 04be
00000170: 00d7 3f3e b7f0 2f3e a534 49bd d165 0c3e
00000180: 9f65 8b3d d89c 9b3d 2c89 3dbe 80c8 333d
00000190: 3c67 4d3e c116 72be b6a5 47be 0963 0abe
000001a0: 02b3 dabc f229 043e 91a1 293c 4508 3abe
000001b0: 02c0 77be c6b6 58bd 0e14 fdbd b349 2d3d
000001c0: f578 c2bd b4bb 20bd 31a2 263e fff2 923c
000001d0: 1b3c 7e3e 9b60 83be 77ba 95bc 40fb d9bd
000001e0: 59f4 4ebb 9ff6 613c 64a9 06be 9ac0 263e
000001f0: 243d c33d 05e1 963d 2df0 6b3e 03d4 25be
00000200: 05cf 80be 9c42 7cbe f473 763e 2c55 483e
00000210: 27c8 573e 9aaf 31be 4e3a cc3c 62ea 133d
00000220: 5cf2 b33d 1395 47bd d4ef 2f3d bae0 f93d
00000230: 2a94 7f3e ecc9 11be f784 69be 085f f2bd
00000240: 6da2 6bbe a9d8 33be 9a93 823e cf14 53be
00000250: 831a db3d 2ebe 18be
0.15186645 -0.18457226 -0.25175092 -0.011513149 0.19632888 -0.04070939 -0.21569186 -0.090262964
0.24446708 -0.13848701 -0.23623751 -0.20633924 -0.10529177 0.21331327 0.22011481 0.06507387
-0.22858308 -0.24221647 -0.24442127 0.15839925 -0.00839498 -0.13830605 0.059987646 -0.018914437
0.1805865 0.19676742 0.050497524 -0.1686899 -0.24680658 -0.19170383 -0.25656295 -0.19469614
0.052102655 0.2564989 -0.074296944 -0.0067129615 -0.13286811 -0.005233935 0.14211819 0.07122747
-0.14017192 -0.0037038452 0.10066287 -0.13096546 0.10378353 0.025358323 -0.1951746 -0.12283337
0.038999088 0.0010912637 -0.17387915 -0.15414292 -0.22273755 -0.13612589 0.2366835 0.11595414
0.17692289 0.14167883 -0.09052967 0.11423481 -0.08286598 -0.23021309 0.010705151 0.065029606
0.02317327 -0.23215452 -0.24507003 0.24360539 -0.17707174 0.20555516 0.006091365 0.24954708
0.20592725 0.016208377 -0.18543237 0.013566371 -0.015666379 -0.06839651 -0.0038724872 -0.2254534
0.12813428 -0.2547593 -0.1388094 -0.032112867 0.101035126 -0.116094865 0.14487065 0.00022493809
0.054515015 -0.022845745 0.03326095 -0.12961912 0.1873436 0.17181669 -0.04912247 0.13710715
0.06806492 0.07598275 -0.18509358 0.043892384 0.20058912 -0.23641492 -0.19496807 -0.13514341
-0.026696686 0.12906626 0.010353462 -0.18167217 -0.24194339 -0.05290868 -0.12357341 0.042306613
-0.09495727 -0.039241508 0.16272809 0.017938135 0.24827616 -0.25659642 -0.01827739 -0.10643625
-0.0031578748 0.013791709 -0.13150555 0.16284409 0.09533146 0.07367138 0.23040839 -0.16194157
-0.25157943 -0.24634784 0.2406767 0.1956374 0.21072446 -0.17352143 0.024930146 0.036112197
0.08786461 -0.048726153 0.042953327 0.12201066 0.24958864 -0.14237183 -0.22804628 -0.11834532
-0.2301118 -0.17563118 0.25503236 -0.20613407 0.10698416 -0.14916298

fc2.bias f4 [10]
00000000: fb22 ac3d dde9 82be 0984 293d 1ab0 58be
00000010: 0c58 713e d405 35bd c00e 7e3c 34f2 acbc
00000020: b4b3 17be 7ad1 6ebe
0.084051095 -0.2556905 0.041385684 -0.21160927 0.23568743 -0.04419501 0.015506446 -0.021111585
-0.14814645 -0.23322096

fc3.weight f4 [5, 10]
00000000: 84c7 2dbd 863a 923e 2927 99be a7ee 763e
00000010: 2553 0abe b9ba 29be dc32 cf3d 6933 52be
00000020: d662 4d3d 5581 00be ed87 15be a7ff 453e
00000030: 311c 413e 1cd3 273e 1362 7abe 1a25 5f3e
00000040: 5f03 753e 0b59 85be 17a5 7b3d db77 8e3e
00000050: 3fe6 cdbd 0e14 b03d c590 5c3e 90fd 6ebe
00000060: a2ff 8ebd 8674 23bc 199b b9bd e95b 0a3e
00000070: 993a 8f3e 2bb3 723d e90f bebc c014 51bd
00000080: 611a cabd fec1 9f3d f717 b33c 3750 09be
00000090: 70cb 52bd e705 a03e 1dba 9f3e d654 9cbc
000000a0: dcca 8abd e46b de3d 098e e63d 5c15 ca3d
000000b0: a984 923e 9db9 813e 683b 5fbe 74e5 2cbe
000000c0: 784b f03b 0067 6e3e
-0.0424266 0.28560275 -0.2991269 0.24114476 -0.1350828 -0.16575135 0.101171225 -0.20527424
0.050143085 -0.12549336 -0.14602633 0.19335805 0.1885841 0.16389126 -0.24451475 0.21791497
0.23927067 -0.26044497 0.06143674 0.27825817 -0.100536816 0.08597575 0.215396 -0.23338914
-0.06982352 -0.009976512 -0.09062786 0.13511623 0.27974394 0.0592529 -0.023200946 -0.05104518
-0.098683126 0.07800673 0.021862013 -0.13409506 -0.051463544 0.31254503 0.3119668 -0.019083422
-0.067769736 0.10860422 0.1125756 0.09867355 0.28616837 0.25336924 -0.21800005 -0.16884404
0.0073332153 0.23281479

fc3.bias f4 [5]
00000000: 6705 a5bd 8a2b a7bd f2d4 5abe 2110 4ebe
00000010: 200a 3abe
-0.08057671 -0.08162601 -0.21370295 -0.2012334 -0.18167925

fc4.weight f4 [1, 5]
00000000: d7b6 11be c2d8 5c3e 0966 2f3c 8697 c83d
00000010: 9f26 3c3e
-0.14229904 0.21567062 0.010705479 0.09794526 0.18374108
