nfl_robustness_training/src/controller_models/double_integrator/daggers/di_4layer/robust-constraint_expanded_4.pth (torch, 3535 bytes, 7 tensors)

fc1.weight f4 [15, 2]
00000000: 90d2 0bbe bd2f 81bc f86d 163f 8537 dd3d
00000010: f15c 29bf 7ff7 19bf 2777 1bbe fe02 2f3c
00000020: aa39 d4bd 78c5 20bf 6bdb 583e 612e b13e
00000030: 3bc8 1abd 75eb 2e3f 63f6 b83e 26f8 1bbf
00000040: f300 c43e 1b7f 88be 5247 4c3d 397d b73e
00000050: 5b1e da3e 52e4 913e 3b63 153f 5e3f ac3e
00000060: c42b 9bbe 3052 ea3e 84d5 04be dbc5 05bf
00000070: db86 053f db93 163f
-0.13654542 -0.015769834 0.5876155 0.10801605 -0.6615744 -0.60143274 -0.15182172 0.010681866
-0.10362561 -0.62801313 0.21177451 0.34605697 -0.03778861 0.6832803 0.36125478 -0.6092552
0.38281974 -0.26659474 0.049872704 0.35837725 0.42601284 0.28494507 0.5835454 0.33642095
-0.30306828 0.4576583 -0.12972075 -0.5225503 0.521589 0.5881936

fc1.bias f4 [15]
00000000: ac87 68be a9be 23bf ade4 09bf 79c1 263e
00000010: 8b0c 133f a3c7 ccbe 8dda c63e 549b 9cbe
00000020: 54c9 14bf 76ff 313f 7688 c83e 1c1c 293f
00000030: 822b 68bd fa2c 043f d33c 113d
-0.22708005 -0.639628 -0.53864557 0.16284741 0.57441014 -0.3999606 0.38838616 -0.30587256
-0.581197 0.6953043 0.3916661 0.66058517 -0.056682117 0.5163113 0.035458397

fc2.weight f4 [10, 15]
00000000: c191 1a3e 9012 4dbe 56e6 c63d 514d 7abd
00000010: ed44 7bbe 2bde 26bd ed8e e2bd ddbe 17bd
00000020: 286c 47be ad5a 6a3e 52dc 2cbe 6775 50be
00000030: b66a 79bd ed78 2f3b 02d1 6fbe cde5 ff3d
00000040: 337d 3e3e 4355 81be ddc3 803e 3e38 e0bd
00000050: fddc 373e 0549 8e3c 76e5 bdbd d09c 383e
00000060: 3469 1e3d 48cf cb3c 33db d53c 81d9 a6bd
00000070: bd33 ef3d 84b4 67be a279 36be 2479 863d
00000080: 26b1 44be a537 833e cff0 0abe 2161 b83d
00000090: 62a1 05be 9960 c83d 1a09 813e 80f6 633c
000000a0: ea62 65bd 15e4 6dbc 0877 aa3d fd66 8abd
000000b0: 0711 2ebe 3392 a83d fd24 283e 1578 f7bd
000000c0: 388c 373e 1aa0 75be 3026 553e 97fe b63d
000000d0: 636f 57be 9f93 263e 81fe 743e b7de 5cbc
000000e0: 83a1 ab3d dfdb e6bd 57b4 8b3d 5e86 7abe
000000f0: 17cd 35bd 0156 803e 589a a7bd 76eb 1e3d
00000100: a86e 07be 21ae 51be 23f5 89bd 6451 833e
00000110: 1204 1dbe 2bee 523d cad5 d73c f814 363d
00000120: 5b17 733c 6881 44be 8fdd 12be 1fc3 aabd
00000130: ed52 7b3e 2b80 34be 5e90 3dbe 7908 80be
00000140: 602e 13be 118f 65be a4e7 683e d9a6 0bbe
00000150: 1cbb 7b3e 4ca9 063c 8e60 79be 9526 793e
00000160: 5367 5a3d feb6 163e 58b4 76be 05b4 683e
00000170: 1b98 31be a0ec f3bc b709 7ebd aa24 e33d
00000180: 9cf5 b83d 4fb5 a6bd 26c9 193e cd5c 473e
00000190: ad82 4e3d 4627 de3d eea8 35be 9d5c 9abd
000001a0: 6b82 91bc f2cd eebc 1580 db3b 87a6 063e
000001b0: a45e 9cbc 7ff4 8ebd 8a28 483d 07f4 38bd
000001c0: a894 2d3e 84e4 9cbd 7299 dabd 852c f13a
000001d0: 6cb9 a23d aa89 413e e2cc 393d ca47 11be
000001e0: 7af2 6d3e d977 15bd ccc2 f73d 5c0a 4f3e
000001f0: 3af6 143e 4663 e2bd 2e99 7d3e 2cff 2b3e
00000200: bfe4 83be 6787 16be 9d14 60be 7ac1 4f3e
00000210: 4fef 843d 5b32 103e a4eb 3fbe 1eb5 7cbe
00000220: 1e3d 8f3d 0a8a 5d3e c29d 383d 4569 ffbd
00000230: 29b2 19be 05c1 72be 1b9c 943d bda6 82be
00000240: 2331 a9bd b14c fbbd c724 e33c a795 80be
00000250: 8ad1 09be 85f9 d0bb
0.15094663 -0.20026612 0.09711902 -0.06110889 -0.24538012 -0.04073922 -0.11062417 -0.037047256
-0.19474852 0.22886153 -0.1688092 -0.20357285 -0.060892783 0.0026774958 -0.23419574 0.12495003
0.18602447 -0.25260362 0.25149432 -0.10948227 0.17955394 0.017368803 -0.09272282 0.18028569
0.03867455 0.024879113 0.026105499 -0.08146954 0.1167979 -0.22627455 -0.17819837 0.065660745
-0.19208202 0.2562839 -0.13568424 0.09002901 -0.13049844 0.097840495 0.25202256 0.013913751
-0.056002535 -0.014519711 0.08323485 -0.06757925 -0.16998683 0.0823101 0.1642036 -0.12083451
0.17924583 -0.23986855 0.20815349 0.08935278 -0.21038584 0.1626725 0.2392521 -0.013480834
0.08380415 -0.11272406 0.068215065 -0.2446532 -0.044385042 0.25065616 -0.081837356 0.03879877
-0.13225806 -0.20476581 -0.06736209 0.25648034 -0.15333584 0.051496666 0.02634706 0.04445359
0.014837111 -0.1918999 -0.1434233 -0.08337998 0.24543352 -0.17627017 -0.18512103 -0.25006464
-0.1437316 -0.22417857 0.22744614 -0.13637866 0.24583095 0.008219074 -0.24353239 0.24331124
0.053321194 0.14718243 -0.24092233 0.22724922 -0.1734318 -0.029775918 -0.062020984 0.110909775
0.09031221 -0.081400506 0.15018138 0.19468994 0.05041759 0.108473346 -0.17740223 -0.07537196
-0.017762383 -0.029150937 0.006698618 0.13149463 -0.019088097 -0.06980228 0.048866786 -0.045154598
0.16951239 -0.076607734 -0.106737986 0.0018400109 0.07945523 0.18900171 0.045361407 -0.14187542
0.23237029 -0.03649125 0.120977014 0.20218796 0.14547053 -0.11054091 0.24765465 0.16796559
-0.25760457 -0.1470009 -0.21882863 0.20288649 0.06490957 0.14081709 -0.18742234 -0.24678466
0.06994079 0.21634689 0.045072325 -0.124712504 -0.15009369 -0.23706444 0.07256337 -0.25517836
-0.08261325 -0.12270487 0.027727498 -0.25114176 -0.13458839 -0.0063774013

fc2.bias f4 [10]
00000000: 4c86 123e a676 59be 2539 11be 4dc5 233b
00000010: 978a 2fbe 4a78 22bd bc1b 833e 99ee 30be
00000020: 939e c6bd ca7f 3cbe
0.14309043 -0.21236667 -0.14181955 0.0024989427 -0.17142712 -0.039665498 0.25607097 -0.17278518
-0.096982144 -0.18408123

fc3.weight f4 [5, 10]
00000000: 0698 8a3e 1f6d e2bd b795 8ebe 1dde 8abe
00000010: ba70 9dbe 74fe acbd 0b5d 3b3e dad3 82be
00000020: 6f3c da3d 8c57 7dbe cc93 84bd eed9 0c3e
00000030: fb13 04be 993a 8b3e 6913 4ebe f5d0 99bd
00000040: 457e 2dbd 5799 8fbd 74a5 a23d 78a0 383e
00000050: e9a5 95be d77b 9d3e 997b a0be 4c4d 693e
00000060: c0b7 4d3e 8a89 533e ef40 223e 9c24 85bc
00000070: e226 cf3d a019 73b9 4495 6f3e 97c3 863e
00000080: 4c45 843e e805 d73d 2bfc 15be ffb0 4f3e
00000090: 1049 7f3e e225 b0bd 321f 8b3e 88b4 c53d
000000a0: 6ed5 6abc 7f78 3d3e 8836 043d f126 62be
000000b0: defe bcbd 452f 873e b014 153e 78d4 2bbe
000000c0: 419b 953d 9313 713e
0.2706911 -0.110559694 -0.27848598 -0.27122584 -0.30750066 -0.084469706 0.18297212 -0.25552255
0.10656058 -0.24740428 -0.064735025 0.13755009 -0.12898247 0.27193144 -0.20124592 -0.075105585
-0.042356748 -0.07011669 0.07941714 0.18029964 -0.29228142 0.30758545 -0.31344298 0.22783393
0.20089626 0.20657936 0.15845083 -0.016252808 0.10114838 -0.00023183832 0.23396784 0.26321098
0.2583412 0.104991734 -0.14646976 0.20282362 0.24930215 -0.086009756 0.27172238 0.09653574
-0.014333112 0.18502997 0.032278568 -0.22085167 -0.092282996 0.2640325 0.14558673 -0.16780269
0.07305003 0.23542623

fc3.bias f4 [5]
00000000: 401c 003e fb10 0bbe 82e7 633e 3008 f93d
00000010: 9005 46bd
0.12510777 -0.13580696 0.22256282 0.12159765 -0.04834515

fc4.weight f4 [1, 5]
00000000: b451 383e d974 0abe 1f0b a6bd 9159 9b3e
00000010: 19dc 1fbe
0.17999917 -0.13521136 -0.0810759 0.3034177 -0.15611304
