nfl_robustness_training/src/controller_models/double_integrator/daggers/di_4layer/robust-constraint_expanded_7.pth (torch, 3535 bytes, 7 tensors)

fc1.weight f4 [15, 2]
0.42397603 -0.2750764 -0.26500514 -0.389113 -0.029316926 -0.5862072 0.36422515 -0.2978491
0.5629334 -0.5656509 -0.4098409 -0.3528872 -0.26013362 0.44339007 -0.21472572 0.6027174
0.38665062 0.4125148 -0.4728803 0.6495855 0.24202718 0.263348 0.4466443 -0.5551735
-0.3791499 -0.3514167 0.49083173 -0.47102144 0.5490672 0.60526437
00000000: 6313 d93e d0d6 8cbe c1ae 87be d239 c7be
00000010: 0d2a f0bc ad11 16bf b87b ba3e ad7f 98be
00000020: 671c 103f 7fce 10bf abd6 d1be a2ad b4be
00000030: 3c30 85be 0604 e33e 0fe1 5bbe b04b 1a3f
00000040: 12f7 c53e 2435 d33e 5e1d f2be 3c4b 263f
00000050: f9d5 773e 8dd5 863e 90ae e43e da1f 0ebf
00000060: f01f c2be e4ec b3be 4c4e fb3e b929 f1be
00000070: ab8f 0c3f 9bf2 1a3f

fc1.bias f4 [15]
-0.09078962 0.4846149 -0.47167382 0.6352466 -0.38407233 0.5707408 -0.42595738 -0.34310198
0.08823426 0.017176948 0.39551124 0.45414132 -0.35979897 -0.23358777 -0.36895046
00000000: e9ef b9bd 721f f83e 3b7f f1be 859f 223f
00000010: 21a5 c4be 121c 123f 1617 dabe 10ab afbe
00000020: 2ab4 b43d acb6 8c3c 7380 ca3e 3685 e83e
00000030: 9237 b8be a231 6fbe 13e7 bcbe

fc2.weight f4 [10, 15]
-0.062216252 -0.10408665 0.18017463 -0.020594086 -0.18080932 0.11521136 -0.047600783 0.23672755
0.09657355 -0.09268779 -0.12172463 -0.00028566644 -0.03845472 0.075665936 -0.05960364 -0.114263654
-0.14841633 0.17597222 0.06287583 -0.25436637 0.16250937 -0.03072341 0.092160285 0.25738233
0.05236382 0.12627627 0.15581183 0.12739684 -0.14702909 0.2201101 -0.07588512 0.12660305
0.06077893 -0.08219212 -0.11446923 0.258029 -0.086230636 0.22081798 -0.25481737 0.18698908
-0.11072448 0.031224504 0.25480232 -0.08693149 0.24415854 -0.0027931968 0.22194257 -0.11366475
-0.25176904 0.17879802 0.1255211 0.033949986 -0.051433906 -0.16858137 -0.13303949 -0.03230989
-0.1887238 -0.1463641 0.22366655 -0.22695951 -0.04253149 -0.012748585 0.02977444 -0.14846271
0.24845155 0.061318807 -0.11046412 0.006026297 -0.13180225 -0.24040323 0.016946845 -0.22941156
0.026511822 -0.07897722 -0.19191581 0.06294819 -0.18965752 0.15109798 -0.17545319 0.13959603
-0.1924562 -0.108478576 0.17876539 -0.16729146 0.16030064 0.12355873 0.042980626 -0.059863172
-0.027451681 -0.15436819 -0.22945428 -0.18139008 -0.06582477 -0.06409846 0.14026065 0.05014359
0.2288903 0.18591346 0.012331212 -0.037008658 -0.24064624 0.16410339 0.24534017 0.12450274
-0.16219865 0.11608443 -0.12250779 -0.15879592 0.061801277 0.018472102 -0.042039167 -0.1817982
0.13995464 0.09047559 0.12657627 0.21666974 -0.25725257 0.122630134 -0.08362849 -0.25516015
-0.1911614 -0.08943912 0.10342274 0.21002007 -0.11282864 -0.013809346 -0.10086956 -0.16148429
-0.099476375 0.097267814 -0.2140312 -0.0071224547 0.1724561 -0.12681134 0.076507635 0.18054163
-0.085638806 -0.18184474 0.1854102 0.12034135 0.006693632 -0.2533861 0.16408548 0.16383548
-0.06280337 -0.09686309 -0.13864657 -0.04137685 0.11009547 0.2014498
00000000: 78d6 7ebd 622b d5bd b37f 383e eeb4 a8bc
00000010: 1426 39be eff3 eb3d 0af9 42bd b568 723e
00000020: 5ac8 c53d 19d3 bdbd c34a f9bd 80c5 95b9
00000030: b282 1dbd bef6 9a3d f222 74bd 1003 eabd
00000040: 73fa 17be 1032 343e 0bc5 803d 4f3c 82be
00000050: db68 263e a9af fbbc 88be bc3d 9ec7 833e
00000060: 727b 563d 914e 013e 238d 1f3e 5174 023e
00000070: cb8e 16be 8b64 613e a869 9bbd 3ba4 013e
00000080: 54f3 783d 5854 a8bd d86e eabd 611c 843e
00000090: b099 b0bd 1c1e 623e 6c77 82be 117a 3f3e
000000a0: 84c3 e2bd 88ca ff3c 7375 823e 2309 b2bd
000000b0: b204 7a3e 110e 37bb ea44 633e 10c9 e8bd
000000c0: dfe7 80be d416 373e 9a88 003e 240f 0b3d
000000d0: 5cac 52bd 98a0 2cbe 813b 08be 6057 04bd
000000e0: d040 41be 78e0 15be d808 653e 1368 68be
000000f0: 8035 2ebd 71df 50bc 87e9 f33c 9c06 18be
00000100: 156a 7e3e 6e29 7b3d 033b e2bd 3e78 c53b
00000110: 2bf7 06be 442c 76be 1cd4 8a3c ddea 6abe
00000120: 522f d93c cfbe a1bd 9485 44be fbea 803d
00000130: 9535 42be 6eb9 1a3e 00aa 33be 43f2 0e3e
00000140: 3d13 45be 042a debd 460e 373e 744e 2bbe
00000150: da25 243e 5c0c fd3d 740c 303d 1633 75bd
00000160: 59e2 e0bc b212 1ebe 10f6 6abe 52be 39be
00000170: 23cf 86bd 0e46 83bd 7da0 0f3e 5d63 4d3d
00000180: 3862 6a3e 1960 3e3e da08 4a3c 6496 17bd
00000190: f86b 76be b80a 283e 743a 7b3e 4bfb fe3d
000001a0: 6717 26be acbd ed3d 5de5 fabd 669b 22be
000001b0: 5623 7d3d ce52 973c 4331 2cbd 4f29 3abe
000001c0: 4550 0f3e 444b b93d 369d 013e acde 5d3e
000001d0: 9cb6 83be 8225 fb3d 6a45 abbd 5aa4 82be
000001e0: d0bf 43be db2b b7bd 4dcf d33d 800f 573e
000001f0: b412 e7bd 9840 62bc b394 cebd 235c 25be
00000200: 45ba cbbd 5934 c73d ff2a 5bbe 7b63 e9bb
00000210: 5598 303e d5da 01be 09b0 9c3d e8df 383e
00000220: 6663 afbd 8235 3abe 2cdc 3d3e 8775 f63d
00000230: 4156 db3b d3bb 81be 0606 283e 7dc4 273e
00000240: 0e9f 80bd 2860 c6bd 5ef9 0dbe c67a 29bd
00000250: bc79 e13d db48 4e3e

fc2.bias f4 [10]
0.03537453 -0.031179043 0.06396318 -0.07084715 -0.13254702 0.062662065 0.21629906 0.17975232
0.21791229 0.1321883
00000000: e2e4 103d 316b ffbc 21ff 823d 5018 91bd
00000010: 68ba 07be f854 803d 807d 5d3e fe10 383e
00000020: 6624 5f3e 5f5c 073e

fc3.weight f4 [5, 10]
-0.051069155 0.27943087 -0.17268947 0.0919355 0.14835869 0.16467592 -0.13669775 0.031928208
0.1879534 0.31055987 0.0030060948 -0.13107595 0.0011464122 -0.036141746 0.13947149 0.10345443
-0.19186065 -0.20269231 -0.016830858 0.1944428 -0.09642231 -0.26709118 0.23575202 0.20187044
0.1318699 0.23640828 0.08297987 0.12714745 0.08924109 0.2175057 0.28545 -0.18597963
-0.085378475 -0.030068638 0.16667825 0.17331214 -0.06321869 -0.31549165 -0.12073691 0.039260857
0.16644622 0.038608808 0.10809015 0.093561836 -0.30375817 -0.20527047 -0.28581434 -0.002734825
0.13917153 0.19600667
00000000: e42d 51bd 9011 8f3e 82d5 30be ae48 bc3d
00000010: 57eb 173e cea0 283e 7ffa 0bbe 27c7 023d
00000020: db76 403e b401 9f3e e701 453b c638 06be
00000030: 3643 963a 5e09 14bd 9dd1 0e3e ebdf d33d
00000040: 1e77 44be 938e 4fbe dee0 89bc 031c 473e
00000050: 0f79 c5bd 2dc0 88be fa68 713e 20b7 4e3e
00000060: e708 073e 0315 723e 5af1 a93d f132 023e
00000070: 08c4 b63d d0b9 5e3e 8126 923e 7271 3ebe
00000080: e9da aebd 8152 f6bc b4ad 2a3e bd78 313e
00000090: cd78 81bd 1f88 a1be ea44 f7bd fecf 203d
000000a0: e170 2a3e 4524 1e3d 5e5e dd3d 599d bf3d
000000b0: 3186 9bbe 6c32 52be 4256 92be c03a 33bb
000000c0: fb82 0e3e f9b5 483e

fc3.bias f4 [5]
0.017123314 0.15295067 0.099149145 -0.18898822 -0.30883536
00000000: 3146 8c3c 1a9f 1c3e b50e cb3d 2186 41be
00000010: ab1f 9ebe

fc4.weight f4 [1, 5]
-0.042638257 -0.3392915 0.24492148 -0.20378411 0.08860366
00000000: 74a5 2ebd 9eb7 adbe b2cc 7a3e c8ac 50be
00000010: d675 b53d
