nfl_robustness_training/src/controller_models/double_integrator/daggers/di_4layer/robust-constraint_expanded_3.pth (torch, 3535 bytes, 7 tensors)

fc1.weight f4 [15, 2]
0	0x3f003bd3	0.50091285
1	0x3eb55072	0.35412937
2	0x3ef56c0a	0.4793399
3	0x3e842bc4	0.2581464
4	0x3f0102c2	0.50394833
5	0xbef19671	-0.4718509
6	0xbf1a8410	-0.6035776
7	0xbee74e6d	-0.45177022
8	0xbf0b0905	-0.5431064
9	0x3d711283	0.058855545
10	0x3f1c3319	0.6101547
11	0xbe91cc69	-0.28476265
12	0x3f25ee98	0.6481719
13	0xbea7412c	-0.3266691
14	0xbe8394ab	-0.25699362
15	0x3eb60c29	0.35556152
16	0xbdd46dba	-0.10372491
17	0xbee8dcca	-0.4548095
18	0x3e2c9013	0.16851835
19	0x3e9e983d	0.30975524
20	0xbf07a636	-0.5298799
21	0x3ece5061	0.402957
22	0xbe5c6588	-0.21523106
23	0x3ef0baeb	0.47017607
24	0xbf008c57	-0.5021414
25	0x3d22de60	0.039762855
26	0xbf0f57ee	-0.55993545
27	0xbe056038	-0.13024986
28	0xbf1b9763	-0.6077787
29	0x3ecde864	0.40216362

fc1.bias f4 [15]
0	0x3e675283	0.2259007
1	0x3d2133b9	0.039355967
2	0x3d945cb1	0.07244242
3	0xbddfc767	-0.10926705
4	0x3d86cdd1	0.06582225
5	0x3eb1c260	0.3471861
6	0x3f06c1e8	0.5263963
7	0x3e7fed99	0.2499298
8	0x3f01fcff	0.50776666
9	0x3edd4b3d	0.43221465
10	0xbecdd785	-0.4020349
11	0x3dffad84	0.12484267
12	0x3e967c70	0.29391813
13	0x3e7356b1	0.23763539
14	0x3f2bdaf8	0.67130995

fc2.weight f4 [10, 15]
0	0xbe8018a1	-0.2501879
1	0x3d959e4a	0.07305582
2	0x3d5859d3	0.052820038
3	0x3dbf1f51	0.09332145
4	0xbc97f737	-0.018550498
5	0xbe7804d7	-0.24220596
6	0x3de6de36	0.11272852
7	0x3e226198	0.15857542
8	0xbdb00657	-0.08594959
9	0x3e3c1094	0.18365699
10	0x3e3f70f9	0.1869544
11	0xbd075f09	-0.033049617
12	0x3e23ea04	0.16007239
13	0x3e3579af	0.177222
14	0xbd974ac1	-0.07387305
15	0xbc297ef8	-0.010345213
16	0x3e134f58	0.14385736
17	0xbc66f030	-0.014095351
18	0x3e072fe2	0.1320186
19	0x3c114d6c	0.0088685565
20	0xbe13ca2e	-0.14432594
21	0xbe82503b	-0.25451836
22	0x3d8c2e8c	0.068448156
23	0xbe0103b6	-0.12599072
24	0x3e4b0ae2	0.1982837
25	0xbe66dbb7	-0.22544752
26	0xbe4f1530	-0.20222926
27	0x3e5e5c0b	0.21714799
28	0x3d5b8892	0.05359704
29	0xbcb3827f	-0.021912811
30	0x3dbcb130	0.09213483
31	0xbe284ef9	-0.16436376
32	0x3d75a404	0.05997087
33	0xbd098573	-0.033574533
34	0xbe33fdc1	-0.17577268
35	0xbe6b90e2	-0.23004487
36	0x3deafae3	0.11473634
37	0xbd74ec70	-0.059795797
38	0x3e716c2e	0.23576424
39	0xbe7dc61a	-0.24782601
40	0x3dfcda7a	0.123463586
41	0x3cd22318	0.0256515
42	0x3de66d2f	0.11251294
43	0xbda1442e	-0.07874332
44	0x3e59f948	0.212865
45	0xbe82affd	-0.25524893
46	0x3d89b45d	0.06723855
47	0x3e629138	0.22125709
48	0x3e0a55c3	0.13509278
49	0xbe3fb80d	-0.18722554
50	0x3e55bd88	0.20873082
51	0x3dfe2979	0.12410254
52	0xbdcdd664	-0.100506574
53	0x3dcae44e	0.09906827
54	0xbe699ed8	-0.228145
55	0xbca4cc26	-0.020116877
56	0xbdd2ff46	-0.10302596
57	0xbc7ff0f0	-0.015621409
58	0xbc80b6c3	-0.015712148
59	0x3e42a3b9	0.19007768
60	0x3e28eade	0.16495845
61	0xbe55fa9d	-0.20896383
62	0xbe753477	-0.23945795
63	0xbbc78ad8	-0.0060895495
64	0x3dcc16b5	0.099652685
65	0xbe275d16	-0.16344103
66	0xbe07355a	-0.13203946
67	0xbe42a948	-0.19009888
68	0xbe37d304	-0.1795159
69	0xbd8debd8	-0.06929749
70	0xbd3a68d6	-0.045510136
71	0x3e83a1de	0.25709432
72	0xbe441cb3	-0.19151573
73	0x3e7e808f	0.24853729
74	0xbe329353	-0.17439012
75	0xbd27e780	-0.04099226
76	0xbd37ad91	-0.04484326
77	0xbe3dee88	-0.18548024
78	0xbde75f70	-0.112975
79	0xbde84348	-0.11340958
80	0xbe25ee9b	-0.16204302
81	0x3bb646bc	0.0055626314
82	0x3d42e9d7	0.04758629
83	0x3c8f8550	0.017519623
84	0xbe1452c3	-0.14484696
85	0x3cafc452	0.021455918
86	0x3c9976f6	0.018733483
87	0xbe44ab8a	-0.19206062
88	0x3d8ac1f4	0.06775275
89	0xbe83b8ba	-0.25726873
90	0x3cee045b	0.029054811
91	0x3e4a95a5	0.19783647
92	0x3db6b8bb	0.08921953
93	0x3e67f15e	0.22650668
94	0xbe4cdf89	-0.20007147
95	0x3e592a87	0.21207629
96	0xbdb3b33f	-0.08774423
97	0xbdcdff0a	-0.100584105
98	0x3d60b68d	0.054861594
99	0x3e167e55	0.1469663
100	0x3e01273f	0.12612627
101	0xbe3249aa	-0.17410913
102	0x3e20b9fa	0.15695944
103	0x3d8e03a9	0.06934292
104	0x3cc0de05	0.023543367
105	0xbe787334	-0.24262697
106	0x3dea4353	0.11438622
107	0x3e3bee9e	0.18352744
108	0xbdd91e54	-0.10601488
109	0x3e362991	0.17789294
110	0x3dd06758	0.10175961
111	0x3e08f977	0.13376413
112	0x3e77fb29	0.24216904
113	0x3d13bcaf	0.036068615
114	0x3e40daca	0.18833461
115	0xbe5bdb8a	-0.21470466
116	0xbda2c7b0	-0.079482436
117	0x3df1f261	0.11813808
118	0x3deaf473	0.11472406
119	0xbcbf6636	-0.023364168
120	0xbce7a350	-0.028276116
121	0xbd5751ea	-0.052568354
122	0x3e51a51e	0.20473143
123	0x3e4710e4	0.19440037
124	0x3e476b43	0.19474511
125	0xbdd67d1c	-0.104730815
126	0x3dbbcb47	0.091696315
127	0xbdfe63fd	-0.12421415
128	0x3de89785	0.11357025
129	0xbd7ea948	-0.062173158
130	0xbdc454a0	-0.095864534
131	0xbd252985	-0.0403228
132	0x3e611289	0.21979727
133	0x3e5bc641	0.21462347
134	0x3deed145	0.11661009
135	0x3e76b2ec	0.24091691
136	0x3e70a547	0.23500548
137	0x3d3ee187	0.0466018
138	0x3d2765fb	0.04086874
139	0x3e4d055d	0.20021577
140	0x3cb68b7b	0.022283306
141	0xbccb0fa2	-0.024787728
142	0xbe4d1951	-0.20029189
143	0xbde906f7	-0.113782816
144	0x3c547915	0.012968321
145	0x3d9de42e	0.077095374
146	0xbe0b663a	-0.13613215
147	0x3e3807d7	0.1797174
148	0xbd843eb7	-0.064572744
149	0x3e0230a3	0.12713866

fc2.bias f4 [10]
0	0xbdf8ce22	-0.12148692
1	0x3dc8cdd5	0.09804884
2	0x3e736075	0.23767264
3	0x3e04c53d	0.12965865
4	0xbda033d8	-0.078223884
5	0xbdb6f516	-0.08933465
6	0x3df9884f	0.12184202
7	0x3e6c73cd	0.2309105
8	0xbc0569c6	-0.008142894
9	0x3b1d5707	0.0024008171

fc3.weight f4 [5, 10]
0	0x3e081a34	0.13291246
1	0x3e3f4230	0.18677592
2	0x3e984e02	0.29747015
3	0xbc5d7ecd	-0.013519001
4	0xbe307e6d	-0.17235728
5	0xbd1b38fc	-0.03789614
6	0xbe7fcc7f	-0.24980353
7	0xbe76d432	-0.24104384
8	0xbe6dc9cc	-0.2322151
9	0xbe1fcf60	-0.15606451
10	0xbe9664ca	-0.2937377
11	0xba830096	-0.0009994681
12	0xbe483b0a	-0.19553772
13	0x3de7aeee	0.11312662
14	0x3dc9f830	0.09861791
15	0xbe9f8fa1	-0.31164268
16	0xbdd6d299	-0.10489387
17	0x3e47574c	0.19466895
18	0xbe969c32	-0.29416043
19	0xbe5d0031	-0.21582104
20	0x3da7510d	0.08169756
21	0x3e9f562f	0.3112044
22	0xbe5b4821	-0.21414234
23	0xbe6fda01	-0.23423006
24	0xbe734a92	-0.23758915
25	0x3e8ab45a	0.27090722
26	0x3db78e4d	0.089626886
27	0xbe53e752	-0.2069371
28	0x3d9aa5f0	0.07551181
29	0x3e14b776	0.1452311
30	0x3de8f778	0.11375326
31	0xbda51c12	-0.080619946
32	0xbd19585b	-0.037437778
33	0xbe2d362b	-0.16915195
34	0x3e880b67	0.265712
35	0x3def5183	0.11685469
36	0x3e32af8d	0.1744978
37	0x3ea0805e	0.31347936
38	0x3e9fe596	0.31229848
39	0xbda6440f	-0.0811845
40	0xbe4d97d5	-0.2007745
41	0xbc0b47f2	-0.00850104
42	0x3e53c9c6	0.20682439
43	0x3d8acd91	0.0677749
44	0x3e515075	0.20440848
45	0xbe1d47a4	-0.1535936
46	0xbc71e691	-0.014764444
47	0x3dcb7eb6	0.099362776
48	0x3e8e60d0	0.27808237
49	0x3e31ede4	0.17375904

fc3.bias f4 [5]
0	0xbdd81bfd	-0.10552213
1	0xbe231bb1	-0.15928532
2	0xbdc4449e	-0.095834
3	0xbdd4d7d8	-0.103927314
4	0xbe88d051	-0.26721433

fc4.weight f4 [1, 5]
0	0x3d93b9b2	0.07213153
1	0x3ecca270	0.3996768
2	0x3e924a0f	0.28572127
3	0x3ea19c33	0.31564483
4	0xbd0f1fee	-0.03494256
