nfl_robustness_training/src/controller_models/Unicycle_NL/unicycle_nl_4layer/natural_none_expanded.pth (torch, 7311 bytes, 8 tensors)

fc1.weight f4 [40, 3]
0	0xbee4a1ef	-0.44654796
1	0x3e47abfd	0.19499202
2	0xbbb3ba8b	-0.005484884
3	0x39379fe5	0.00017511805
4	0x3ea570eb	0.32312712
5	0x3e2e815a	0.17041531
6	0xbe74b997	-0.23898922
7	0xbf0ebb2f	-0.5575437
8	0xbf82c2dd	-1.0215718
9	0xbef5d11e	-0.48011106
10	0xbef19d45	-0.471903
11	0xbda85f65	-0.0822132
12	0x3e7a64ed	0.24452563
13	0x3eaa0503	0.3320695
14	0xbdc131a1	-0.09433294
15	0x3f246863	0.6422178
16	0x3e628e09	0.22124495
17	0x3f03e92d	0.51527673
18	0xbea8f85b	-0.3300198
19	0xbea732cd	-0.32655945
20	0xbf6cdc69	-0.9252382
21	0x3eb33f13	0.3500906
22	0xbe59f299	-0.2128395
23	0x3f320ed8	0.695539
24	0xbdbc0a49	-0.09181649
25	0x3ec13dfb	0.377426
26	0x3f6ba600	0.9205017
27	0x3d3299d0	0.04360372
28	0xbe32d48c	-0.17463893
29	0xbe597e49	-0.2123958
30	0x3e0dbf65	0.13842542
31	0xbf34bf2f	-0.70604223
32	0x3f012d15	0.50459415
33	0xbda93db2	-0.082637206
34	0xbf8c038f	-1.0938586
35	0xbf1e0612	-0.6172801
36	0x3f2b11a6	0.66823804
37	0xba1dbe30	-0.0006017415
38	0xbf5b816c	-0.8574436
39	0x3ec75d0a	0.3893817
40	0xbe5a1861	-0.21298362
41	0xbf1af007	-0.605225
42	0xbd0b2403	-0.03396989
43	0xbeb29f73	-0.34887275
44	0xbf64e768	-0.894156
45	0xbd74770c	-0.059683844
46	0xbebe4e90	-0.37169313
47	0xbec6c99e	-0.38825697
48	0x3f0a8a4a	0.5411726
49	0x3e51e98b	0.20499246
50	0xbe80b5da	-0.25138742
51	0x3eaa500f	0.33264205
52	0xbe6a67f1	-0.22891213
53	0xbe822a9e	-0.2542314
54	0x3e80cae6	0.251548
55	0xbed3f769	-0.41399696
56	0x3ee9cbc7	0.45663282
57	0xbe103ef3	-0.14086513
58	0x3f11d751	0.5696917
59	0x3e2edad3	0.17075662
60	0xbe83d3cd	-0.2574753
61	0x3e5edf63	0.21764903
62	0x3e228604	0.15871435
63	0x3f3f04b1	0.74616534
64	0x3e809d12	0.25119835
65	0x3eff12ee	0.4981913
66	0x3ea412aa	0.3204549
67	0x3e0b6118	0.13611257
68	0xbe3fb461	-0.18721153
69	0xbe94be04	-0.2905122
70	0x3f21a12f	0.6313657
71	0xbc5a0ade	-0.013308255
72	0xbe958922	-0.29206187
73	0x3e9dd1a5	0.3082401
74	0xbe4905bd	-0.19631095
75	0xbf07072b	-0.5274531
76	0x3f1eb481	0.6199418
77	0x3e1ac438	0.15113914
78	0x3e70f520	0.23531008
79	0xbe4123d0	-0.18861318
80	0xbf3546df	-0.70811266
81	0x3eab3530	0.33439016
82	0xbf142ff4	-0.5788567
83	0xbf15bb5b	-0.58489007
84	0x3e8452a2	0.25844294
85	0xbf08f915	-0.5350507
86	0xbee4237e	-0.44558328
87	0x3f2a9416	0.6663221
88	0x3e76ea7c	0.24112886
89	0xbf27d717	-0.65562576
90	0x3ea9a9ba	0.33137304
91	0xbf2dcc0a	-0.67889464
92	0x3f26d108	0.65162706
93	0xbefb5903	-0.49091348
94	0xbef7fe25	-0.48436084
95	0xbe09ea91	-0.13468386
96	0xbed36e7f	-0.4129524
97	0x3ecfc69d	0.40581217
98	0x3e460813	0.19339018
99	0xbd497f2a	-0.04919354
100	0x3e0e5db6	0.13902935
101	0xbf134217	-0.5752272
102	0x3ecff5ca	0.4061721
103	0xbe33ed0b	-0.17570893
104	0xbf645c64	-0.89203477
105	0x3f0742c3	0.52836245
106	0xbe87a670	-0.2649417
107	0x3e28a40a	0.16468826
108	0x3eb790a4	0.3585254
109	0xbc6f47c5	-0.0146045135
110	0xbf02da61	-0.5111447
111	0xbe357930	-0.1772201
112	0x3cb759ae	0.02238163
113	0x3f15c37d	0.58501416
114	0x3ecde0c6	0.4021055
115	0x3e9509a0	0.29108906
116	0xbda1537d	-0.07877252
117	0x3f094033	0.53613585
118	0xbedd270a	-0.43193847
119	0xbe398099	-0.18115462

fc1.bias f4 [40]
0	0xbf1b6afd	-0.60710126
1	0x3f550a07	0.83218426
2	0x3ebf2b9a	0.37337953
3	0x3e7a5a70	0.24448562
4	0xbe8adcc8	-0.27121568
5	0xbdaf43da	-0.085578635
6	0x3c28db9f	0.010306268
7	0x3e966546	0.2937414
8	0xbf50bd47	-0.81538814
9	0x3f655363	0.89580363
10	0x3c10b868	0.008833028
11	0x3dc971bd	0.09836147
12	0x3dd8dc66	0.10588913
13	0x3e930d8f	0.28721282
14	0xbdde7521	-0.10862184
15	0x3f51c7de	0.819456
16	0x3f1e94c5	0.61945754
17	0x3e968ba2	0.29403406
18	0x3dcbc2b5	0.09949247
19	0x3f41ecd7	0.75752014
20	0x3f006f3f	0.5016975
21	0x3f2b0c3d	0.6681555
22	0xbee4b028	-0.44665647
23	0x3e818ccd	0.25302735
24	0x3e5735fc	0.21016687
25	0x3dbd4412	0.09241499
26	0x3daea559	0.08527631
27	0x3ebb8ea2	0.36632258
28	0x3f2ee7ff	0.6832275
29	0xbea4bf09	-0.32176998
30	0xbe75ad2b	-0.2399184
31	0xbe52219e	-0.20520636
32	0xbef4e263	-0.4782897
33	0x3e7c77dc	0.24655098
34	0xbe422848	-0.18960679
35	0xbf187c6b	-0.59564847
36	0x3ea23514	0.3168112
37	0xbe8d9283	-0.27650842
38	0x3ee4e951	0.44709256
39	0x3f03a009	0.5141607

fc2.weight f4 [20, 40]
0	0xbdb0dbb9	-0.08635659
1	0x3da57a2b	0.08079942
2	0x3d3cdb4b	0.04610757
3	0xbd2bd33e	-0.041949503
4	0xbdd12ce0	-0.10213637
5	0xbd83c09e	-0.06433223
6	0x3e1f7761	0.15572883
7	0xbdbb9772	-0.09159745
8	0xbdf024c3	-0.11725762
9	0xbdd4814e	-0.103762254
10	0x3e05a2a7	0.13050328
11	0x3d6b703e	0.05748009
12	0xbdc54f40	-0.09634256
13	0x3e219b9e	0.1578202
14	0xbdfa6989	-0.122271605
15	0xbe1d87d6	-0.15383849
16	0xbde5e776	-0.11225788
17	0x3db69999	0.08916015
18	0xbd71b54b	-0.059010785
19	0xbd829a54	-0.06377092
20	0xbd4a9e26	-0.04946723
21	0xbdc07ec3	-0.09399178
22	0x3e1b2c5e	0.15153643
23	0xbadcad75	-0.0016836362
24	0xbd3321e3	-0.04373349
25	0x3e17c3c8	0.14820778
26	0xbe164733	-0.14675598
27	0xbd7db7c2	-0.061942823
28	0x3e1d9697	0.15389477
29	0xbdf0422e	-0.11731373
30	0x3d745d39	0.059659217
31	0xbdd9d0e5	-0.106355466
32	0xbe04ca06	-0.12967691
33	0xbd710e21	-0.058851365
34	0xbdf4db06	-0.11955838
35	0xbd40393b	-0.04692958
36	0xbdadcc17	-0.08486193
37	0xbd8b6a2b	-0.06807359
38	0xbd3fc338	-0.046817034
39	0xbd8cb114	-0.068697125
40	0xbd81567c	-0.06315324
41	0x3def4c7d	0.11684511
42	0xbc953ac9	-0.018216508
43	0xbc660b52	-0.014040785
44	0xbda5ca2c	-0.08095202
45	0x3d8bf604	0.06834033
46	0xbe0f5fee	-0.14001438
47	0x3d74d44f	0.059772786
48	0x3da3c7b9	0.079970784
49	0x3eb14e37	0.34629986
50	0xbe218248	-0.15772355
51	0x3e3ca8fc	0.18423837
52	0xbe24177b	-0.16024582
53	0xbdbf7d37	-0.09350055
54	0xbf3a80f9	-0.72853047
55	0x3d023c4c	0.031795785
56	0x3d6e38cd	0.05815964
57	0xbea08b7f	-0.31356427
58	0x3b79f548	0.0038140584
59	0x3d8b9d1a	0.06817074
60	0x3e4bbed6	0.19897017
61	0xbe6bda66	-0.23032531
62	0xbde247a1	-0.110488184
63	0x3e082161	0.13293983
64	0xbbf6469d	-0.007515742
65	0x3d75d5b7	0.060018267
66	0xbeac7529	-0.33683136
67	0xbea18796	-0.31548756
68	0xbe5c9a7d	-0.21543308
69	0xbd0b58b9	-0.03402016
70	0xbd21058e	-0.039311938
71	0xbe0ac49c	-0.13551563
72	0x3d8b616c	0.06805691
73	0xbcee8a16	-0.029118579
74	0xbbffe4c6	-0.0078092543
75	0xbe8e3ecd	-0.27782288
76	0x3be04c38	0.0068450235
77	0xbe18d4df	-0.14924954
78	0xbec4f4a1	-0.38467887
79	0xbedb2f0b	-0.42809328
80	0xbe0467fb	-0.1293029
81	0x3d2e16cf	0.04250222
82	0xbd70b1d4	-0.05876334
83	0x3d84e2d0	0.064885736
84	0x3d3b72fd	0.04576396
85	0x3e1244ab	0.14284007
86	0xbd37bc40	-0.044857264
87	0xbd4dc765	-0.050238986
88	0xbe13e572	-0.14442995
89	0xbca25230	-0.01981458
90	0x3e2034e5	0.15645178
91	0xbdd2951e	-0.10282348
92	0xbdeadaf4	-0.11467543
93	0x3dc297e2	0.095016256
94	0x3d81c357	0.06336086
95	0x3df64f34	0.120268255
96	0xbdddf773	-0.10838213
97	0xbd56b0c8	-0.052414685
98	0x3e16a536	0.1471146
99	0xbdcb4146	-0.09924559
100	0xbde22883	-0.11042883
101	0xbd6b5aa4	-0.05745949
102	0xbe17830b	-0.14796083
103	0xbd5d8742	-0.05408407
104	0x3c1c24ee	0.009530289
105	0x3d356b90	0.044292033
106	0x3dbf5473	0.09342279
107	0xbd7a7218	-0.061143965
108	0xbda89a0e	-0.082325086
109	0xbdf8f412	-0.12155928
110	0xbba680a8	-0.005081255
111	0xbd08c4cc	-0.033390805
112	0xbe07f7da	-0.13278142
113	0x3db43291	0.08798707
114	0x3d5a53b2	0.053302474
115	0xbdae0e61	-0.08498836
116	0xbdf86cc8	-0.121301234
117	0xbdc7634d	-0.09735737
118	0xbda9a649	-0.082836695
119	0xbdd96819	-0.10615558
120	0xbdbbdf51	-0.091734536
121	0x3e7d7b01	0.24753954
122	0xbe10ee0e	-0.1415331
123	0x3daf21e2	0.085513845
124	0xbde8bd8d	-0.11364279
125	0xbc0c825a	-0.008576
126	0xbd491317	-0.04909047
127	0xbe42232e	-0.18958732
128	0xbd0316cb	-0.03200416
129	0x3edb5b00	0.42842865
130	0x3a9a080b	0.0011751665
131	0x3ec72a19	0.38899305
132	0x3cb578fd	0.022152418
133	0xbe2df769	-0.1698891
134	0xbf4b1efc	-0.79344153
135	0x3d3d6fec	0.046249315
136	0x3bb130a7	0.005407411
137	0xbf158d9b	-0.584192
138	0xbeb2d276	-0.34926194
139	0x3e6b2a1d	0.22965284
140	0x3dc029ab	0.093829475
141	0xbe0a86ec	-0.13528031
142	0xbdddf31d	-0.10837386
143	0x3bec3f73	0.007209712
144	0xbd7a0e9d	-0.061049093
145	0xbdad3f2d	-0.084593154
146	0xbe9ae49f	-0.3025255
147	0xbf11a317	-0.5688948
148	0xbd987e51	-0.07445968
149	0x3d93b615	0.07212464
150	0xbceb6980	-0.02873683
151	0x3dee82df	0.116460554
152	0x3def5cdd	0.11687634
153	0xbd6b913b	-0.05751155
154	0xbe40c75d	-0.18826051
155	0xbcfe83fc	-0.031068794
156	0xbeb560fd	-0.3542556
157	0xbe5691bf	-0.20954035
158	0xbee6d0f2	-0.45081288
159	0xbeeefb12	-0.46675926
160	0xbe0349cd	-0.12821122
161	0x3e892883	0.2678872
162	0xbdaf3d7b	-0.08556648
163	0xbe46a610	-0.19399285
164	0x3e0557b3	0.13021736
165	0x3e277372	0.16352633
166	0xbe09a964	-0.13443524
167	0xbef0070a	-0.4688037
168	0xbda7820b	-0.081791006
169	0x3f050b98	0.51970816
170	0xbf018959	-0.506002
171	0x3e909b1e	0.28243345
172	0xbdf677e4	-0.12034586
173	0xbe39652c	-0.18105
174	0xbeb00f86	-0.34386843
175	0x3e09f7f4	0.13473493
176	0xbd1be8d0	-0.038063824
177	0xbe191a0b	-0.14951341
178	0xbf11c519	-0.5694137
179	0x3df1c1c0	0.11804533
180	0xbca6f224	-0.020379134
181	0xbe9d338b	-0.30703387
182	0xbe0ffcb5	-0.14061244
183	0xbcfa7704	-0.03057433
184	0x3dbd2ce9	0.092370816
185	0x3e1b52f4	0.15168363
186	0x3cf28c45	0.029607901
187	0xbeaf68d1	-0.34259656
188	0xbe7ba99d	-0.24576421
189	0xbe1c9d42	-0.15294364
190	0xbeb1085c	-0.3457669
191	0xbe14aeba	-0.14519778
192	0xbe120051	-0.14257933
193	0x3e6e29e8	0.23258173
194	0x3d2d1bb2	0.04226274
195	0x3a0f89d5	0.00054755557
196	0xbdc28c37	-0.094994
197	0xbea96d08	-0.33090997
198	0xbe8cfd05	-0.2753679
199	0xbe7efad6	-0.24900374
200	0xbe02b6ef	-0.12765096
201	0x3d90735d	0.07053254
202	0x3caff50b	0.02147915
203	0x3d7bde38	0.06149122
204	0xbdf89121	-0.12137056
205	0x3e494442	0.19654945
206	0x3a24fa5d	0.00062934106
207	0xbd3c4b54	-0.045970276
208	0x3dccd365	0.10001258
209	0xbda2c9bf	-0.07948636
210	0x3e0fc0de	0.14038417
211	0x3f45fc27	0.7733788
212	0xbec9129a	-0.39272004
213	0xbe3eeb5e	-0.18644473
214	0x3f107ac4	0.56437325
215	0x3e935d2d	0.28782025
216	0xbe614cd2	-0.22001961
217	0xbe9c2396	-0.304959
218	0x3e54d451	0.20784117
219	0x3e24a80c	0.1607973
220	0xbb9aabb6	-0.0047201766
221	0xbe83bf2b	-0.25731787
222	0x3ce0a385	0.027421722
223	0x3da43945	0.08018736
224	0xbda9d073	-0.08291712
225	0x3da365e6	0.0797842
226	0xbe2afbc2	-0.166976
227	0xbdf5492b	-0.11976846
228	0x3d4eaa65	0.05045547
229	0xbe0402e5	-0.12891729
230	0x3ea8cc93	0.32968578
231	0xbc812efe	-0.015769478
232	0x3d92d7cb	0.071700655
233	0x3dcc6ade	0.09981321
234	0xbe8d87fa	-0.27642804
235	0xbe3e48e8	-0.18582499
236	0xbe038c2b	-0.12846439
237	0xbe1d9db8	-0.15392196
238	0xbe6c4df4	-0.23076612
239	0xbe91b7f5	-0.2846066
240	0x3e106b4a	0.14103428
241	0xbe4ba8ec	-0.19888657
242	0xbe4107db	-0.18850653
243	0x3c18441e	0.009293584
244	0x3da8f6d2	0.08250202
245	0xbd66525b	-0.056230884
246	0x3d0154b3	0.031574916
247	0x3e37cf1d	0.17950101
248	0x3ea05bda	0.31320077
249	0x3e99aaef	0.30013224
250	0x3df2a12e	0.11847149
251	0x3e036559	0.1283163
252	0xbe2723e3	-0.16322283
253	0xbc5b50eb	-0.013385992
254	0x3d29f2cc	0.041491315
255	0xbe9c2a78	-0.3050115

fc2.bias f4 [20]
0	0xbe1eabdb	-0.15495245
1	0x3e3287b3	0.17434578
2	0xbe09f73d	-0.1347322
3	0x3e3791ac	0.17926663
4	0x3f0bb92a	0.5457941
5	0x3dbd6597	0.09247892
6	0xbe858af3	-0.26082572
7	0xbe1c4bb0	-0.15263247
8	0xbc8d72bf	-0.01726663
9	0x3e3f6347	0.18690215
10	0x3e0f1647	0.13973342
11	0x3da730fb	0.08163639
12	0x3e72473b	0.23659985
13	0x3d2cacd6	0.042157017
14	0x3dfbb23f	0.12289857
15	0x3d616491	0.05502755
16	0x3e366dbf	0.17815302
17	0xbda21640	-0.079144
18	0x3dd860ed	0.10565362
19	0x3e8afad3	0.2714449

fc3.weight f4 [10, 20]
0	0x3e1846d7	0.14870773
1	0x3da8955e	0.082316145
2	0x3d927b79	0.07152457
3	0xbd84e6e5	-0.06489352
4	0xbdd7c6e4	-0.10535982
5	0x3ea8e81b	0.32989582
6	0xbf187ce5	-0.59565574
7	0xbe3662ac	-0.17811078
8	0x3e73de90	0.2381537
9	0x3d063d65	0.032773394
10	0x3e9d0263	0.30665883
11	0xbdd4d5e8	-0.10392362
12	0x3dd1ec07	0.10250097
13	0x3dbb16a5	0.091351785
14	0x3cacf2d2	0.02111188
15	0x3ee57b2e	0.4482054
16	0x3e23e499	0.16005172
17	0x3d184c79	0.037182305
18	0x3d7eb39a	0.062183
19	0x3df3b201	0.11899186
20	0xbcc038ec	-0.023464642
21	0x3e67b26d	0.22626658
22	0xbde65059	-0.11245794
23	0x3e6a3caf	0.22874711
24	0x3f1cd433	0.6126129
25	0x3e2e983b	0.17050259
26	0x3f1f2e17	0.621797
27	0x3e394fa4	0.18096787
28	0x3ddc3525	0.10752324
29	0x3e833609	0.25627163
30	0xbd5f42fb	-0.054507237
31	0xbbd08a6a	-0.0063641565
32	0x3d8fbc54	0.070183426
33	0xbda63e8a	-0.08117397
34	0x3d9e9ff3	0.07745352
35	0xbe226c17	-0.15861546
36	0x3e807b10	0.2509389
37	0xbd8b6ca9	-0.06807835
38	0xbba3673e	-0.0049866727
39	0x3c254fbb	0.01008981
40	0x3e60b155	0.21942647
41	0xbe9c3031	-0.30505517
42	0x3d7cb005	0.061691303
43	0x3d8591ec	0.06521973
44	0x3e1fb6c8	0.1559707
45	0xbe07332d	-0.13203116
46	0x3b972b47	0.0046133134
47	0xbd5ab350	-0.053393662
48	0x3c9dd801	0.019268038
49	0x3e046db5	0.12932475
50	0x3de72e99	0.11288185
51	0x3e082dc5	0.1329871
52	0xbe13e7ad	-0.14443846
53	0xbe1e2f80	-0.15447807
54	0xbddd138d	-0.10794745
55	0x3d409397	0.047015753
56	0xbd2984d0	-0.041386425
57	0xbdf559e1	-0.11980034
58	0x3e60e246	0.21961316
59	0x3d39ab6c	0.045329496
60	0xbdaa9fbb	-0.083312474
61	0xbe011234	-0.126046
62	0xbdd0fffe	-0.10205077
63	0x3d0970eb	0.033554953
64	0xbec46cae	-0.38364166
65	0x3e0a5ae2	0.13511232
66	0xbf5ebbfb	-0.87005585
67	0xbe05c3db	-0.13062994
68	0x3d529108	0.051407844
69	0x3e01e43b	0.1268472
70	0xbe04c425	-0.12965448
71	0xbd8b8531	-0.068125136
72	0x391af627	0.00014778283
73	0xbe3dd471	-0.18538071
74	0x3e020cd3	0.12700205
75	0x3f07e8eb	0.5308978
76	0x3c3d5399	0.011555576
77	0x3c8e1e47	0.017348422
78	0xbe593bff	-0.21214293
79	0xbe9bcce2	-0.3042975
80	0xbe2d2e6f	-0.16912244
81	0xbe47a2cb	-0.19495694
82	0xbe0d918f	-0.13825057
83	0xbdd4e978	-0.10396093
84	0xbe22dc13	-0.15904264
85	0xbe424614	-0.18972045
86	0xbd0ce447	-0.03439739
87	0x3c82ea86	0.01598097
88	0x3d4d5832	0.050132938
89	0x3c6679ac	0.014067095
90	0xbe33169b	-0.17489092
91	0x3e2dfef8	0.16991794
92	0xbe3cb21b	-0.18427317
93	0xbdbb712e	-0.09152447
94	0x3d0a9ed8	0.03384289
95	0xbe2e5ce4	-0.17027622
96	0xbd7a78c9	-0.061150346
97	0xbd58eb85	-0.052958984
98	0xbd3192bb	-0.043352824
99	0xbe615186	-0.22003755
100	0x3df8a81e	0.12141441
101	0xbe01fbe6	-0.12693748
102	0x3e31c91a	0.1736187
103	0xbea0c45d	-0.31399813
104	0x3db0968a	0.08622463
105	0xbe92fc67	-0.28708193
106	0x3cb8479f	0.02249509
107	0x3d890ab1	0.06691492
108	0xbe0b5216	-0.13605532
109	0xbe125826	-0.14291438
110	0xbe148436	-0.1450356
111	0x3de4a667	0.11164551
112	0x3dafcdfa	0.08584209
113	0x3d9886bb	0.07447573
114	0xbebcf289	-0.3690379
115	0xbddac914	-0.10682884
116	0xbe121dbc	-0.14269155
117	0x3d18639e	0.037204377
118	0xbe4ac470	-0.19801497
119	0x3edfd8a4	0.4371997
120	0xbda139b5	-0.07872335
121	0xbdd4ec93	-0.103966855
122	0xbe5c1fc5	-0.21496494
123	0xbe339f01	-0.17541124
124	0xbe33a73e	-0.17544267
125	0x3db3b6aa	0.08775075
126	0xbdbd5e09	-0.092464514
127	0x3bf5245d	0.0074811415
128	0xbdf3894b	-0.11891421
129	0x3dbcf68d	0.09226713
130	0xbd962cf6	-0.07332794
131	0xbddf6bc8	-0.109092295
132	0xbe21e52f	-0.15810083
133	0x3be7bd1e	0.007072105
134	0x3e364896	0.17801127
135	0xbe00261c	-0.12514538
136	0xbde0c242	-0.10974552
137	0x3e2224a2	0.15834287
138	0x3d8fa276	0.07013409
139	0xbdcc4121	-0.0997336
140	0x3cd1d2b6	0.02561317
141	0x3c5bd647	0.013417787
142	0x3dcfda33	0.1014904
143	0x3e94a18b	0.29029498
144	0x3ef60542	0.48050886
145	0x3d16a1b5	0.03677531
146	0x3cd46a4c	0.025929593
147	0x3cdc32d3	0.026879704
148	0xbe2a4505	-0.16627891
149	0x3de1a823	0.11018398
150	0x3e985d67	0.2975876
151	0xbe02640a	-0.12733474
152	0x3e171485	0.14753921
153	0xb91b877b	-0.00014832422
154	0x3d05db6e	0.032679968
155	0x3e1d05ac	0.15334195
156	0x3e453df2	0.19261912
157	0x3dc6a7f5	0.09700004
158	0x3e0299b2	0.12753943
159	0xbe3eaa3d	-0.18619628
160	0xbdd0c825	-0.101944245
161	0xbf2212e8	-0.633101
162	0x3dac8fea	0.08425887
163	0xbe9718f0	-0.29511213
164	0x3e8fdb5f	0.28097054
165	0x3c38de5a	0.0112834815
166	0x3ec9fccb	0.39450678
167	0x3dc8d932	0.09807052
168	0xbecd1b11	-0.40059713
169	0x3e89469f	0.26811692
170	0xbe52bd48	-0.20580018
171	0xbdb34ca6	-0.08754854
172	0xbdca94df	-0.09891676
173	0xbbffa5e8	-0.00780176
174	0x3e8ac876	0.27106065
175	0x3e23d4f3	0.15999202
176	0x3eaa701e	0.33288664
177	0x3e2c07e4	0.16799885
178	0x3de89356	0.11356227
179	0x3ce92feb	0.028465232
180	0x3e4cb381	0.1999035
181	0x3e4e12e5	0.20124395
182	0x3e2387a8	0.15969718
183	0x3e935cbc	0.28781688
184	0x3f45c05e	0.77246654
185	0xbe15385b	-0.14572279
186	0x3f7cb6cd	0.9871643
187	0x3dd43a18	0.10362643
188	0x3d86ecb5	0.06588117
189	0xbe1a6e47	-0.1508113
190	0xbdab2de1	-0.0835836
191	0xbe5e0792	-0.21682575
192	0x3ea729be	0.32649034
193	0x3db3d330	0.08780515
194	0x3e4890d8	0.19586504
195	0xbefe482a	-0.49664432
196	0xbc4d3f0e	-0.01252724
197	0xbe5de8b6	-0.21670803
198	0x3d702db1	0.058637325
199	0x3e1defb0	0.15423465

fc3.bias f4 [10]
0	0xbcbf556c	-0.023356162
1	0x3c45c585	0.012071018
2	0xbcbd1a4b	-0.023083827
3	0x3d73df97	0.059539404
4	0xbe418d6a	-0.18901601
5	0x3e25dd17	0.1619762
6	0xbce06560	-0.02739209
7	0x3e3aac72	0.18229845
8	0x3e01a9f9	0.12662496
9	0x3ea00aab	0.3125814

fc4.weight f4 [2, 10]
0	0x3ea0d8d5	0.3141543
1	0x3e8eaaa6	0.2786457
2	0xbe336df1	-0.17522408
3	0x3d8df511	0.06931508
4	0xbd521f4b	-0.051299375
5	0x3e2e5e0d	0.17028065
6	0x3d9ada86	0.07561211
7	0x3f049538	0.5179019
8	0xbf011068	-0.5041566
9	0x3de56593	0.11201014
10	0x3e70d703	0.2351952
11	0xbe0ed79c	-0.13949436
12	0xbed42a06	-0.4143831
13	0x3f1d121c	0.6135576
14	0x3e1c99c1	0.15293027
15	0xbf64b518	-0.8933883
16	0x3e88c139	0.26709917
17	0x3d339f0c	0.04385285
18	0x3ef69217	0.48158333
19	0xbf1c48ed	-0.61048776

fc4.bias f4 [2]
0	0xbe4b41a0	-0.19849253
1	0xbdbf9215	-0.09354035
