carv/controller_models/double_integrator/di_4layer/constraint_default_5hz.pth (torch, 6159 bytes, 7 tensors)

fc1.weight f4 [30, 2]
-0.5406928 0.4369041 -0.16691306 -0.20443359 0.38006622 0.49088606 -0.35489592 -0.8023337
-0.39741963 -0.68445516 -0.4414353 0.24993682 0.3578079 0.30276382 0.058810003 0.43031043
0.78287756 0.46970487 -0.3823638 -0.27129167 -0.24553578 0.26019034 0.18135844 0.67208004
-0.0791619 0.6333487 0.35643494 -0.06598057 -0.35582444 0.27368683 0.039157707 -0.35753644
0.5416126 -0.21258524 -0.4376846 -0.6294276 0.6969798 0.41811773 -0.46828446 0.541189
0.052481197 -0.8135856 0.35454878 -0.38903704 -0.24991438 0.029656526 -0.63847345 0.011791051
0.6621348 0.22762258 -0.07777619 0.3221984 -0.06186078 -0.22787604 0.22261955 0.054969348
0.3486277 -0.3246241 0.56951874 0.45124006
00000000: d86a 0abf e5b1 df3e 42eb 2abe 0a57 51be
00000010: 0a98 c23e 6b55 fb3e ebb4 b5be be65 4dbf
00000020: 967a cbbe 7438 2fbf cf03 e2be 70ef 7f3e
00000030: 9932 b73e dc03 9b3e c2e2 703d a651 dc3e
00000040: aa6a 483f 287d f03e 30c5 c3be bee6 8abe
00000050: bb6d 7bbe ab37 853e 07b6 393e 700d 2c3f
00000060: a21f a2bd 2423 223f a47e b63e d220 87bd
00000070: 9f2e b6be ae20 8c3e d563 203d 040f b7be
00000080: 20a7 0a3f f2af 59be 3218 e0be 2b22 21bf
00000090: 456d 323f 8713 d63e fbc2 efbe 5d8b 0a3f
000000a0: 86f6 563d 2547 50bf 6b87 b53e dd2f c7be
000000b0: 8ee9 7fbe 3ef2 f23c ff72 23bf 412f 413c
000000c0: ab81 293f e515 693e 2049 9fbd 30f7 a43e
000000d0: bb61 7dbd 5658 69be 61f6 633e 8a27 613d
000000e0: 547f b23e 2135 a6be fbcb 113f f008 e73e

fc1.bias f4 [30]
-0.28625596 0.38853583 0.0859056 0.7130906 0.69183844 0.45897073 0.5059367 0.26505128
-0.27966115 -0.40843627 0.7651021 0.35257557 -0.5434271 0.31475803 -0.22758403 -0.64298135
0.81802595 0.26290527 0.19549362 -0.020299185 -0.45677093 0.811747 -0.25168088 -0.6980284
0.6748161 -0.30331132 -0.3784192 0.5919686 0.5066113 -0.4742969
00000000: 2490 92be 2bee c63e 46ef af3d 1b8d 363f
00000010: 531c 313f 36fe ea3e 1185 013f cdb4 873e
00000020: bf2f 8fbe 8f1e d1be bbdd 433f c984 b43e
00000030: 0a1e 0bbf f727 a13e ca0b 69be 6d9a 24bf
00000040: 266a 513f 859b 863e 7b2f 483e 7a4a a6bc
00000050: e1dd e9be a7ce 4f3f 51dc 80be fdb1 32bf
00000060: bfc0 2c3f 9f4b 9bbe 29c0 c1be 418b 173f
00000070: 47b1 013f 0bd7 f2be

fc2.weight f4 [20, 30]
-0.013748101 -0.11018337 0.11906331 -0.18561666 -0.12559664 -0.08230422 -0.13790755 0.12251217
-0.12501377 -0.03060601 0.015562633 -0.049895775 0.008194936 -0.054417174 -0.16208974 0.15180692
-0.09451488 0.036997344 0.09536007 0.049202785 -0.13774222 -0.028443828 0.025640149 0.07950823
0.10341303 0.15014273 -0.005570895 0.13772005 -0.064346276 -0.110257216 -0.05656637 0.177222
0.20949718 0.1169449 -0.018386614 -0.08774506 0.11430622 0.22078405 -0.047736656 0.13788635
-0.03709374 0.07958207 -0.11394729 0.12511362 -0.07583425 0.16635425 0.28575912 0.035678305
0.036515057 0.15276912 0.08638429 0.29087222 -0.13414885 -0.0029519028 0.08790564 -0.04208859
-0.017496947 0.13028389 0.29077354 -0.074501015 -0.14474492 0.1735789 -0.20509018 0.15000132
0.032506965 -0.21958652 0.01203823 -0.11610671 -0.03761278 0.106004365 -0.049807325 -0.030195951
0.053240437 -0.035054658 -0.110051855 -0.07428446 0.22523515 0.031001551 -0.17946951 -0.11088114
0.31502923 0.14315873 -0.10514082 0.17640819 -0.13383901 -0.17763738 -0.12962423 0.15516889
-0.011220199 -0.18438666 -0.057119835 -0.12209979 0.16078441 -0.0153227905 -0.06381454 0.15742397
-0.18356842 -0.08621214 0.16795266 -0.13546222 0.05503136 -0.13800012 -0.149738 -0.08183778
-0.13805412 -0.05418961 -0.111837536 -0.08998672 -0.06806407 -0.07054837 -0.09094096 -0.016426094
0.02140124 -0.04486429 -0.107441925 0.14583738 -0.14456657 0.13922392 0.030046785 -0.038072363
-0.1512882 0.026380576 -0.1424935 0.1073985 -0.009531557 -0.15225536 0.16753218 0.02102188
0.05379383 -0.0016385107 0.14926033 -0.0798336 -0.12758076 0.09519129 -0.022550035 0.029525165
-0.15186375 0.06656656 -0.18768947 -0.005663886 -0.06550769 -0.174153 0.044289403 -0.03832526
0.023233134 -0.1562725 0.15117712 -0.1885436 -0.11212147 -0.123435006 -0.14078094 0.02724101
-0.07135084 0.05372321 0.031528033 0.14221752 -0.07385416 -0.06379249 -0.17629807 -0.015009968
0.1585047 -0.122808255 -0.13241579 0.088527024 0.0646305 0.13887382 -0.14646837 -0.064878374
0.14860207 -0.10575131 -0.11768591 -0.08762581 -0.1639901 -0.056350738 -0.010435314 0.051144034
0.10787535 -0.09209673 -0.116226934 -0.15039699 0.0026787163 -0.04708898 -0.14805244 0.09269865
0.05265097 -0.089376524 -0.14948018 -0.103694536 -0.10490195 -0.11460766 -0.12850745 0.116987415
-0.14341216 0.06804519 -0.1227986 -0.074873015 -0.07241915 -0.00914214 -0.046259232 0.066030085
0.14322865 0.10270359 0.075907886 0.10544913 -0.1298355 -0.10871298 0.15315208 -0.18616062
-0.17963003 0.15508838 0.012008243 0.08445054 -0.13456112 -0.046575587 -0.1044618 -0.12694144
-0.029805686 -0.1599169 0.04267676 0.10553672 -0.09871606 0.122063324 0.11867006 -0.110736735
-0.14572243 -0.0066607543 -0.1638915 -0.15536785 -0.09731201 -0.13438138 -0.06299903 -0.024618994
0.0012493933 -0.15152022 0.14076568 0.119985834 -0.12285858 -0.12737334 0.06946553 0.14823933
-0.12225743 0.08746121 -0.22180666 0.062136374 0.31246257 -0.0746996 0.06377605 0.11394095
-0.24973631 -0.021150006 -0.124737486 -0.13357805 -0.16236526 -0.049958054 0.081413165 0.15909564
00000000: b73f 61bc d2a7 e1bd 77d7 f33d 4b12 3ebe
00000010: 689c 00be 1d8f a8bd a337 0dbe a9e7 fa3d
00000020: 9c03 00be 75b9 fabc 6afa 7e3c 835f 4cbd
00000030: 0e44 063c 8be4 5ebd dafa 25be 4673 1b3e
00000040: 0491 c1bd 878a 173d 244c c33d dc88 493d
00000050: 4c0c 0dbe 0803 e9bc 4a0b d23c 36d5 a23d
00000060: 36ca d33d 04bf 193e 0e8c b6bb 7c06 0d3e
00000070: fbc7 83bd 89ce e1bd 23b2 67bd af79 353e
00000080: 6e86 563e cf80 ef3d 869f 96bc afb3 b3bd
00000090: 6119 ea3d 3715 623e 8387 43bd 1432 0d3e
000000a0: 9bef 17bd edfb a23d 325d e9bd c91d 003e
000000b0: fd4e 9bbd c558 2a3e 054f 923e 6a23 123d
000000c0: d090 153d 826f 1c3e 3fea b03d 34ed 943e
000000d0: 515e 09be b674 41bb df07 b43d 1665 2cbd
000000e0: c255 8fbc 2469 053e 45e0 943e fd93 98bd
000000f0: 0338 14be abbe 313e 2903 52be f299 193e
00000100: 0626 053d 4adb 60be ff3b 453c 5bc9 edbd
00000110: dc0f 1abd d118 d93d c402 4cbd 805d f7bc
00000120: a512 5a3d 7995 0fbd de62 e1bd 7322 98bd
00000130: 0ba4 663e f7f6 fd3c dbc6 37be a715 e3bd
00000140: 834b a13e 3498 123e 1254 d7bd 59a4 343e
00000150: 180d 09be 93e6 35be 37bc 04be 98e4 1e3e
00000160: edd4 37bc dbcf 3cbe 7df6 69bd 740f fabd
00000170: aba4 243e 710c 7bbc 33b1 82bd c033 213e
00000180: 5cf9 3bbe fe8f b0bd c8fb 2b3e 9cb6 0abe
00000190: 9068 613d e74f 0dbe eb54 19be 919a a7bd
000001a0: 0f5e 0dbe edf5 5dbd 140b e5bd f54a b8bd
000001b0: 2d65 8bbd aa7b 90bd 413f babd 0490 86bc
000001c0: a751 af3c 9ec3 37bd 830a dcbd 6556 153e
000001d0: 4209 14be b790 0e3e ad24 f63c c4f1 1bbd
000001e0: 4beb 1abe 141c d83c d1e9 11be bff3 db3d
000001f0: 3f2a 1cbc d4e8 1bbe 8e8d 2b3e 1436 ac3c
00000200: eb56 5c3d 4cc3 d6ba b3d7 183e cc7f a3bd
00000210: 88a4 02be a7f3 c23d daba b8bc c2de f13c
00000220: 2c82 1bbe 0c54 883d ab31 40be 1f98 b9bb
00000230: e528 86bd 2a55 32be ce68 353d f3fa 1cbd
00000240: 6a53 be3c e605 20be 2dce 1a3e 9311 41be
00000250: f19f e5bd 7ecb fcbd e128 10be 8a28 df3c
00000260: 6420 92bd de0c 5c3d 8a23 013d 78a1 113e
00000270: da40 97bd a3a5 82bd 7b87 34be 5eec 75bc
00000280: 0e4f 223e e582 fbbd 0198 07be a84d b53d
00000290: ff5c 843d f034 0e3e cefb 15be f4de 84bd
000002a0: 242b 183e 2594 d8bd 4f05 f1bd 2975 b3bd
000002b0: 05ed 27be 08d0 66bd e1f8 2abc 687c 513d
000002c0: c0ed dc3d 369d bcbd 6308 eebd ab01 1abe
000002d0: 678d 2f3b 60e0 40bd 0f9b 17be cad8 bd3d
000002e0: 8ba8 573d 0a0b b7bd 5511 19be cd5d d4bd
000002f0: d5d6 d6bd 6cb7 eabd 7597 03be 1997 ef3d
00000300: a3da 12be 475b 8b3d d57d fbbd 0657 99bd
00000310: 7e50 94bd eac8 15bc 527a 3dbd c83a 873d
00000320: 88aa 123e 4356 d23d 9875 9b3d b7f5 d73d
00000330: 99f3 04be e9a4 debd e6d3 1c3e e4a0 3ebe
00000340: eff0 37be 7dcf 1e3e 39be 443c 68f4 ac3d
00000350: 64ca 09be 0bc6 3ebd 11f0 d5bd f0fc 01be
00000360: 0e2b f4bc 41c1 23be d4cd 2e3d a323 d83d
00000370: a52b cabd 56fc f93d 4a09 f33d f1c9 e2bd
00000380: 4338 15be 7542 dabb 2cd3 27be c018 1fbe
00000390: 854b c7bd 469b 09be a305 81bd c6ad c9bc
000003a0: afc2 a33a 1e28 1bbe e124 103e 22bb f53d
000003b0: 479d fbbd 286e 02be f243 8e3d 0dcc 173e
000003c0: 1a62 fabd dd1e b33d 4921 63be b682 7e3d
000003d0: 18fb 9f3e 1bfc 98bd 059d 823d df59 e93d
000003e0: e0ba 7fbe c742 adbc 5e76 ffbd afc8 08be
000003f0: 1443 26be d1a0 4cbd f2bb a63d f8e9 223e

fc2.bias f4 [20]
0.0072313533 0.12430068 0.20204158 0.10810136 -0.023238251 0.01901545 -0.07346817 -0.00014256682
0.075733766 0.05600553 0.037594438 -0.067901485 0.11459255 0.17953587 -0.19472645 -0.061626263
-0.11862201 -0.19022822 -0.027610414 0.087794304
00000000: fdf4 ec3b 5b91 fe3d fde3 4e3e 3f64 dd3d
00000010: 255e bebc 4ac6 9b3c 7b76 96bd fd7d 15b9
00000020: 4e1a 9b3d 0e66 653d a0fc 193d ef0f 8bbd
00000030: 80af ea3d 40d8 373e 5f66 47be d26b 7cbd
00000040: 19f0 f2bd 30cb 42be 3c2f e2bc 80cd b33d

fc3.weight f4 [10, 20]
-0.046638742 -0.1785191 -0.10969061 -0.089371294 -0.17584531 0.20342024 0.19320464 0.1452768
-0.12669955 -0.17160955 -0.035165235 -0.08262408 -0.1533467 0.18566628 0.15159713 -0.010625313
-0.02938002 0.17493747 -0.06392621 -0.21373367 0.052723754 0.06223012 0.09935067 0.15303773
-0.00019957444 0.10341705 -0.0036641601 0.063386746 0.055925783 -0.11831429 0.065720946 0.093850516
0.020413438 -0.09431584 -0.23806597 0.06169008 -0.0870953 -0.002178222 0.19090909 -0.09424821
0.06847346 0.13302626 -0.08237741 -0.1531729 0.0475157 0.15034033 -0.22979818 0.097410545
0.050069556 -0.17746326 -0.08831337 -0.14716204 0.111028925 0.09173899 -0.23570816 -0.0830853
0.14789747 0.00047044744 -0.06887011 -0.2109881 -0.08920477 0.21231644 0.19637966 -0.077755906
-0.06287885 -0.08181423 -0.11889538 -0.12538283 0.22341639 0.013906236 -0.12519182 0.20358367
-0.045807097 0.16463171 -0.2452181 -0.089871176 0.10030966 0.009343614 0.079222746 0.3342213
0.1558149 -0.056474365 0.089468814 0.1332336 -0.15882373 -0.10675102 -0.007040463 0.027813997
0.11024137 0.087517336 -0.07221025 -0.005789948 -0.14047088 0.12813064 0.07082147 -0.07079491
-0.26575494 0.07607914 -0.005415258 0.22320193 -0.06994176 0.29411256 -0.2484618 0.0055220174
0.11665283 0.16797464 -0.037657853 0.15444961 -0.2684868 -0.085124984 0.38655806 -0.07896436
0.1395136 -0.103266835 0.19983676 -0.14149962 -0.07784638 0.014939859 0.18509659 0.11627095
-0.06041183 -0.1395427 0.01459789 0.057504028 0.06686673 -0.14018574 0.14234187 -0.03323002
0.024772707 0.21235546 0.06209264 -0.1652676 -0.03981759 0.030772975 -0.024338223 -0.0018306865
-0.0555075 -0.22077107 -0.029515008 -0.050100483 0.15902817 0.054551717 -0.099771746 -0.12013729
0.0111142965 -0.112081684 -0.07930907 0.042974014 -0.2517743 -0.12357793 -0.04074116 0.04827814
0.14206491 0.15340078 -0.052309874 -0.17918651 0.046288054 -0.079111196 0.11569908 0.030882636
-0.12415022 0.28832456 -0.21624611 -0.10747517 0.078689076 -0.0021045436 -0.20381631 0.011920082
0.006898801 0.029420875 0.108661205 -0.051288694 0.14535746 -0.41326198 0.18485999 -0.022742532
-0.13711111 0.0373231 0.009904896 -0.021796126 -0.17176963 -0.17591223 -0.065541975 -0.016425323
0.18076125 -0.04996733 0.13052408 -0.07033814 -0.08682426 -0.12185744 -0.078648895 -0.1418978
0.17433171 0.20031008 0.020500945 -0.13512145 0.13306287 -0.084625505 -0.110604025 -0.11704291
00000000: 4408 3fbd b6cd 36be 78a5 e0bd 4c08 b7bd
00000010: cb10 34be 654d 503e 70d7 453e 71c3 143e
00000020: 87bd 01be 6aba 2fbe 6c09 10bd d036 a9bd
00000030: eb06 1dbe 4d1f 3e3e 473c 1b3e cb15 2ebc
00000040: 5eae f0bc cf22 333e bfeb 82bd 00dd 5abe
00000050: ddf4 573d 03e5 7e3d 5d78 cb3d ecb5 1c3e
00000060: db44 51b9 51cc d33d 6822 70bb e9d0 813d
00000070: 6f12 653d c34e f2bd b498 863d b334 c03d
00000080: 153a a73c aa28 c1bd 91c7 73be bdae 7c3d
00000090: 055f b2bd 80c0 0ebb ac7d 433e 3505 c1bd
000000a0: d03b 8c3d 0938 083e 7db5 a8bd 5bd9 1cbe
000000b0: d39f 423d d1f2 193e 3750 6bbe 2e7f c73d
000000c0: bc15 4d3d eeb8 35be a4dd b4bd a5b1 16be
000000d0: 2263 e33d a7e1 bb3d 7b5d 71be a028 aabd
000000e0: 6f72 173e 63a6 f639 c60b 8dbd 440d 58be
000000f0: feb0 b6bd 7b69 593e c017 493e 7d3e 9fbd
00000100: a0c6 80bd 388e a7bd 6c7f f3bd 5b64 00be
00000110: 44c7 643e fbd6 633c 4932 00be 3d78 503e
00000120: 39a0 3bbd 3795 283e 741a 7bbe 610e b8bd
00000130: 276f cd3d f515 193c 893f a23d 0e1f ab3e
00000140: f18d 1f3e aa51 67bd 6d3b b73d 646e 083e
00000150: b0a2 22be 47a0 dabd afb3 e6bb 2eda e33c
00000160: 3ac6 e13d 4a3c b33d f8e2 93bd 9bb9 bdbb
00000170: 99d7 0fbe ae34 033e d90a 913d ecfc 90bd
00000180: 0811 88be 61cf 9b3d 7a72 b1bb 0c8f 643e
00000190: a03d 8fbd ec95 963e c56c 7ebe 0af2 b43b
000001a0: aee7 ee3d 8b01 2c3e 1f3f 1abd 0a28 1e3e
000001b0: 1a77 89be 0256 aebd f0ea c53e 11b8 a1bd
000001c0: a7dc 0e3e 907d d3bd 02a2 4c3e 47e5 10be
000001d0: ec6d 9fbd 4fc6 743c f689 3d3e 771f ee3d
000001e0: 6572 77bd 48e4 0ebe fd2b 6f3c 5889 6b3d
000001f0: 6df1 883d da8c 0fbe 11c2 113e 341c 08bd
00000200: 22f0 ca3c b673 593e da54 7e3d e93b 29be
00000210: c517 23bd 9b17 fc3c f460 c7bc a5f3 efba
00000220: d55b 63bd d011 62be 75c9 f1bc 2a36 4dbd
00000230: 48d8 223e 9f71 5f3d 2155 ccbd 8a0a f6bd
00000240: bd18 363c 158b e5bd cb6c a2bd 8505 303d
00000250: 90e8 80be 6d16 fdbd 34e0 26bd 4dbf 453d
00000260: 7779 113e 1815 1d3e e142 56bd ab7c 37be
00000270: 8b98 3d3d 0d05 a2bd a4f3 ec3d 95fd fc3c
00000280: 7842 febd 479f 933e 9f6f 5dbe f11b dcbd
00000290: bd27 a13d 62ec 09bb 39b5 50be 734c 433c
000002a0: 560f e23b 0c04 f13c c489 de3d 1814 52bd
000002b0: 96d8 143e 1397 d3be f04b 3d3e 8c4e babc
000002c0: db66 0cbe 1be0 183d 2548 223c ca8d b2bc
000002d0: 61e4 2fbe 5622 34be df3a 86bd 668e 86bc
000002e0: 7a19 393e 8baa 4cbd 1ba8 053e 710d 90bd
000002f0: ebd0 b1bd 6590 f9bd ac12 a1bd a84d 11be
00000300: 0384 323e 161e 4d3e 99f1 a73c 475d 0abe
00000310: a241 083e 2350 adbd 5d84 e2bd 31b4 efbd

fc3.bias f4 [10]
-0.22826107 -0.15379387 -0.1390025 0.044635177 0.15770909 0.15545331 -0.13357477 -0.075887874
-0.10460582 0.02698782
00000000: 45bd 69be 247c 1dbe ac56 0ebe 60d3 363d
00000010: 7e7e 213e 272f 1f3e d3c7 08be 1a6b 9bbd
00000020: 933b d6bd 9015 dd3c

fc4.weight f4 [1, 10]
-0.23142312 -0.083156906 -0.17158173 0.4562697 0.2969359 -0.2032894 0.0065169916 0.04472483
-0.1532305 0.12198047
00000000: 2ffa 6cbe 2b4e aabd 1fb3 2fbe 2f9c e93e
00000010: fb07 983e 192b 50be 7d8c d53b 6231 373d
00000020: 75e8 1cbe e6d0 f93d
