carv/controller_models/Unicycle_NL/unicycle_nl_4layer/natural_none_default.pth (torch, 7247 bytes, 7 tensors)

fc1.weight f4 [40, 3]
0.06795119 0.10463164 -0.10992099 -0.2896745 -0.59585106 0.26823324 0.029836375 0.39826792
-0.38199943 0.18373327 -0.0592198 0.44690293 -0.5291864 -0.39552402 -0.7484721 0.021524822
0.27265635 1.5366514 -0.39875522 -0.22323237 0.7013359 0.4794247 -0.11881878 0.43203798
-0.093807235 0.10602916 1.6665578 -0.5040763 -0.40675458 -0.7930226 -0.0873389 0.30439338
-0.5924447 -0.048567627 -0.4963211 -0.06731075 -0.28270364 0.31222564 0.37960967 0.2798258
0.030363752 -0.29599795 0.12399391 -0.6861357 -0.6447431 -0.2978249 0.3588853 0.7557191
-0.28618193 -0.077932075 0.8829784 0.573963 0.22914003 0.0779959 0.31256163 -0.5679717
0.784823 -0.41055992 -0.38828948 -1.1178653 0.37895888 0.24641995 0.12332132 0.27022797
0.35675952 -0.47845167 -0.0029937807 0.2181552 0.8179162 1.4537853 -0.49502754 -0.39228734
0.22690436 0.47836322 0.5024144 0.5094289 0.114901096 -0.5020538 0.07053116 -0.27007473
-0.8606753 0.51297134 0.4389939 -0.575923 0.10806383 -0.09726043 -0.095009424 -0.228417
0.24522379 -0.8019834 0.21165161 0.2919707 0.41330865 0.2158777 -0.5714239 -0.3745253
0.28827965 0.12084019 -0.4503817 -0.3132057 0.4835785 0.9145542 -0.1784049 -0.16426924
-1.2138686 -0.010377374 -0.43477875 -0.445343 0.074617706 0.0065605924 -0.80038977 0.3425867
-0.3513402 0.52387035 0.39565805 -0.48686963 -0.14369343 0.026051559 0.084236026 0.13693263
00000000: fe29 8b3d 1d49 d63d 421e e1bd 3750 94be
00000010: b289 18bf de55 893e 6a6b f43c c6e9 cb3e
00000020: 6e95 c3be 9324 3c3e 7690 72bd 76d0 e43e
00000030: c378 07bf 2082 cabe de9b 3fbf d354 b03c
00000040: 9d99 8b3e feb0 c43f a529 ccbe 0797 64be
00000050: c08a 333f 2777 f53e 4357 f3bd 1534 dd3e
00000060: 021e c0bd d125 d93d c451 d53f 250b 01bf
00000070: 2342 d0be 8703 4bbf bdde b2bd 73d9 9b3e
00000080: 75aa 17bf d9ee 46bd cd1d febe 38da 89bd
00000090: 88be 90be 0adc 9f3e 335c c23e 5445 8f3e
000000a0: 67bd f83c 0b8d 97be 85f0 fd3d 97a6 2fbf
000000b0: e20d 25bf 817c 98be d0bf b73e cf76 413f
000000c0: 7086 92be da9a 9fbd df0a 623f 3def 123f
000000d0: afa3 6a3e 50bc 9f3d 1408 a03e 9866 11bf
000000e0: 29ea 483f e934 d2be e1cd c6be 3616 8fbf
000000f0: e606 c23e 8355 7c3e e38f fc3d 525b 8a3e
00000100: 2fa9 b63e 9ef7 f4be 4e33 44bb 1464 5f3e
00000110: f562 513f a315 ba3f 4074 fdbe e3d9 c8be
00000120: 9e59 683e 06ec f43e 3b9e 003f ef69 023f
00000130: 4451 eb3d 9986 00bf a472 903d 3c47 8abe
00000140: 3755 5cbf 1752 033f cfc3 e03e b16f 13bf
00000150: 9250 dd3d 7a30 c7bd 4d94 c2bd 25e6 69be
00000160: f21b 7b3e c94e 4dbf 33bb 583e 2f7d 953e
00000170: 319d d33e 0b0f 5d3e d648 12bf c8c1 bfbe
00000180: 6499 933e 107b f73d 6e98 e6be 7f5c a0be
00000190: 9a97 f73e 3920 6a3f c6af 36be 3236 28be
000001a0: 0c60 9bbf dc05 2abc 529b debe ff03 e4be
000001b0: 2bd1 983d 3dfa d63b 58e6 4cbf 8667 af3e
000001c0: dde2 b3be 5e1c 063f b193 ca3e fa46 f9be
000001d0: 5f24 13be 146a d53c f083 ac3d 1138 0c3e

fc1.bias f4 [40]
0.32021394 0.03243811 -0.52186376 0.5459468 -0.59891236 -0.59502554 -0.06596494 -0.281235
-0.6483249 -0.60614437 -0.29206428 0.95510364 -0.31406042 -0.029629245 0.4718101 -0.09769852
0.08005755 -0.049807373 0.3430192 0.37061396 0.57396024 0.43878162 0.68646103 0.030091573
-0.5186462 -0.2737086 0.8928728 -0.0037426627 -0.28696984 -0.5038148 -0.54031444 -0.48728836
-0.11710785 0.2187382 0.24783817 -0.55681497 0.48342326 -0.45178202 -0.12205778 -0.23409973
00000000: 15f3 a33e d3dd 043d dd98 05bf 2bc3 0b3f
00000010: 5252 19bf 9853 18bf a018 87bd 09fe 8fbe
00000020: 9ff8 25bf 472c 1bbf 7389 95be ac81 743f
00000030: 87cc a0be 08b9 f2bc 1891 f13e 2916 c8bd
00000040: 36f5 a33d d102 4cbd 36a0 af3e 1dc1 bd3e
00000050: 0fef 123f fca7 e03e e9bb 2f3f 9a82 f63c
00000060: ffc5 04bf 8923 8cbe 5093 643f 7647 75bb
00000070: b6ed 92be 02fa 00bf 0c52 0abf dc7d f9be
00000080: 3ed6 efbd e8fc 5f3e 4ac9 7d3e 6d8b 0ebf
00000090: 4183 f73e f94f e7be 6ef9 f9bd d7b7 6fbe

fc2.weight f4 [20, 40]
0.0021486005 -0.058104858 -0.12108443 -0.4042624 -0.04064768 -1.0329126 -0.05754564 0.059561376
0.39904794 -0.024697905 0.17314646 -0.30307418 0.1655525 0.057261538 -0.14561328 0.1390725
0.019580731 -0.07058312 0.017850496 -0.11383242 0.17506696 -0.08463038 0.2372994 1.1545204
0.07597457 0.055839334 0.49816066 -0.033252213 -0.13029872 0.08913889 0.12553896 0.10818545
-0.1115301 0.05835599 -0.11469076 -0.08703919 -0.12999809 0.05403463 -0.09422214 -0.0034496034
-0.007904628 0.087748304 -0.13346057 -0.13471295 -0.10575539 0.09821202 -0.07096331 0.13336727
0.04457038 0.006305137 -0.015203858 -0.04481292 0.0055912565 -0.036104463 -0.012790242 0.005987816
-0.13795023 -0.08287245 0.08969987 -0.1424294 -0.026292551 0.13799402 0.04140438 -0.009520479
-0.13702306 0.07832612 -0.121657714 -0.04488288 -0.05304979 -0.03739475 0.001729495 0.13041352
0.019738752 0.12748665 0.082629725 -0.0999618 0.05592116 -0.11177008 -0.06701264 0.04650488
0.07898535 0.11097424 -0.033189543 -0.21591699 0.06317084 -1.1371536 0.120348714 -0.13074791
0.5888584 -0.042090774 -0.04049351 -0.13024825 0.1656688 -0.046219777 -0.45072067 -0.0162166
-0.12605886 0.07137165 0.21500027 -0.110631324 0.10430436 -0.034221984 0.18506053 -0.16135645
0.05735156 -0.052803665 0.06526051 0.046711575 0.1299751 0.058830723 -0.07481085 -0.07432576
-0.14949177 0.08279153 -0.104283966 -0.14097051 0.12426569 -0.10268093 -0.01798728 0.045298606
0.0050372435 -0.106391944 -0.12780689 0.12602979 0.025747059 0.13117516 -0.053006195 0.046573304
-0.03615688 -0.0070315055 -0.096298344 0.053474262 0.04999022 -0.0032616635 -0.035560153 -0.09746611
0.10934283 -0.11770379 0.0647738 -0.05316635 -0.07628489 0.028404377 -0.08213336 0.036430206
0.031050539 -0.11739789 0.02632573 0.06734532 0.062586375 -0.019903168 -0.1296198 -0.024373896
0.054914165 -0.057692137 0.06001704 0.10529793 -0.082559414 0.0015592917 0.06537993 0.012392625
0.244437 -0.39372942 0.30070445 0.015670868 0.13135868 -0.7897518 -0.19789316 0.021187741
0.49030882 -0.059746947 -0.05660169 0.004653167 0.021328272 0.10036901 -0.11699654 -0.15908118
-0.32907477 0.15805298 -0.13513173 0.19466436 0.10792517 0.56133187 -0.13014068 0.09395731
-0.095149614 0.14214711 0.5076268 0.08619349 -0.09910204 0.08538401 -0.05542879 0.12354332
-0.028451104 -0.11485597 0.18572022 0.06727243 0.26809895 0.0770918 -0.11043795 0.035710808
-0.3430146 -0.22208278 -0.12697427 0.46501237 -0.46672964 0.14834493 0.017587036 -0.14120288
-0.107901834 -0.52547264 -0.46651703 0.037907988 -0.92619747 -0.07714399 -0.07030263 -0.13260846
0.11663013 0.12945732 0.5038234 0.049389195 0.5197954 0.37060225 0.23302159 -0.21780978
0.05230704 0.15806271 0.1023711 0.098291226 -0.055338617 0.0105193965 0.01816832 -0.037760336
-0.08913036 -0.07935614 -0.23255275 0.10614665 0.13605258 -0.017995365 -0.09149829 0.12220708
0.14294927 0.12492372 -0.11561511 -0.58898586 0.14535989 0.97565174 0.19239871 0.12006754
-0.5945196 0.16515727 -0.060193814 0.60982805 0.17024128 0.006533128 -0.386889 -0.03330678
00000000: 89cf 0c3b 5cff 6dbd 1dfb f7bd 7bfb cebe
00000010: 2f7e 26bd 7b36 84bf fab4 6bbd a1f6 733d
00000020: 0350 cc3e 4353 cabc 4e4d 313e 8a2c 9bbe
00000030: 9886 293e 138b 6a3d a61b 15be 0569 0e3e
00000040: c567 a03c e28d 90bd 343b 923c f920 e9bd
00000050: c144 333e b152 adbd 9dfe 723e 53c7 933f
00000060: 8e98 9b3d c9b7 643d ea0e ff3e 7933 08bd
00000070: 076d 05be 738e b63d 498d 003e 5590 dd3d
00000080: e569 e4bd b106 6f3d fde2 eabd 9a41 b2bd
00000090: 381e 05be 6b53 5d3d 8af7 c0bd be12 62bb
000000a0: 6a82 01bc 62b5 b33d e3a9 08be 31f2 09be
000000b0: 4896 d8bd 6223 c93d 3655 91bd 6e91 083e
000000c0: 6e8f 363d 539b ce3b 9a19 79bc c18d 37bd
000000d0: dc36 b73b 46e2 13bd 2a8e 51bc 7135 c43b
000000e0: d342 0dbe 08b9 a9bd 91b4 b73d 03d9 11be
000000f0: 7a63 d7bc 4e4e 0d3e a497 293d c8fb 1bbc
00000100: c64f 0cbe 7269 a03d ae27 f9bd 1cd7 37bd
00000110: bd4a 59bd 3d2b 19bd 39b0 e23a 1f8b 053e
00000120: 2ab3 a13c dc8b 023e c639 a93d c6b8 ccbd
00000130: 960d 653d b6e7 e4bd ec3d 89bd e77b 3e3d
00000140: 12c3 a13d 7646 e33d c2f1 07bd 5819 5dbe
00000150: b75f 813d 408e 91bf 6379 f63d c8e2 05be
00000160: 6dbf 163f 6067 2cbd 86dc 25bd cc5f 05be
00000170: 15a5 293e f350 3dbd dcc4 e6be add8 84bc
00000180: 9315 01be 4d2b 923d 0829 5c3e ad92 e2bd
00000190: 869d d53d 5a2c 0cbd 8280 3d3e a03a 25be
000001a0: 78e9 6a3d a848 58bd 4da7 853d a354 3f3d
000001b0: 3118 053e 7cf8 703d 6e36 99bd 1b38 98bd
000001c0: 5f14 19be 9b8e a93d d592 d5bd 935a 10be
000001d0: 037f fe3d 614a d2bd 0f5a 93bc 088b 393d
000001e0: 760f a53b 05e4 d9bd cfdf 02be f40d 013e
000001f0: 7feb d23c c852 063e 061d 59bd a6c3 3e3d
00000200: 3d19 14bd 8b68 e6bb 1138 c5bd d407 5b3d
00000210: 8cc2 4c3d a2c1 55bb 86a7 11bd 509c c7bd
00000220: 22ef df3d af0e f1bd 20a8 843d f5c4 59bd
00000230: 413b 9cbd 4cb0 e83c 8935 a8bd d737 153d
00000240: b35d fe3c 4e6e f0bd 0fa9 d73c 58ec 893d
00000250: 492d 803d f80b a3bc 0ebb 04be c4ab c7bc
00000260: aded 603d 974e 6cbd 6ed4 753d 71a6 d73d
00000270: e914 a9bd 2661 cc3a eae5 853d 700a 4b3c
00000280: b14d 7a3e e796 c9be eff5 993e 3160 803c
00000290: e482 063e 2d2d 4abf 81a4 4abe ea91 ad3c
000002a0: c209 fb3e 37b9 74bd 2cd7 67bd 9879 983b
000002b0: a1b8 ae3c 448e cd3d e29b efbd 2de6 22be
000002c0: 7d7c a8be a4d8 213e f95f 0abe 1856 473e
000002d0: df07 dd3d 72b3 0f3f 9943 05be b16c c03d
000002e0: cddd c2bd 038f 113e d4f3 013f 3686 b03d
000002f0: 03f6 cabd d0dd ae3d 4d09 63bd 4804 fd3d
00000300: 4a12 e9bc 9b39 ebbd 712d 3e3e 21c6 893d
00000310: 4444 893e 4ee2 9d3d 4b2d e2bd 7f45 123d
00000320: 9c9f afbe ab69 63be 8b05 02be 1a16 ee3e
00000330: 30f7 eebe bce7 173e b012 903c 7d97 10be
00000340: a3fb dcbd 6085 06bf 52db eebe 6845 1b3d
00000350: 471b 6dbf abfd 9dbd d3fa 8fbd 83ca 07be
00000360: c7db ee3d 7690 043e 92fa 003f 534c 4a3d
00000370: 5011 053f 94bf bd3e 369d 6e3e 8709 5fbe
00000380: e83f 563d 31db 213e f0a7 d13d e94c c93d
00000390: bfaa 62bd 8c59 2c3c bbd5 943c 95aa 1abd
000003a0: fa89 b6bd 7985 a2bd 4f22 6ebe 6a63 d93d
000003b0: 5e51 0b3e 046b 93bc 7563 bbbd b547 fa3d
000003c0: 4b61 123e 02d8 ff3d 9dc7 ecbd c7c7 16bf
000003d0: 39d9 143e 50c4 793f 2b04 453e f8e5 f53d
000003e0: 7032 18bf fd1e 293e ca8d 76bd b11d 1c3f
000003f0: bb53 2e3e da13 d63b 5116 c6be b16c 08bd

fc2.bias f4 [20]
0.018039543 0.018818062 0.21635489 -0.15552181 -0.12390135 0.12363369 0.111880586 -0.19313309
0.35511333 0.041620925 -0.1453089 0.08975076 0.11603162 0.12112156 -0.07082855 0.12265246
0.0771956 0.15124543 -0.23239246 0.06938003
00000000: aac7 933c 5628 9a3c 238c 5d3e 1c41 1fbe
00000010: febf fdbd a933 fd3d a621 e53d aec4 45be
00000020: 6ad1 b53e b47a 2a3d dbcb 14be 3fcf b73d
00000030: fca1 ed3d 950e f83d 8f0e 91bd 3731 fb3d
00000040: ba18 9e3d 15e0 1a3e 4af8 6dbe 1e17 8e3d

fc3.weight f4 [10, 20]
0.034865584 -0.20327987 0.095608026 -0.1217346 0.37476262 -0.06036862 -0.17611615 0.16580708
0.27102175 -0.7987808 -0.6099039 0.2643973 0.08125227 -0.045533407 0.90158325 0.10161088
0.08661763 -0.3734468 -0.047926996 -0.027583867 0.023529554 -0.17438632 0.13841645 -0.18560354
-0.10705458 0.28691185 -0.39479667 0.020717112 0.0825688 -0.061298233 0.17861891 0.16809835
0.09104685 -0.057328697 -0.19814064 0.20872703 0.23093593 -0.059444677 -0.37141657 0.046278924
-1.2727579 -0.15201259 -1.1149642 0.098833814 -0.036823478 -0.19251484 -0.16074951 0.5306282
0.18448819 0.75168514 0.119962096 0.11551688 -0.18190062 -0.05376962 0.18739343 -1.3920839
-0.77907795 0.06497585 -0.5704957 0.13276376 -0.1596706 0.19634934 -0.03498467 -0.1280988
-0.2419767 0.033335097 0.22585268 -0.33774966 -0.97496724 -0.75747174 1.4046865 -0.13209169
0.15679435 0.23315978 -0.72923785 -0.03198291 0.20096108 0.079094745 0.28726763 -0.07662976
-0.112902984 0.20295982 0.10501224 0.21465862 -0.0828498 -0.14357051 -0.015043886 -0.21054368
0.08764831 0.17649454 0.06463569 -0.010533527 0.12209753 -0.13084365 0.23022369 -0.21133232
-0.20436858 -0.04127947 0.19281986 0.022388807 0.16467853 -0.1480202 0.103295 -0.024986595
0.44239005 -0.044207085 0.09611544 0.15339969 0.30341575 -0.440805 -0.59914 0.20648538
-0.061654385 0.17241515 0.5038824 0.011184559 0.040152892 -0.31304955 -0.042422682 -0.009683721
-0.02008802 -0.044699937 0.16345815 0.16501895 -0.1619121 0.0893479 -0.18534265 -0.19036123
0.046884 0.0032862325 -0.10431399 -0.2307048 -0.10034747 0.057722405 -0.20697078 -0.23194665
0.014260597 -0.17663027 -0.1958975 -0.08615261 -1.7648169 -0.19027719 -0.52516174 0.014661417
-0.42732945 0.11484675 -0.31693366 -0.07244582 -0.006909595 -0.1899953 -0.18394971 0.03295339
0.1420561 0.092193976 -0.6394651 -0.14309016 -0.063616805 0.08481256 0.1398347 -0.20479247
-0.42547613 0.08769837 -0.28026325 -0.11362374 0.082680106 -0.80858505 -0.008815365 -0.075081535
0.28315446 0.024553917 0.056530822 -0.1899071 -0.35364327 -0.079968825 0.4948786 -1.1061195
-0.5844581 0.20546542 -0.29068723 0.08806152 -0.21510933 -0.07032007 -0.11355472 0.18851422
0.09280574 -0.16316043 0.03605145 -0.0025700124 -0.09187329 -0.12769662 -0.07420137 0.1762528
-0.16029304 -0.15928482 -0.068986975 0.003889938 0.06086843 0.00671001 -0.05382789 -0.13558403
00000000: 37cf 0e3d 9928 50be 24ce c33d fd4f f9bd
00000010: e3e0 bf3e 1645 77bd cb57 34be 55c9 293e
00000020: 5dc3 8a3e e67c 4cbf a922 1cbf 155f 873e
00000030: 9767 a63d 3d81 3abd 29ce 663f 5d19 d03d
00000040: 9664 b13d 6b34 bfbe 194f 44bd 90f7 e1bc
00000050: 0dc1 c03c 5492 32be 0bbd 0d3e db0e 3ebe
00000060: 6e3f dbbd 1ce6 923e ca22 cabe efb6 a93c
00000070: d519 a93d db13 7bbd e0e7 363e f921 2c3e
00000080: c576 ba3d 7fd1 6abd 61e5 4abe 8abc 553e
00000090: 787a 6c3e 437c 73bd 502a bebe f88e 3d3d
000000a0: bbe9 a2bf 30a9 1bbe 26b7 8ebf 6269 ca3d
000000b0: 37d4 16bd 9c22 45be 859b 24be 40d7 073f
000000c0: 79ea 3c3e 706e 403f b0ae f53d 1d94 ec3d
000000d0: 2844 3abe 883d 5cbd 10e4 3f3e ce2f b2bf
000000e0: a771 47bf 0f12 853d 020c 12bf 39f3 073e
000000f0: b180 23be cd0f 493e 164c 0fbd 552c 03be
00000100: bdc8 77be 628a 083d ed45 673e 86ed acbe
00000110: 7497 79bf abe9 41bf c4cc b33f 0b43 07be
00000120: b38e 203e 70c1 6e3e 55af 3abf 8300 03bd
00000130: bec8 4d3e 6dfc a13d be14 933e 10f0 9cbd
00000140: ae39 e7bd b3d4 4f3e a810 d73d 78cf 5b3e
00000150: 28ad a9bd 2604 13be a27a 76bc c398 57be
00000160: f580 b33d fcba 343e b75f 843d d094 2cbc
00000170: 450e fa3d e1fb 05be c2bf 6b3e 8067 58be
00000180: ff45 51be a914 29bd 9272 453e bb68 b73c
00000190: 7da1 283e 9b92 17be 548c d33d b0b0 ccbc
000001a0: f380 e23e 7d12 35bd 2cd8 c43d cf14 1d3e
000001b0: 4f59 9b3e 31b1 e1be 3d61 19bf e770 533e
000001c0: 4f89 7cbd 998d 303e 70fe 003f 713f 373c
000001d0: 5c77 243d 0848 a0be 68c3 2dbd 78a8 1ebc
000001e0: a28f a4bc 4817 37bd 9361 273e bafa 283e
000001f0: 49cc 25be 08fc b63d 77ca 3dbe 0eee 42be
00000200: 7009 403d d55d 573b 93a2 d5bd e13d 6cbe
00000210: f982 cdbd 546e 6c3d 26f0 53be 6c83 6dbe
00000220: 47a5 693c 91de 34be 5b99 48be c870 b0bd
00000230: 85e5 e1bf 06d8 42be 0071 06bf 7136 703c
00000240: edca dabe c634 eb3d 2145 a2be 795e 94bd
00000250: e269 e2bb 218e 42be 505d 3cbe 22fa 063d
00000260: 2777 113e 32d0 bc3d fcb3 23bf 3a86 12be
00000270: 8749 82bd 35b2 ad3d d430 0f3e 1eb5 51be
00000280: 02d8 d9be 349b b33d aa7e 8fbe 90b3 e8bd
00000290: 3054 a93d 6eff 4ebf 526e 10bc 59c4 99bd
000002a0: 9ff9 903e 4c25 c93c dd8c 673d 0277 42be
000002b0: bb10 b5be b2c6 a3bd ba60 fd3e 5395 8dbf
000002c0: 0c9f 15bf 8765 523e f5d4 94be 9959 b43d
000002d0: 9f45 5cbe f803 90bd 618f e8bd df09 413e
000002e0: f010 be3d 8713 27be afaa 133d a76d 28bb
000002f0: 1028 bcbd e7c2 02be e3f6 97bd 9d7b 343e
00000300: dc23 24be 8f1b 23be 0b49 8dbd 54ee 7e3b
00000310: 2d51 793d a5df db3b a27a 5cbd 8ad6 0abe

fc3.bias f4 [10]
0.038101297 0.048302107 0.2445034 -0.22166812 -0.13083307 -0.1328881 -0.060247187 0.10983639
0.18509541 -0.19466208
00000000: 1b10 1c3d 6ed8 453d 195f 7a3e f8fc 62be
00000010: 1bf9 05be d113 08be c1c5 76bd e7f1 e03d
00000020: a789 3d3e 7f55 47be

fc4.weight f4 [1, 10]
-0.2541702 0.42931587 0.5786225 0.67837834 -0.019830374 -0.3402858 0.20871983 -0.13027437
0.3965034 -0.077930056
00000000: 9922 82be 4acf db3e 9b20 143f 34aa 2d3f
00000010: 4f73 a2bc f139 aebe a7ba 553e a566 05be
00000020: 7e02 cb3e cb99 9fbd
