nfl_robustness_training/src/controller_models/double_integrator/di_3layer/robust-constraint_default.pth (torch, 2455 bytes, 5 tensors)

fc1.weight f4 [10, 2]
00000000: 5e46 b43e e31b 00bf e75e 0cbe 01ee a93e
00000010: 6dc5 04bf 5173 8d3e 06f6 14be 592f b83e
00000020: 2b72 9c3d 4416 98bc 47d7 083f 5506 303f
00000030: 406c a83b f6db 91bf 53b9 dabe 4de2 94bf
00000040: b9e6 d13d b61f 39bb 518c 123f 257a 1d3f
0.35209936 -0.5004255 -0.13708077 0.33189395 -0.5186375 0.27627042 -0.14546975 0.35973623
0.07638963 -0.018565305 0.5345349 0.6875966 0.0051398575 -1.1395252 -0.42719516 -1.1631562
0.10249085 -0.002824766 0.57245356 0.615145

fc1.bias f4 [10]
00000000: b44a 50be 49a8 dabe 80a3 7fbe 7929 9cbe
00000010: 6d6e 7ebe 2769 e23e bebe 293f 1aa1 543f
00000020: a3f4 30bf 080e cb3e
-0.20340997 -0.42706516 -0.24964714 -0.3050039 -0.24846812 0.4422085 0.66306674 0.8305832
-0.69123286 0.39659142

fc2.weight f4 [5, 10]
00000000: b77f 153d 4d94 993e 1ebd 553e 6385 93be
00000010: aff1 99be a6e6 c2bd d759 663e 47a5 d7bd
00000020: a594 0a3e fae1 3dbe 21f0 843e ae01 09be
00000030: acd6 723e f868 753b b297 2abe 6c9b db3d
00000040: e092 4bbe eb78 be3d 5502 bbbd e5f3 afbd
00000050: 73d5 bfbe e063 1abe d9b6 2f3e db6c 9dbd
00000060: 5038 9b3e 718e bb3d 3002 9abd bb9b 6fbe
00000070: 4431 453e 80f0 a23b 3148 51be 6f55 523e
00000080: 0c97 443e 8f98 8f3e d484 35be f2c7 1ebd
00000090: f033 a4bc 2329 043d 36c0 75be d25d 58be
000000a0: e373 f3b7 75dd 97bd 66b6 9c3d b8af 933c
000000b0: 12b0 aa3d 0592 06bf a9ec bb3e 4ded 603f
000000c0: 0ef2 95be ed09 0bbe
0.03649875 0.29995957 0.20872924 -0.28812703 -0.30067202 -0.09516649 0.22495209 -0.10529571
0.13533266 -0.18543234 0.25964454 -0.13379547 0.23714703 0.00374466 -0.1665943 0.10723004
-0.19880247 0.09300407 -0.09131304 -0.08591441 -0.37467536 -0.15077162 0.17159595 -0.07686778
0.303164 0.09158028 -0.075199485 -0.2339925 0.19257075 0.0049725175 -0.20437695 0.20540403
0.19198245 0.2804608 -0.17726451 -0.0387649 -0.020044297 0.032265794 -0.23999104 -0.2112954
-2.9021821e-05 -0.074152865 0.07651977 0.018028125 0.08334364 -0.5256656 0.36703995 0.8786209
-0.29286236 -0.13578005

fc2.bias f4 [5]
00000000: 42d1 8abe fca7 93be 2c7e a8bd 27de 8abd
00000010: a0ca 7c3e
-0.27112776 -0.288391 -0.082271904 -0.067806534 0.2468667

fc3.weight f4 [1, 5]
00000000: 6ba2 5abe 78b4 b4be 6626 973e 5e1e 7bbd
00000010: a7fe 163f
-0.2135102 -0.35293937 0.29521483 -0.061308257 0.5898232
