carv/controller_models/double_integrator/di_3layer/robust_default.pth (torch, 2455 bytes, 5 tensors)

fc1.weight f4 [10, 2]
000000 16 b6 e7 bd 14 e8 1e 3e 66 5a 14 bf 78 33 2b bf
       -0.11314027 0.15518218 -0.5795044 -0.6687541
000010 d6 70 8b be ab 2a 42 3e 21 72 89 3e 42 be 78 3f
       -0.27234524 0.18961589 0.26844886 0.9716531
000020 de 83 80 bd 97 99 3f 3e 3f e6 63 be 92 d0 89 bd
       -0.06275152 0.18710934 -0.222558 -0.06729235
000030 96 70 ee be 2b 8b 5c bf 9f 3d 95 be 4c 94 d6 3c
       -0.4657027 -0.86149853 -0.29148576 0.02619376
000040 bc 30 bd 3e 81 05 64 3f 5c 69 ee be 03 a0 96 be
       0.36951244 0.890709 -0.46564758 -0.29418954

fc1.bias f4 [10]
000000 d7 98 13 3e 95 dc 08 3f e7 03 15 be 98 d4 53 3f
       0.14413773 0.5346158 -0.1455227 0.8274627
000010 1e 6b e9 bd 28 95 8e bd f2 20 4f 3f 20 ed 27 bf
       -0.11397384 -0.06962043 0.80909646 -0.655962
000020 0d 61 b3 be 3c 61 45 be
       -0.3503498 -0.19275373

fc2.weight f4 [5, 10]
000000 a8 72 fc bd a1 e3 8b 3e 49 e4 51 be 50 10 15 be
       -0.123265564 0.27322105 -0.2049724 -0.14557004
000010 59 3b 62 be 26 a3 97 be 75 06 3d be 24 2d 8b 3e
       -0.22092952 -0.2961666 -0.18459494 0.27182877
000020 42 7e 10 3e 01 f2 1c 3e 27 b0 1e bd d8 a6 2d 3e
       0.14110664 0.15326692 -0.03874221 0.16958177
000030 c1 23 5b 3d 96 32 0a bf ba fa 69 be 4b a3 4e be
       0.053500894 -0.5398344 -0.22849551 -0.20179479
000040 3d 34 1f 3f 65 dc 3d 3e 29 9b 4d bd d3 eb 97 bc
       0.62189084 0.18541105 -0.0501968 -0.018545067
000050 81 e5 80 3e c0 d9 e5 3c 6d 84 00 3e 2b b8 b0 3e
       0.25175098 0.028057933 0.12550516 0.3451551
000060 72 1d 59 3e 1e 9d 6f be 8c d1 5a be aa 0e 7b be
       0.21202639 -0.23399779 -0.21368998 -0.24517313
000070 fe b2 37 3d ce 32 21 be c1 84 12 3e fa 39 02 3e
       0.044848435 -0.15742037 0.14308454 0.12717429
000080 5f d0 3f be d6 b3 78 3d 40 c4 31 3e 45 7c 23 bd
       -0.18731831 0.06071838 0.1736002 -0.039913435
000090 4c d2 45 3c 59 0f 96 3d 91 96 24 3e b5 76 9b 3e
       0.012074064 0.07327146 0.16073062 0.30364004
0000a0 34 d9 26 be 38 81 92 be d9 86 fe 3d 2e d6 1e 3f
       -0.16293794 -0.2861421 0.12428064 0.6204556
0000b0 e1 e4 8c 3e b8 85 67 3e 18 5d 77 bd fd ca 8c be
       0.2751837 0.22609603 -0.060391515 -0.27498618
0000c0 cf d7 b1 3e 91 b1 41 be
       0.3473496 -0.18915392

fc2.bias f4 [5]
000000 33 e4 96 be e7 aa 12 3f b5 e5 88 3e 24 08 b3 be
       -0.29470977 0.57292026 0.26737753 -0.34967148
000010 18 28 94 3e
       0.2893684

fc3.weight f4 [1, 5]
000000 9a 4a 9a bd 53 b2 c9 3e 2a 9a 8d be 3b c9 12 3e
       -0.0753376 0.39393863 -0.2765668 0.14334576
000010 44 1e 1f bf
       -0.62155557
