carv/controller_models/Quadrotor/quadrotor_4layer/natural_none_default.pth (torch, 7759 bytes, 8 tensors)

fc1.weight f4 [40, 6]
00000000: 2cc5 b3be 411a 7b3e 296c 113e 121b b43e
00000010: 92d9 c63d d410 713e 6ca6 78be 3447 adbe
00000020: e02c f3bd 42b4 b6be b2d6 eabe 5ea6 d33e
00000030: 98a0 473e 2457 893e 6269 cebd d34f 963e
00000040: a3bc bd3e 4f6b 523e 0cad 76be b3a5 1ebe
00000050: d08e 6abe 8258 893e 26ca 5bbd 8c4f 2f3e
00000060: 094d a7bd f5a4 cc3e 4855 893e 5c96 59bc
00000070: 41b1 9dbe 8305 9c3e 5ab6 6c3c 8e20 42be
00000080: ffa5 a03e 78c4 7fbc a4bd 01bf 70f3 7cbe
00000090: 6399 bd3e 6d92 2c3e b7ee 8cbe ee1e a33e
000000a0: 3dab 593c 9005 c2be 8cde f63d bf3e 03be
000000b0: cef7 17be 6d7e ae3c 8d5a bebe 612f 253c
000000c0: 2957 a93e ca4e a53d 5fed 37bd 617c 3e3e
000000d0: 404a 12bd cbb8 06be e660 e13d 8d84 f5bc
000000e0: 7fc8 7c3d b1f0 873e 2f84 d33d 61f4 28be
000000f0: 8345 58be 3c21 413e 87d9 d93d 823d a33e
00000100: c2d6 783e 2823 2e3e be08 683e b11c c53d
00000110: 3e8e 07be 5496 6cbe 6a2e ba3e d5e1 303e
00000120: e6e3 a9be 5ae9 1c3e ae14 ae3c 465d 9abc
00000130: 9ce2 ba3e 4692 0c3e c3fc 9c3d 4621 6b3d
00000140: 2af7 d2be 6f60 fc3e 13b3 c5bd f1ef 63be
00000150: 337e 503e 61f1 51bc 63ac aabd bc4e 163f
00000160: c7c9 423f c588 76be f336 0a3e dc4a 133d
00000170: e4d3 3d3c 9e3d 983d 5a63 9ebd 609c 00be
00000180: b111 71be f3c0 ae3e 6207 fdbd 5d82 d43d
00000190: 5737 993d 1b66 d53d 36da e53c 59d8 9ebd
000001a0: f4b0 bfbe 2b0d a93e 4ba7 1ebe f628 c23d
000001b0: d8c0 8d3e c2a6 0f3e 9c25 b1be 701b 9dbc
000001c0: 5519 7f3d 899b 393e 9b32 923e b9e4 ab3e
000001d0: 0718 4cbc 366d b93e 2b31 b7bd a216 51be
000001e0: bb75 2fbe b8ff ce3e 2699 893e 30f5 da3d
000001f0: 66b1 93be 17be 4cbc 3aae afbd 77ea cdbc
00000200: 3581 3ebc 9dc9 8b3e 68ea d7be 65b8 cf3c
00000210: cca0 61be 3863 c3bc 4230 98bd ac7d c43e
00000220: 2e61 a23e 8b72 893f 8644 dcbd cc3e a63e
00000230: 53c7 8c3e 58df ad3e ad0c b3be 5e27 11be
00000240: c748 27bd b2f6 a1bd 1550 86bd 5cb0 a83d
00000250: 6621 aa3e 4372 cabe 627e c3be 26e8 9e3c
00000260: d862 20be 79fa d4bd f141 cdbe 15e8 99be
00000270: 7fc7 9b3c 02ca a2bd 156a 2c3e 1aa7 813e
00000280: de4e 9fbe f462 5e3d 17d0 f33d 4ad3 ddbd
00000290: a705 87be 7517 2abe c2de cd3e 012e 72be
000002a0: 825c a5be a9b5 80be 43b8 cc3e 19f9 173e
000002b0: a7b3 aebe 15d1 ba3e 78e3 8ebe d6f2 fbbe
000002c0: ffc5 80be 904b 1b3f 611c 5dbe 3df1 4fbf
000002d0: 8555 e33c 8339 e9be 8970 b53e e6e1 ca3e
000002e0: 7b31 653c 1f2f fd3e 3dca c4be cda4 0dbe
000002f0: aad7 f83e 0f55 8f3d 0646 e43c e8a3 edbd
00000300: 13ea bcbe bb48 10be 1bae 3fbc 1183 753e
00000310: 5e2c a6be 43d2 9d3c b2ff 0ebd caf2 a6be
00000320: 8857 62be e237 503d 4157 a23e 1294 113f
00000330: d380 79be 067a b63e 16f5 90be 4a5a 953e
00000340: c7b1 333d 2ee7 08be cb30 c8be 0607 c83d
00000350: 0504 84be 57a9 6f3e 21c9 91bd 8f2e 2e3d
00000360: 0059 ca3e 71b9 8b3d 313a 113e f705 afbc
00000370: 1444 b53e c537 4cbe 28c7 0bbe 4f30 f6bd
00000380: 39f3 04be 17cd 043e 8a05 92bd ee08 91be
00000390: e643 c7be 832e 85bd be9e 2fbe f206 cdbe
000003a0: e74e 04be 7419 703e 5051 943d 45e9 b2be
000003b0: e213 ad3e 5275 cdbe f24f 6cbe e403 82be
-0.35111368 0.24521734 0.14201416 0.35176903 0.09709467 0.23541576 -0.24282235 -0.33843386
-0.118737936 -0.356844 -0.45866925 0.41337866 0.19494855 0.26824296 -0.10078694 0.29357776
0.3705798 0.20548747 -0.2408945 -0.15492897 -0.22906041 0.2682534 -0.05365958 0.17120188
-0.0816899 0.39969602 0.26822877 -0.013280477 -0.30799296 0.30472955 0.014447773 -0.18957731
0.31376645 -0.015610807 -0.50679994 -0.24702239 0.37031087 0.16852732 -0.27525875 0.31859535
0.013285455 -0.3789487 0.12054166 -0.12816904 -0.14840624 0.021300519 -0.3717846 0.010082097
0.3307431 0.080716684 -0.04490411 0.18602134 -0.03571534 -0.1315643 0.1100481 -0.029970432
0.061714645 0.2655082 0.103279464 -0.16499473 -0.21120267 0.18860334 0.10637193 0.31882864
0.24300674 0.17005599 0.22659585 0.09624613 -0.13237855 -0.2310422 0.36363536 0.17273648
-0.33181685 0.15323392 0.021250095 -0.018843304 0.36501014 0.13727674 0.07665398 0.05740478
-0.41204196 0.49292323 -0.09653296 -0.22259499 0.20360641 -0.012813897 -0.083336614 0.5871389
0.7608914 -0.24075611 0.13497524 0.035960063 0.011586163 0.074336275 -0.077337936 -0.12559652
-0.23541905 0.34131584 -0.12354924 0.10376427 0.07481258 0.10419866 0.028058153 -0.07756109
-0.37439692 0.3301786 -0.15493505 0.09480469 0.2768619 0.14028457 -0.34599006 -0.019178122
0.062280018 0.18125738 0.28554234 0.3357294 -0.0124569 0.36216134 -0.08944925 -0.2041879
-0.17134754 0.40429473 0.26874655 0.10691297 -0.28846282 -0.012496493 -0.08578153 -0.025136216
-0.011627485 0.27302256 -0.42171025 0.02535648 -0.22033995 -0.023851022 -0.074310794 0.3837713
0.31714767 1.0738081 -0.10755257 0.32469785 0.27495822 0.3395946 -0.34970608 -0.14175174
-0.04084089 -0.079083815 -0.06558243 0.08236763 0.33228606 -0.395403 -0.3818236 0.019397806
-0.15662706 -0.10399336 -0.40089372 -0.30059877 0.019016026 -0.07948686 0.16837342 0.253228
-0.31114858 0.054293588 0.11904924 -0.10831316 -0.263715 -0.1661051 0.40209013 -0.23650362
-0.3229714 -0.25138596 0.3998433 0.14841117 -0.3412144 0.36487642 -0.2790792 -0.49208707
-0.2515106 0.60662174 -0.21592857 -0.81227475 0.02775074 -0.4555169 0.3543742 0.39625472
0.013988848 0.49450013 -0.38435546 -0.13832398 0.4860204 0.069986455 0.027865421 -0.11603528
-0.36897334 -0.14090244 -0.011699225 0.23975779 -0.32455724 0.0192653 -0.03491182 -0.32607108
-0.22103703 0.050834544 0.31707194 0.5686656 -0.24365549 0.35639971 -0.28311986 0.29170448
0.043870714 -0.13369438 -0.39099726 0.097669646 -0.25784317 0.23404442 -0.071184404 0.04252487
0.39521027 0.068224795 0.14182355 -0.021365149 0.35403502 -0.1994315 -0.13650191 -0.12020933
-0.12983407 0.1296886 -0.07129963 -0.28327125 -0.3891899 -0.06503012 -0.17150399 -0.4004436
-0.12920724 0.2344721 0.07242072 -0.34943596 0.33804232 -0.4012857 -0.23077372 -0.25393593

fc1.bias f4 [40]
00000000: 889a bbbe 1490 d73e 4b5d 3ebe 0b7b 023f
00000010: cd72 e63e b276 443f 8b33 edbd 68d4 04be
00000020: ebee bebe 07b5 a63e 368e 3a3f 30ee 87be
00000030: aff0 bcbe 4c50 393f 25a9 d33e a5bd 403f
00000040: 6ae4 febe 9e13 14be ec46 bd3e 5633 83be
00000050: bcbd 1dbc cec8 34bf 675a 7cbe b4ed 293e
00000060: 45e6 e63e c0bb dd3e 432e 203f 78a9 21be
00000070: 1ffe bc3d 5daf 99be 6ac2 c63e f48d b1bd
00000080: 60ad 96be d9a9 913e 74a6 cd3e d623 973d
00000090: 8c5b a0be 7e7c d0bc 2336 9dbc db55 8cbe
-0.36641335 0.4210211 -0.18590276 0.50969 0.4500946 0.76743615 -0.11582097 -0.12971652
-0.37291655 0.32559988 0.72873247 -0.2654891 -0.36902377 0.7238815 0.41339985 0.75289375
-0.4978364 -0.14460608 0.36968172 -0.25625104 -0.009627756 -0.70618904 -0.24643861 0.16594583
0.45097557 0.43307304 0.6257059 -0.15787303 0.09228157 -0.30016604 0.388202 -0.086696535
-0.2942915 0.28449896 0.40166056 0.07379882 -0.31319845 -0.025449988 -0.019190853 -0.27409253

fc2.weight f4 [20, 40]
00000000: 6b1a c8bd 91f3 853e 1ffa cbbd 99cb 2b3e
00000010: 30f4 91bc 703f 0d3e b7e3 60bd 514d 17bc
00000020: b458 04bd 3ebc ad3e 3c0d 683e f32f c63d
00000030: aa38 b33d f0a7 0c3f 6bbc 833e e936 b23c
00000040: 760c 0f3e ba52 16be a003 12be bdf6 123e
00000050: 044b 7a3d c652 09bf 244c c9bd 7db6 8c3c
00000060: 4359 b63d b2f5 e7bc 85d3 083e cce9 15be
00000070: 6b21 b63d c0bc aa3d 3177 a93d d75a 213e
00000080: 2829 033e aca5 2cbe 67c8 56bd ba66 333d
00000090: 4ac8 08be 832c b9bd 6e6c 87bc 11a6 febd
000000a0: a2ab 48bd fa3d 1d3e 4f09 d73c a23d babc
000000b0: f6df 7b3e 8d79 aa3e 89e7 d9bd 6cd8 d0bd
000000c0: 9a11 8c3d 7e65 8b3e ebb9 fc3b b93d 0abd
000000d0: c174 c7bd 98a1 a73e 6a7f e73e 9274 263e
000000e0: bf8b 9d3d 4f9e 1d3e 8976 13be 6d0e cebc
000000f0: 7621 afbd a5ff 3cbf a460 fcbd c04d de38
00000100: 0d1b 8d3e 841c 753e fc76 8f3e 7c10 ebbd
00000110: 466c 33bd 7a63 96bd f4c0 423c 3e71 b53c
00000120: 4bd6 a5bd c22a 603e 8bb9 583e b922 823d
00000130: c90e 4b3c 232d 60bd 0e0f e43d da1f 7a3d
00000140: 7194 71be 0183 453e c965 d7bd fc2a 553e
00000150: 6d13 1c3d ce41 963e 8c8a b9bd 5ca7 babd
00000160: 003c 4a3d 9cc1 1c3e eecc 2e3e 530f 853d
00000170: cff6 4abe 2bcb 463e 24eb c13e b501 583e
00000180: 9663 16be b38a dbbd 1627 b43d 7de9 173e
00000190: b2ee afbc 09eb 34bf e13f 3f3c 7050 273e
000001a0: 0961 1e3e 19ed 093e 8e68 fe3d bbc0 dbbd
000001b0: e3d4 b13d 3cf1 f0bd 8c56 843e 668d a5bd
000001c0: f3b8 debc 50b7 103e 7e07 07bd bc4f f3bc
000001d0: 8b6d 363c e0d9 e0bd 2853 c93d cb8d 1fbe
000001e0: 9458 b93d bff7 d43d 37cf ecbd 128b 30ba
000001f0: 9ac2 273e d0f0 2f3e 1793 653d bd5a 1d3e
00000200: 0cd2 cb3d bf2d 6d3e 4fb0 6b3e 6b1a b03c
00000210: 9c92 6abd a686 a83e a4e8 d33e 58e0 023e
00000220: 9639 dcbd 09b9 afbc 95ec 0bbe 3c6a c3bd
00000230: 9c61 033e 238b 38bf 67e6 8e3a ab8e f3bd
00000240: 8119 0d3e bedb 093e 04ea 2e3e 5ced e63b
00000250: f098 20bc 5235 32be 177d 093d dcb7 643d
00000260: fe82 e43d 1ddd 50be 2b4e 2e3e c8e9 223e
00000270: da3d d3bd db20 ea3d b5eb 043e 2723 533d
00000280: 50fd cabc b49f 853d 5eba d13d a39e f0bd
00000290: 2092 0ebe 1a63 93bd 096c 903d 4035 7f3d
000002a0: 3dee f53d 55fd 7abd a042 dbbc 1079 00be
000002b0: 6df6 98bd 7921 9e3d afeb 20be b510 7cbd
000002c0: 9581 97bd 550f 1cbe 9ce2 09bc 9c06 b9bc
000002d0: 00c7 ffbd 0600 18be 12f1 18bd 071f 37bc
000002e0: 009b 3cbd f55c 123e 62bb 92bd 6ca5 b7bd
000002f0: 6f1c 4d3c 43d8 be3d 3e46 91bc 284f 07bd
00000300: 4071 e5bd f179 f4bc e123 d13d acbd 5a3d
00000310: 79f2 df3c 5c9a 013d ce69 cf3b d41e 00bb
00000320: 4294 72bd ea47 613e cfed 973d 58a9 453e
00000330: f2e4 953a 975e ce3d 0ee3 883d d594 b43d
00000340: 2da0 12bd ee4c dabd dabd 143e 1e8e a0bd
00000350: dfc6 79bd 4a27 303e 609d 943e 7b56 903e
00000360: 3e70 f1bd 6dfb cbbd 3004 45bd 7041 f93d
00000370: e919 193e 0833 37bf 0f54 eabd 9f93 293e
00000380: 9e6b e33d 1f36 573e f6d2 cd3d 35b1 153e
00000390: aed6 013d 0b87 3fbd 6dad 71be 9a8f e6bd
000003a0: 6a2c 553d 32dc 003d 9ce8 df3c 0637 543d
000003b0: 0144 a23d 8e52 193d fb5a b63d 254c 063d
000003c0: 77c4 bc3d 5faf ad3b 4887 c03d c312 4a3d
000003d0: d4b9 e33d aed7 a63e 622c 0e3e 256c 95bd
000003e0: 1c41 183e 0d36 623c 3313 af3d aaff df3d
000003f0: 66d7 dc3d a9da ad3e 7763 7c3e 2f6b 7c3e
-0.09770664 0.2616239 -0.09959816 0.16776885 -0.017816633 0.1379373 -0.054904666 -0.009234742
-0.032311156 0.3393268 0.22661299 0.09677114 0.08751042 0.5494375 0.2572969 0.021754699
0.13969597 -0.14679995 -0.14259195 0.14351936 0.061106697 -0.5364193 -0.09828976 0.017176861
0.08903744 -0.028315399 0.13361938 -0.14639968 0.08893093 0.083367825 0.08274687 0.15757309
0.12808669 -0.16860074 -0.052437212 0.04379914 -0.13357654 -0.09041693 -0.016531195 -0.124340184
-0.048991807 0.15355673 0.026249556 -0.022734467 0.24597153 0.3329586 -0.10639865 -0.10197529
0.06839295 0.2722587 0.007712593 -0.03375027 -0.09739066 0.32740474 0.45214397 0.16255406
0.0769267 0.15392421 -0.14400686 -0.025153363 -0.08551304 -0.7382758 -0.1232312 0.00010600267
0.275597 0.23936659 0.28020465 -0.114777535 -0.04380443 -0.073431924 0.011886824 0.022148725
-0.08097514 0.21891311 0.21164529 0.06354279 0.012393662 -0.054730546 0.11135684 0.061065532
-0.23591782 0.19288255 -0.10517461 0.20817178 0.038104463 0.2934708 -0.09059629 -0.091139525
0.049373627 0.15308231 0.17070362 0.064970635 -0.19820713 0.1941344 0.3787471 0.21094401
-0.14686427 -0.10719814 0.087965176 0.14835162 -0.021476123 -0.70671135 0.011672945 0.16339278
0.15466703 0.13469352 0.12422286 -0.1073012 0.08683183 -0.11764762 0.2584728 -0.0808361
-0.0271878 0.14132428 -0.03296613 -0.029701106 0.0111345155 -0.10979056 0.09830314 -0.15581433
0.09050098 0.10398816 -0.115629606 -0.000673459 0.16382828 0.17181706 0.05604848 0.15366645
0.09952173 0.23161982 0.23016475 0.021496972 -0.057268724 0.3291523 0.41388428 0.12780893
-0.10753171 -0.021450536 -0.13664468 -0.09541747 0.12830204 -0.72087306 0.0010902405 -0.11892446
0.1377926 0.13462731 0.17081457 0.0070473384 -0.009802088 -0.17403153 0.03356656 0.055839404
0.11157797 -0.20396848 0.17022006 0.15909493 -0.103145316 0.11432048 0.1298054 0.051547196
-0.024778992 0.065246016 0.10240625 -0.117490076 -0.1392293 -0.071966365 0.07051856 0.062306643
0.12008331 -0.061276753 -0.026765168 -0.12546182 -0.07468877 0.07721228 -0.15714906 -0.06153937
-0.07397763 -0.15240224 -0.008415844 -0.02258616 -0.12489128 -0.14843759 -0.037339278 -0.011176831
-0.046046257 0.14293273 -0.07164647 -0.089670986 0.012518986 0.093185924 -0.01773369 -0.033034474
-0.11203241 -0.029843302 0.102119215 0.05340354 0.0273373 0.03164135 0.0063297516 -0.0019549625
-0.05922342 0.2200009 0.07418405 0.19302881 0.0011436029 0.10076635 0.06683932 0.0881745
-0.035797287 -0.106592044 0.14525548 -0.07839607 -0.060980674 0.17202488 0.29026318 0.2819098
-0.117889866 -0.09960065 -0.048099697 0.12170684 0.1495129 -0.7156224 -0.11441814 0.16560219
0.11104511 0.2101674 0.10050003 0.1461838 0.031698875 -0.046759646 -0.23601313 -0.112578586
0.05204431 0.031459995 0.027332596 0.051810287 0.07923127 0.037432246 0.08904072 0.03278746
0.0921716 0.005300447 0.09400803 0.0493343 0.11119428 0.32586426 0.13884118 -0.072960176
0.14868587 0.013806832 0.08548584 0.10937436 0.107832715 0.33955887 0.24647318 0.24650262

fc2.bias f4 [20]
00000000: 1775 ad3e f7d7 de3e d9b1 133f b1ac 2c3e
00000010: f69e 473c e8b9 863e 1d77 7d3e b308 983e
00000020: 98b9 56bd 8dc8 893e f905 88bd 2c07 a73e
00000030: d68a f73e 36e0 eb3e 995b b83d d9d5 6ebc
00000040: d82b d2bd 7182 5dbb 8bba ca3d 1a6e d03e
0.33878395 0.43524143 0.5769325 0.16862752 0.012183895 0.2631371 0.2475247 0.29694137
-0.05242309 0.2691082 -0.06641764 0.3262266 0.4834811 0.46069497 0.09001846 -0.014577352
-0.10262269 -0.0033799673 0.098988615 0.40709

fc3.weight f4 [10, 20]
00000000: f045 bfbd defb f3bd 6035 69be e973 3dbe
00000010: 3ea7 33be d35b 9f3d 0afa cdbd cce5 86bb
00000020: 4b89 f3bd d390 a73d fbbd 80bd 52f9 f3bd
00000030: 4808 31be bdd2 34bb a21c 383e 1c26 00be
00000040: 8afd ddbd 69e6 183e 4811 7e3d c4c4 d4bd
00000050: 91f4 283e 9469 3d3e e29b e63e a2c1 973e
00000060: d46a 613e 731c 063d 7b9a a73d 8931 0c3e
00000070: 47ef 5cbe c24f 853e 32e6 113e b20c 4fbd
00000080: ea8a c13e b5b9 303e 7929 273d d211 6dbd
00000090: 002a b83d c8d4 fe3d 6514 6e3e a6c0 e2bc
000000a0: 16bf 02be a5fb 5dbe a336 833d 1b75 c0bd
000000b0: 9f20 413e ec84 9fbd 6398 493e cdfb 903d
000000c0: 9004 babd e848 b33d 32b4 59be 641b e6bd
000000d0: 5c75 673d 100c c9bc 86e2 203e fd2a debd
000000e0: f536 ac3d efbe 173e ca0d af3d e0af 4d3b
000000f0: 2826 603e f5cd a73c 12f8 6dbd f83f 5d3e
00000100: 5f3f 3b3c 9bc0 29be 650b ae3d f319 fa3d
00000110: dfd8 193c b5ad dcbe 6822 f4bd 7afb 37be
00000120: e1ab afbd 83cd bfbc 0283 663e 9937 14be
00000130: aa9e 7cbd 83b9 74be 1e9b 073e c9d5 803d
00000140: 71f1 5d3d 86d0 123e 1f06 873e 8453 2d3e
00000150: 6a8d 41be c4f0 7f3e a44b cc3d 7ae7 493e
00000160: af99 1fbe 99ab 0c3f 5ed2 383e a190 563e
00000170: 6539 823c a9ac a73e 990d 1e3d 444e 0cbe
00000180: 17bc 7e3d 6fc7 353e 4f7a f93c 1af2 6a3e
00000190: eb1d a23e 717b 613e dd0c c13d d973 8f3e
000001a0: 7a77 dd3d 6507 3b3d d2d1 993e 7706 973e
000001b0: 382b 1c3c 2fd8 ea3d 0708 2cbe aa38 f63d
000001c0: 3519 a33e 0973 aa3e 1213 693e 671f b03c
000001d0: 305a b3bd 389a b7bd 7ccc f53d f165 913e
000001e0: 513f 44be d7bf c73d 29e1 133e 72a5 0bbd
000001f0: c458 3fbe 7674 423d 1160 18bd c176 fe3c
00000200: 149e 473e 7023 503e 11ab bcba 8ba5 50bd
00000210: 5a1e 003e aa0b dbbd 909e 04be 9237 553e
00000220: 956b 2cbe ed83 4a3e 7024 1fbe 7c4a 97ba
00000230: 11b6 9a3e 4962 883e eaa7 fb3e 9ba3 5b3e
00000240: 73ea ddbd 92fe 4c3e ca64 0a3c f69f 743e
00000250: ce49 6cbd 857f a13e 3ee4 0fbe f111 093e
00000260: 597f 4f3e 0f29 c4bc 50ba 373e fcc7 c43c
00000270: 76b5 aabd 6b4b f2bd ea78 893e 1504 743e
00000280: 7994 263e 6829 d53c 32b7 35bf a313 553e
00000290: b250 0bbe 461d 35be d9ad 603d c350 c63c
000002a0: 2a85 18be 4c25 9bbe 276f 27be df05 19be
000002b0: 227b 0a3e 1809 a3be dec1 603e 00ca fbbd
000002c0: dd85 f7bc 0c8d 02be 8cf3 953d 74ff 653d
000002d0: c9da c93d a925 a23e eabd ce3e 93ac 5e3e
000002e0: 4fc0 253e 6967 983e 0c72 973d 9e2d 2c3e
000002f0: eeb2 323d aebc d63e a64b 52be 5f6c 99bd
00000300: 5af1 863e 1e9b 5b3e 1ba4 253e 2747 323d
00000310: 475b 34bd 5b24 0fbe 0ae0 68bd e195 babc
-0.093395114 -0.11913274 -0.22774267 -0.18501247 -0.17544267 0.07781186 -0.10057457 -0.0041167494
-0.11891421 0.0818192 -0.06286236 -0.119127885 -0.17288315 -0.002759143 0.17979673 -0.12514538
-0.10839374 0.14931644 0.0620282 -0.103890926 0.16499545 0.18497306 0.45040804 0.29639918
0.22013408 0.032741975 0.08183762 0.13690771 -0.21575652 0.26037413 0.14247969 -0.050549217
0.37801296 0.17258342 0.040811036 -0.057878323 0.08992386 0.124429286 0.23249967 -0.027679753
-0.12768206 -0.21678026 0.064069055 -0.09397336 0.188601 -0.07789025 0.19687037 0.07079277
-0.090829015 0.0875414 -0.21260145 -0.11235693 0.056508407 -0.024541885 0.15711412 -0.10848043
0.0840892 0.14818929 0.08547552 0.0031385347 0.21889555 0.02048395 -0.058097906 0.21606433
0.011428683 -0.1657738 0.08498267 0.12211981 0.009390085 -0.43101278 -0.11920625 -0.17967024
-0.08577705 -0.023413425 0.22510913 -0.14474334 -0.06167475 -0.23898892 0.13242766 0.06290776
0.054185335 0.14337358 0.26371858 0.1692639 -0.18901601 0.24994189 0.09975365 0.19717208
-0.1558597 0.5494934 0.18048999 0.20953609 0.015896508 0.32748917 0.038587186 -0.13701731
0.062191095 0.17751859 0.03045383 0.22943917 0.3166345 0.22019745 0.094262816 0.28018072
0.10813804 0.04566135 0.30042893 0.2949712 0.0095317885 0.11467015 -0.16799937 0.120225266
0.3185517 0.3329089 0.22761181 0.021499349 -0.08757436 -0.08964962 0.12001893 0.28398088
-0.19164778 0.097533874 0.1444136 -0.034093328 -0.18686205 0.047474347 -0.03720099 0.031062486
0.19493896 0.20326018 -0.0014394243 -0.050939124 0.12511578 -0.10695584 -0.12951112 0.2082198
-0.16837914 0.19776888 -0.15541244 -0.0011542584 0.3021703 0.26637486 0.49151546 0.2144913
-0.10835733 0.20018986 0.008446882 0.23889145 -0.057687573 0.31542602 -0.14051911 0.1338575
0.20263423 -0.02394536 0.17942166 0.024021141 -0.08335392 -0.11830791 0.26850063 0.23829682
0.16267575 0.02602072 -0.7098266 0.20808272 -0.13605002 -0.17686948 0.054853294 0.024208432
-0.14894548 -0.30301893 -0.16350995 -0.14943646 0.13523534 -0.31842875 0.21948954 -0.12294388
-0.030215198 -0.12749118 0.073218435 0.056151822 0.09856183 0.31669357 0.40379268 0.2174552
0.16186641 0.29766396 0.073947996 0.16814277 0.043627672 0.41940826 -0.2053667 -0.07491373
0.26356012 0.21445891 0.16175883 0.043524887 -0.04403236 -0.13978712 -0.056854285 -0.022776546

fc3.bias f4 [10]
00000000: 0c2b de3d 51df 8c3e 8d64 ecbd bb92 06bf
00000010: b7c1 9f3e a18f 883e b737 4cbe 19d4 b43d
00000020: f94d 3fbe 496c 4a3e
0.10848054 0.27514127 -0.11542616 -0.5256764 0.3120248 0.2667208 -0.19943129 0.08829517
-0.18682088 0.1976787

fc4.weight f4 [3, 10]
00000000: 08c1 46bd 2f39 84bd 0604 193e f35a 523e
00000010: 4a1f 043d 412f 2ebe d757 c93d 9112 16bc
00000020: 529e f0ba 4895 543e 9de1 44be c3e8 ebbd
00000030: e510 21be 8148 6cbc 184e 863e 11b4 523d
00000040: d608 4b3e a1a9 70be c95e 553e ca99 f33d
00000050: ab64 90be 95cb 873e 81e4 77be 14c2 8dbe
00000060: 136e 593e 4b88 e03e dfbe 0cbd bf8c db3e
00000070: 3361 f3be c502 9f3e
-0.048523933 -0.064562194 0.14942941 0.20542507 0.032256402 -0.17010213 0.09831207 -0.0091597
-0.001835773 0.20760071 -0.1922669 -0.11519005 -0.15729101 -0.014421583 0.26231456 0.051441256
0.1982759 -0.23502208 0.20836939 0.11894567 -0.28201804 0.26522508 -0.24208261 -0.27687132
0.21233396 0.43853983 -0.034361716 0.42880818 -0.47535095 0.310568

fc4.bias f4 [3]
00000000: ac8f 8f3e 8657 3bbe 25e8 3dbd
0.280393 -0.18295106 -0.04636397
